def @main(%data: Tensor[(1, 3, 32), float32], %weights: Tensor[(8, 3, 3), float32]) -> Tensor[(1, 8, 19), float32] {
  let %var_3: Tensor[(1, 3, 39), float32] = nn.pad(%data, 0 /* ty=int32 */, pad_width=[[0, 0], [0, 0], [3, 4]]) /* ty=Tensor[(1, 3, 39), float32] */;
  %0 = strided_slice(%var_3, begin=[0, 0, 0], end=[1, 3, 3], strides=[1]) /* ty=Tensor[(1, 3, 3), float32] */;
  %1 = strided_slice(%var_3, begin=[0, 0, 1], end=[1, 3, 4], strides=[1]) /* ty=Tensor[(1, 3, 3), float32] */;
  %2 = strided_slice(%var_3, begin=[0, 0, 2], end=[1, 3, 5], strides=[1]) /* ty=Tensor[(1, 3, 3), float32] */;
  %3 = strided_slice(%var_3, begin=[0, 0, 3], end=[1, 3, 6], strides=[1]) /* ty=Tensor[(1, 3, 3), float32] */;
  %4 = strided_slice(%var_3, begin=[0, 0, 4], end=[1, 3, 7], strides=[1]) /* ty=Tensor[(1, 3, 3), float32] */;
  %5 = strided_slice(%var_3, begin=[0, 0, 5], end=[1, 3, 8], strides=[1]) /* ty=Tensor[(1, 3, 3), float32] */;
  %6 = strided_slice(%var_3, begin=[0, 0, 6], end=[1, 3, 9], strides=[1]) /* ty=Tensor[(1, 3, 3), float32] */;
  %7 = strided_slice(%var_3, begin=[0, 0, 7], end=[1, 3, 10], strides=[1]) /* ty=Tensor[(1, 3, 3), float32] */;
  %8 = strided_slice(%var_3, begin=[0, 0, 8], end=[1, 3, 11], strides=[1]) /* ty=Tensor[(1, 3, 3), float32] */;
  %9 = strided_slice(%var_3, begin=[0, 0, 9], end=[1, 3, 12], strides=[1]) /* ty=Tensor[(1, 3, 3), float32] */;
  %10 = strided_slice(%var_3, begin=[0, 0, 10], end=[1, 3, 13], strides=[1]) /* ty=Tensor[(1, 3, 3), float32] */;
  %11 = strided_slice(%var_3, begin=[0, 0, 11], end=[1, 3, 14], strides=[1]) /* ty=Tensor[(1, 3, 3), float32] */;
  %12 = strided_slice(%var_3, begin=[0, 0, 12], end=[1, 3, 15], strides=[1]) /* ty=Tensor[(1, 3, 3), float32] */;
  %13 = strided_slice(%var_3, begin=[0, 0, 13], end=[1, 3, 16], strides=[1]) /* ty=Tensor[(1, 3, 3), float32] */;
  %14 = strided_slice(%var_3, begin=[0, 0, 14], end=[1, 3, 17], strides=[1]) /* ty=Tensor[(1, 3, 3), float32] */;
  %15 = strided_slice(%var_3, begin=[0, 0, 15], end=[1, 3, 18], strides=[1]) /* ty=Tensor[(1, 3, 3), float32] */;
  %16 = strided_slice(%var_3, begin=[0, 0, 16], end=[1, 3, 19], strides=[1]) /* ty=Tensor[(1, 3, 3), float32] */;
  %17 = strided_slice(%var_3, begin=[0, 0, 17], end=[1, 3, 20], strides=[1]) /* ty=Tensor[(1, 3, 3), float32] */;
  %18 = strided_slice(%var_3, begin=[0, 0, 18], end=[1, 3, 21], strides=[1]) /* ty=Tensor[(1, 3, 3), float32] */;
  %19 = strided_slice(%var_3, begin=[0, 0, 19], end=[1, 3, 22], strides=[1]) /* ty=Tensor[(1, 3, 3), float32] */;
  %20 = strided_slice(%var_3, begin=[0, 0, 20], end=[1, 3, 23], strides=[1]) /* ty=Tensor[(1, 3, 3), float32] */;
  %21 = strided_slice(%var_3, begin=[0, 0, 21], end=[1, 3, 24], strides=[1]) /* ty=Tensor[(1, 3, 3), float32] */;
  %22 = strided_slice(%var_3, begin=[0, 0, 22], end=[1, 3, 25], strides=[1]) /* ty=Tensor[(1, 3, 3), float32] */;
  %23 = strided_slice(%var_3, begin=[0, 0, 23], end=[1, 3, 26], strides=[1]) /* ty=Tensor[(1, 3, 3), float32] */;
  %24 = strided_slice(%var_3, begin=[0, 0, 24], end=[1, 3, 27], strides=[1]) /* ty=Tensor[(1, 3, 3), float32] */;
  %25 = strided_slice(%var_3, begin=[0, 0, 25], end=[1, 3, 28], strides=[1]) /* ty=Tensor[(1, 3, 3), float32] */;
  %26 = strided_slice(%var_3, begin=[0, 0, 26], end=[1, 3, 29], strides=[1]) /* ty=Tensor[(1, 3, 3), float32] */;
  %27 = strided_slice(%var_3, begin=[0, 0, 27], end=[1, 3, 30], strides=[1]) /* ty=Tensor[(1, 3, 3), float32] */;
  %28 = strided_slice(%var_3, begin=[0, 0, 28], end=[1, 3, 31], strides=[1]) /* ty=Tensor[(1, 3, 3), float32] */;
  %29 = strided_slice(%var_3, begin=[0, 0, 29], end=[1, 3, 32], strides=[1]) /* ty=Tensor[(1, 3, 3), float32] */;
  %30 = expand_dims(%0, axis=1) /* ty=Tensor[(1, 1, 3, 3), float32] */;
  %31 = expand_dims(%1, axis=1) /* ty=Tensor[(1, 1, 3, 3), float32] */;
  %32 = expand_dims(%2, axis=1) /* ty=Tensor[(1, 1, 3, 3), float32] */;
  %33 = expand_dims(%3, axis=1) /* ty=Tensor[(1, 1, 3, 3), float32] */;
  %34 = expand_dims(%4, axis=1) /* ty=Tensor[(1, 1, 3, 3), float32] */;
  %35 = expand_dims(%5, axis=1) /* ty=Tensor[(1, 1, 3, 3), float32] */;
  %36 = expand_dims(%6, axis=1) /* ty=Tensor[(1, 1, 3, 3), float32] */;
  %37 = expand_dims(%7, axis=1) /* ty=Tensor[(1, 1, 3, 3), float32] */;
  %38 = expand_dims(%8, axis=1) /* ty=Tensor[(1, 1, 3, 3), float32] */;
  %39 = expand_dims(%9, axis=1) /* ty=Tensor[(1, 1, 3, 3), float32] */;
  %40 = expand_dims(%10, axis=1) /* ty=Tensor[(1, 1, 3, 3), float32] */;
  %41 = expand_dims(%11, axis=1) /* ty=Tensor[(1, 1, 3, 3), float32] */;
  %42 = expand_dims(%12, axis=1) /* ty=Tensor[(1, 1, 3, 3), float32] */;
  %43 = expand_dims(%13, axis=1) /* ty=Tensor[(1, 1, 3, 3), float32] */;
  %44 = expand_dims(%14, axis=1) /* ty=Tensor[(1, 1, 3, 3), float32] */;
  %45 = expand_dims(%15, axis=1) /* ty=Tensor[(1, 1, 3, 3), float32] */;
  %46 = expand_dims(%16, axis=1) /* ty=Tensor[(1, 1, 3, 3), float32] */;
  %47 = expand_dims(%17, axis=1) /* ty=Tensor[(1, 1, 3, 3), float32] */;
  %48 = expand_dims(%18, axis=1) /* ty=Tensor[(1, 1, 3, 3), float32] */;
  %49 = expand_dims(%19, axis=1) /* ty=Tensor[(1, 1, 3, 3), float32] */;
  %50 = expand_dims(%20, axis=1) /* ty=Tensor[(1, 1, 3, 3), float32] */;
  %51 = expand_dims(%21, axis=1) /* ty=Tensor[(1, 1, 3, 3), float32] */;
  %52 = expand_dims(%22, axis=1) /* ty=Tensor[(1, 1, 3, 3), float32] */;
  %53 = expand_dims(%23, axis=1) /* ty=Tensor[(1, 1, 3, 3), float32] */;
  %54 = expand_dims(%24, axis=1) /* ty=Tensor[(1, 1, 3, 3), float32] */;
  %55 = expand_dims(%25, axis=1) /* ty=Tensor[(1, 1, 3, 3), float32] */;
  %56 = expand_dims(%26, axis=1) /* ty=Tensor[(1, 1, 3, 3), float32] */;
  %57 = expand_dims(%27, axis=1) /* ty=Tensor[(1, 1, 3, 3), float32] */;
  %58 = expand_dims(%28, axis=1) /* ty=Tensor[(1, 1, 3, 3), float32] */;
  %59 = expand_dims(%29, axis=1) /* ty=Tensor[(1, 1, 3, 3), float32] */;
  %60 = (%30, %31, %32, %33, %34, %35, %36, %37, %38, %39, %40, %41, %42, %43, %44, %45, %46, %47, %48, %49, %50, %51, %52, %53, %54, %55, %56, %57, %58, %59);
  %61 = concatenate(%60, axis=1) /* ty=Tensor[(1, 30, 3, 3), float32] */;
  %62 = expand_dims(%61, axis=1) /* ty=Tensor[(1, 1, 30, 3, 3), float32] */;
  %63 = (%62,);
  %64 = concatenate(%63, axis=1) /* ty=Tensor[(1, 1, 30, 3, 3), float32] */;
  %65 = (%64,);
  let %var_4: Tensor[(1, 1, 30, 3, 3), float32] = concatenate(%65) /* ty=Tensor[(1, 1, 30, 3, 3), float32] */;
  let %var_5: Tensor[(1, 30, 3, 3), float32] = squeeze(%var_4, axis=[1]) /* ty=Tensor[(1, 30, 3, 3), float32] */;
  let %var_6: Tensor[(8, 9), float32] = nn.batch_flatten(%weights) /* ty=Tensor[(8, 9), float32] */;
  let %var_7: Tensor[(1, 270), float32] = nn.batch_flatten(%var_5) /* ty=Tensor[(1, 270), float32] */;
  let %var_8: Tensor[(8, 19), float32] = %nn.dense(%var_6, %var_7, units=None) /* ty=Tensor[(8, 19), float32] */;
  let %var_9: Tensor[(8, 1, 19), float32] = reshape(%var_8, newshape=[8, 1, 19]) /* ty=Tensor[(8, 1, 19), float32] */;
  transpose(%var_9, axes=[1, 0, 2]) /* ty=Tensor[(1, 8, 19), float32] */
}

