#[version = "0.0.5"]
def @main(%data: Tensor[(1, 3, 32, 32), float32], %weights: Tensor[(2, 3, 16, 16), float32]) -> Tensor[(1, 2, 13, 13), float32] {
  %0 = nn.pad(%data, 0 /* ty=int32 */, pad_width=[[0, 0], [0, 0], [4, 4], [0, 0]]) /* ty=Tensor[(1, 3, 40, 32), float32] */;
  let %var_3: Tensor[(1, 3, 40, 32), float32] = %0;
  let %var_4: Tensor[(1, 3, 40, 40), float32] = nn.pad(%0, 0 /* ty=int32 */, pad_width=[[0, 0], [0, 0], [0, 0], [4, 4]]) /* ty=Tensor[(1, 3, 40, 40), float32] */;
  %1 = strided_slice(%var_4, begin=[0, 0, 0, 0], end=[1, 3, 16, 16], strides=[1]) /* ty=Tensor[(1, 3, 16, 16), float32] */;
  %2 = strided_slice(%var_4, begin=[0, 0, 0, 2], end=[1, 3, 16, 18], strides=[1]) /* ty=Tensor[(1, 3, 16, 16), float32] */;
  %3 = strided_slice(%var_4, begin=[0, 0, 0, 4], end=[1, 3, 16, 20], strides=[1]) /* ty=Tensor[(1, 3, 16, 16), float32] */;
  %4 = strided_slice(%var_4, begin=[0, 0, 0, 6], end=[1, 3, 16, 22], strides=[1]) /* ty=Tensor[(1, 3, 16, 16), float32] */;
  %5 = strided_slice(%var_4, begin=[0, 0, 0, 8], end=[1, 3, 16, 24], strides=[1]) /* ty=Tensor[(1, 3, 16, 16), float32] */;
  %6 = strided_slice(%var_4, begin=[0, 0, 0, 10], end=[1, 3, 16, 26], strides=[1]) /* ty=Tensor[(1, 3, 16, 16), float32] */;
  %7 = strided_slice(%var_4, begin=[0, 0, 0, 12], end=[1, 3, 16, 28], strides=[1]) /* ty=Tensor[(1, 3, 16, 16), float32] */;
  %8 = strided_slice(%var_4, begin=[0, 0, 0, 14], end=[1, 3, 16, 30], strides=[1]) /* ty=Tensor[(1, 3, 16, 16), float32] */;
  %9 = strided_slice(%var_4, begin=[0, 0, 0, 16], end=[1, 3, 16, 32], strides=[1]) /* ty=Tensor[(1, 3, 16, 16), float32] */;
  %10 = strided_slice(%var_4, begin=[0, 0, 0, 18], end=[1, 3, 16, 34], strides=[1]) /* ty=Tensor[(1, 3, 16, 16), float32] */;
  %11 = strided_slice(%var_4, begin=[0, 0, 0, 20], end=[1, 3, 16, 36], strides=[1]) /* ty=Tensor[(1, 3, 16, 16), float32] */;
  %12 = strided_slice(%var_4, begin=[0, 0, 0, 22], end=[1, 3, 16, 38], strides=[1]) /* ty=Tensor[(1, 3, 16, 16), float32] */;
  %13 = strided_slice(%var_4, begin=[0, 0, 0, 24], end=[1, 3, 16, 40], strides=[1]) /* ty=Tensor[(1, 3, 16, 16), float32] */;
  %14 = expand_dims(%1, axis=1) /* ty=Tensor[(1, 1, 3, 16, 16), float32] */;
  %15 = expand_dims(%2, axis=1) /* ty=Tensor[(1, 1, 3, 16, 16), float32] */;
  %16 = expand_dims(%3, axis=1) /* ty=Tensor[(1, 1, 3, 16, 16), float32] */;
  %17 = expand_dims(%4, axis=1) /* ty=Tensor[(1, 1, 3, 16, 16), float32] */;
  %18 = expand_dims(%5, axis=1) /* ty=Tensor[(1, 1, 3, 16, 16), float32] */;
  %19 = expand_dims(%6, axis=1) /* ty=Tensor[(1, 1, 3, 16, 16), float32] */;
  %20 = expand_dims(%7, axis=1) /* ty=Tensor[(1, 1, 3, 16, 16), float32] */;
  %21 = expand_dims(%8, axis=1) /* ty=Tensor[(1, 1, 3, 16, 16), float32] */;
  %22 = expand_dims(%9, axis=1) /* ty=Tensor[(1, 1, 3, 16, 16), float32] */;
  %23 = expand_dims(%10, axis=1) /* ty=Tensor[(1, 1, 3, 16, 16), float32] */;
  %24 = expand_dims(%11, axis=1) /* ty=Tensor[(1, 1, 3, 16, 16), float32] */;
  %25 = expand_dims(%12, axis=1) /* ty=Tensor[(1, 1, 3, 16, 16), float32] */;
  %26 = expand_dims(%13, axis=1) /* ty=Tensor[(1, 1, 3, 16, 16), float32] */;
  %27 = (%14, %15, %16, %17, %18, %19, %20, %21, %22, %23, %24, %25, %26);
  %28 = concatenate(%27, axis=1) /* ty=Tensor[(1, 13, 3, 16, 16), float32] */;
  %29 = strided_slice(%var_4, begin=[0, 0, 2, 0], end=[1, 3, 18, 16], strides=[1]) /* ty=Tensor[(1, 3, 16, 16), float32] */;
  %30 = strided_slice(%var_4, begin=[0, 0, 2, 2], end=[1, 3, 18, 18], strides=[1]) /* ty=Tensor[(1, 3, 16, 16), float32] */;
  %31 = strided_slice(%var_4, begin=[0, 0, 2, 4], end=[1, 3, 18, 20], strides=[1]) /* ty=Tensor[(1, 3, 16, 16), float32] */;
  %32 = strided_slice(%var_4, begin=[0, 0, 2, 6], end=[1, 3, 18, 22], strides=[1]) /* ty=Tensor[(1, 3, 16, 16), float32] */;
  %33 = strided_slice(%var_4, begin=[0, 0, 2, 8], end=[1, 3, 18, 24], strides=[1]) /* ty=Tensor[(1, 3, 16, 16), float32] */;
  %34 = strided_slice(%var_4, begin=[0, 0, 2, 10], end=[1, 3, 18, 26], strides=[1]) /* ty=Tensor[(1, 3, 16, 16), float32] */;
  %35 = strided_slice(%var_4, begin=[0, 0, 2, 12], end=[1, 3, 18, 28], strides=[1]) /* ty=Tensor[(1, 3, 16, 16), float32] */;
  %36 = strided_slice(%var_4, begin=[0, 0, 2, 14], end=[1, 3, 18, 30], strides=[1]) /* ty=Tensor[(1, 3, 16, 16), float32] */;
  %37 = strided_slice(%var_4, begin=[0, 0, 2, 16], end=[1, 3, 18, 32], strides=[1]) /* ty=Tensor[(1, 3, 16, 16), float32] */;
  %38 = strided_slice(%var_4, begin=[0, 0, 2, 18], end=[1, 3, 18, 34], strides=[1]) /* ty=Tensor[(1, 3, 16, 16), float32] */;
  %39 = strided_slice(%var_4, begin=[0, 0, 2, 20], end=[1, 3, 18, 36], strides=[1]) /* ty=Tensor[(1, 3, 16, 16), float32] */;
  %40 = strided_slice(%var_4, begin=[0, 0, 2, 22], end=[1, 3, 18, 38], strides=[1]) /* ty=Tensor[(1, 3, 16, 16), float32] */;
  %41 = strided_slice(%var_4, begin=[0, 0, 2, 24], end=[1, 3, 18, 40], strides=[1]) /* ty=Tensor[(1, 3, 16, 16), float32] */;
  %42 = expand_dims(%29, axis=1) /* ty=Tensor[(1, 1, 3, 16, 16), float32] */;
  %43 = expand_dims(%30, axis=1) /* ty=Tensor[(1, 1, 3, 16, 16), float32] */;
  %44 = expand_dims(%31, axis=1) /* ty=Tensor[(1, 1, 3, 16, 16), float32] */;
  %45 = expand_dims(%32, axis=1) /* ty=Tensor[(1, 1, 3, 16, 16), float32] */;
  %46 = expand_dims(%33, axis=1) /* ty=Tensor[(1, 1, 3, 16, 16), float32] */;
  %47 = expand_dims(%34, axis=1) /* ty=Tensor[(1, 1, 3, 16, 16), float32] */;
  %48 = expand_dims(%35, axis=1) /* ty=Tensor[(1, 1, 3, 16, 16), float32] */;
  %49 = expand_dims(%36, axis=1) /* ty=Tensor[(1, 1, 3, 16, 16), float32] */;
  %50 = expand_dims(%37, axis=1) /* ty=Tensor[(1, 1, 3, 16, 16), float32] */;
  %51 = expand_dims(%38, axis=1) /* ty=Tensor[(1, 1, 3, 16, 16), float32] */;
  %52 = expand_dims(%39, axis=1) /* ty=Tensor[(1, 1, 3, 16, 16), float32] */;
  %53 = expand_dims(%40, axis=1) /* ty=Tensor[(1, 1, 3, 16, 16), float32] */;
  %54 = expand_dims(%41, axis=1) /* ty=Tensor[(1, 1, 3, 16, 16), float32] */;
  %55 = (%42, %43, %44, %45, %46, %47, %48, %49, %50, %51, %52, %53, %54);
  %56 = concatenate(%55, axis=1) /* ty=Tensor[(1, 13, 3, 16, 16), float32] */;
  %57 = strided_slice(%var_4, begin=[0, 0, 4, 0], end=[1, 3, 20, 16], strides=[1]) /* ty=Tensor[(1, 3, 16, 16), float32] */;
  %58 = strided_slice(%var_4, begin=[0, 0, 4, 2], end=[1, 3, 20, 18], strides=[1]) /* ty=Tensor[(1, 3, 16, 16), float32] */;
  %59 = strided_slice(%var_4, begin=[0, 0, 4, 4], end=[1, 3, 20, 20], strides=[1]) /* ty=Tensor[(1, 3, 16, 16), float32] */;
  %60 = strided_slice(%var_4, begin=[0, 0, 4, 6], end=[1, 3, 20, 22], strides=[1]) /* ty=Tensor[(1, 3, 16, 16), float32] */;
  %61 = strided_slice(%var_4, begin=[0, 0, 4, 8], end=[1, 3, 20, 24], strides=[1]) /* ty=Tensor[(1, 3, 16, 16), float32] */;
  %62 = strided_slice(%var_4, begin=[0, 0, 4, 10], end=[1, 3, 20, 26], strides=[1]) /* ty=Tensor[(1, 3, 16, 16), float32] */;
  %63 = strided_slice(%var_4, begin=[0, 0, 4, 12], end=[1, 3, 20, 28], strides=[1]) /* ty=Tensor[(1, 3, 16, 16), float32] */;
  %64 = strided_slice(%var_4, begin=[0, 0, 4, 14], end=[1, 3, 20, 30], strides=[1]) /* ty=Tensor[(1, 3, 16, 16), float32] */;
  %65 = strided_slice(%var_4, begin=[0, 0, 4, 16], end=[1, 3, 20, 32], strides=[1]) /* ty=Tensor[(1, 3, 16, 16), float32] */;
  %66 = strided_slice(%var_4, begin=[0, 0, 4, 18], end=[1, 3, 20, 34], strides=[1]) /* ty=Tensor[(1, 3, 16, 16), float32] */;
  %67 = strided_slice(%var_4, begin=[0, 0, 4, 20], end=[1, 3, 20, 36], strides=[1]) /* ty=Tensor[(1, 3, 16, 16), float32] */;
  %68 = strided_slice(%var_4, begin=[0, 0, 4, 22], end=[1, 3, 20, 38], strides=[1]) /* ty=Tensor[(1, 3, 16, 16), float32] */;
  %69 = strided_slice(%var_4, begin=[0, 0, 4, 24], end=[1, 3, 20, 40], strides=[1]) /* ty=Tensor[(1, 3, 16, 16), float32] */;
  %70 = expand_dims(%57, axis=1) /* ty=Tensor[(1, 1, 3, 16, 16), float32] */;
  %71 = expand_dims(%58, axis=1) /* ty=Tensor[(1, 1, 3, 16, 16), float32] */;
  %72 = expand_dims(%59, axis=1) /* ty=Tensor[(1, 1, 3, 16, 16), float32] */;
  %73 = expand_dims(%60, axis=1) /* ty=Tensor[(1, 1, 3, 16, 16), float32] */;
  %74 = expand_dims(%61, axis=1) /* ty=Tensor[(1, 1, 3, 16, 16), float32] */;
  %75 = expand_dims(%62, axis=1) /* ty=Tensor[(1, 1, 3, 16, 16), float32] */;
  %76 = expand_dims(%63, axis=1) /* ty=Tensor[(1, 1, 3, 16, 16), float32] */;
  %77 = expand_dims(%64, axis=1) /* ty=Tensor[(1, 1, 3, 16, 16), float32] */;
  %78 = expand_dims(%65, axis=1) /* ty=Tensor[(1, 1, 3, 16, 16), float32] */;
  %79 = expand_dims(%66, axis=1) /* ty=Tensor[(1, 1, 3, 16, 16), float32] */;
  %80 = expand_dims(%67, axis=1) /* ty=Tensor[(1, 1, 3, 16, 16), float32] */;
  %81 = expand_dims(%68, axis=1) /* ty=Tensor[(1, 1, 3, 16, 16), float32] */;
  %82 = expand_dims(%69, axis=1) /* ty=Tensor[(1, 1, 3, 16, 16), float32] */;
  %83 = (%70, %71, %72, %73, %74, %75, %76, %77, %78, %79, %80, %81, %82);
  %84 = concatenate(%83, axis=1) /* ty=Tensor[(1, 13, 3, 16, 16), float32] */;
  %85 = strided_slice(%var_4, begin=[0, 0, 6, 0], end=[1, 3, 22, 16], strides=[1]) /* ty=Tensor[(1, 3, 16, 16), float32] */;
  %86 = strided_slice(%var_4, begin=[0, 0, 6, 2], end=[1, 3, 22, 18], strides=[1]) /* ty=Tensor[(1, 3, 16, 16), float32] */;
  %87 = strided_slice(%var_4, begin=[0, 0, 6, 4], end=[1, 3, 22, 20], strides=[1]) /* ty=Tensor[(1, 3, 16, 16), float32] */;
  %88 = strided_slice(%var_4, begin=[0, 0, 6, 6], end=[1, 3, 22, 22], strides=[1]) /* ty=Tensor[(1, 3, 16, 16), float32] */;
  %89 = strided_slice(%var_4, begin=[0, 0, 6, 8], end=[1, 3, 22, 24], strides=[1]) /* ty=Tensor[(1, 3, 16, 16), float32] */;
  %90 = strided_slice(%var_4, begin=[0, 0, 6, 10], end=[1, 3, 22, 26], strides=[1]) /* ty=Tensor[(1, 3, 16, 16), float32] */;
  %91 = strided_slice(%var_4, begin=[0, 0, 6, 12], end=[1, 3, 22, 28], strides=[1]) /* ty=Tensor[(1, 3, 16, 16), float32] */;
  %92 = strided_slice(%var_4, begin=[0, 0, 6, 14], end=[1, 3, 22, 30], strides=[1]) /* ty=Tensor[(1, 3, 16, 16), float32] */;
  %93 = strided_slice(%var_4, begin=[0, 0, 6, 16], end=[1, 3, 22, 32], strides=[1]) /* ty=Tensor[(1, 3, 16, 16), float32] */;
  %94 = strided_slice(%var_4, begin=[0, 0, 6, 18], end=[1, 3, 22, 34], strides=[1]) /* ty=Tensor[(1, 3, 16, 16), float32] */;
  %95 = strided_slice(%var_4, begin=[0, 0, 6, 20], end=[1, 3, 22, 36], strides=[1]) /* ty=Tensor[(1, 3, 16, 16), float32] */;
  %96 = strided_slice(%var_4, begin=[0, 0, 6, 22], end=[1, 3, 22, 38], strides=[1]) /* ty=Tensor[(1, 3, 16, 16), float32] */;
  %97 = strided_slice(%var_4, begin=[0, 0, 6, 24], end=[1, 3, 22, 40], strides=[1]) /* ty=Tensor[(1, 3, 16, 16), float32] */;
  %98 = expand_dims(%85, axis=1) /* ty=Tensor[(1, 1, 3, 16, 16), float32] */;
  %99 = expand_dims(%86, axis=1) /* ty=Tensor[(1, 1, 3, 16, 16), float32] */;
  %100 = expand_dims(%87, axis=1) /* ty=Tensor[(1, 1, 3, 16, 16), float32] */;
  %101 = expand_dims(%88, axis=1) /* ty=Tensor[(1, 1, 3, 16, 16), float32] */;
  %102 = expand_dims(%89, axis=1) /* ty=Tensor[(1, 1, 3, 16, 16), float32] */;
  %103 = expand_dims(%90, axis=1) /* ty=Tensor[(1, 1, 3, 16, 16), float32] */;
  %104 = expand_dims(%91, axis=1) /* ty=Tensor[(1, 1, 3, 16, 16), float32] */;
  %105 = expand_dims(%92, axis=1) /* ty=Tensor[(1, 1, 3, 16, 16), float32] */;
  %106 = expand_dims(%93, axis=1) /* ty=Tensor[(1, 1, 3, 16, 16), float32] */;
  %107 = expand_dims(%94, axis=1) /* ty=Tensor[(1, 1, 3, 16, 16), float32] */;
  %108 = expand_dims(%95, axis=1) /* ty=Tensor[(1, 1, 3, 16, 16), float32] */;
  %109 = expand_dims(%96, axis=1) /* ty=Tensor[(1, 1, 3, 16, 16), float32] */;
  %110 = expand_dims(%97, axis=1) /* ty=Tensor[(1, 1, 3, 16, 16), float32] */;
  %111 = (%98, %99, %100, %101, %102, %103, %104, %105, %106, %107, %108, %109, %110);
  %112 = concatenate(%111, axis=1) /* ty=Tensor[(1, 13, 3, 16, 16), float32] */;
  %113 = strided_slice(%var_4, begin=[0, 0, 8, 0], end=[1, 3, 24, 16], strides=[1]) /* ty=Tensor[(1, 3, 16, 16), float32] */;
  %114 = strided_slice(%var_4, begin=[0, 0, 8, 2], end=[1, 3, 24, 18], strides=[1]) /* ty=Tensor[(1, 3, 16, 16), float32] */;
  %115 = strided_slice(%var_4, begin=[0, 0, 8, 4], end=[1, 3, 24, 20], strides=[1]) /* ty=Tensor[(1, 3, 16, 16), float32] */;
  %116 = strided_slice(%var_4, begin=[0, 0, 8, 6], end=[1, 3, 24, 22], strides=[1]) /* ty=Tensor[(1, 3, 16, 16), float32] */;
  %117 = strided_slice(%var_4, begin=[0, 0, 8, 8], end=[1, 3, 24, 24], strides=[1]) /* ty=Tensor[(1, 3, 16, 16), float32] */;
  %118 = strided_slice(%var_4, begin=[0, 0, 8, 10], end=[1, 3, 24, 26], strides=[1]) /* ty=Tensor[(1, 3, 16, 16), float32] */;
  %119 = strided_slice(%var_4, begin=[0, 0, 8, 12], end=[1, 3, 24, 28], strides=[1]) /* ty=Tensor[(1, 3, 16, 16), float32] */;
  %120 = strided_slice(%var_4, begin=[0, 0, 8, 14], end=[1, 3, 24, 30], strides=[1]) /* ty=Tensor[(1, 3, 16, 16), float32] */;
  %121 = strided_slice(%var_4, begin=[0, 0, 8, 16], end=[1, 3, 24, 32], strides=[1]) /* ty=Tensor[(1, 3, 16, 16), float32] */;
  %122 = strided_slice(%var_4, begin=[0, 0, 8, 18], end=[1, 3, 24, 34], strides=[1]) /* ty=Tensor[(1, 3, 16, 16), float32] */;
  %123 = strided_slice(%var_4, begin=[0, 0, 8, 20], end=[1, 3, 24, 36], strides=[1]) /* ty=Tensor[(1, 3, 16, 16), float32] */;
  %124 = strided_slice(%var_4, begin=[0, 0, 8, 22], end=[1, 3, 24, 38], strides=[1]) /* ty=Tensor[(1, 3, 16, 16), float32] */;
  %125 = strided_slice(%var_4, begin=[0, 0, 8, 24], end=[1, 3, 24, 40], strides=[1]) /* ty=Tensor[(1, 3, 16, 16), float32] */;
  %126 = expand_dims(%113, axis=1) /* ty=Tensor[(1, 1, 3, 16, 16), float32] */;
  %127 = expand_dims(%114, axis=1) /* ty=Tensor[(1, 1, 3, 16, 16), float32] */;
  %128 = expand_dims(%115, axis=1) /* ty=Tensor[(1, 1, 3, 16, 16), float32] */;
  %129 = expand_dims(%116, axis=1) /* ty=Tensor[(1, 1, 3, 16, 16), float32] */;
  %130 = expand_dims(%117, axis=1) /* ty=Tensor[(1, 1, 3, 16, 16), float32] */;
  %131 = expand_dims(%118, axis=1) /* ty=Tensor[(1, 1, 3, 16, 16), float32] */;
  %132 = expand_dims(%119, axis=1) /* ty=Tensor[(1, 1, 3, 16, 16), float32] */;
  %133 = expand_dims(%120, axis=1) /* ty=Tensor[(1, 1, 3, 16, 16), float32] */;
  %134 = expand_dims(%121, axis=1) /* ty=Tensor[(1, 1, 3, 16, 16), float32] */;
  %135 = expand_dims(%122, axis=1) /* ty=Tensor[(1, 1, 3, 16, 16), float32] */;
  %136 = expand_dims(%123, axis=1) /* ty=Tensor[(1, 1, 3, 16, 16), float32] */;
  %137 = expand_dims(%124, axis=1) /* ty=Tensor[(1, 1, 3, 16, 16), float32] */;
  %138 = expand_dims(%125, axis=1) /* ty=Tensor[(1, 1, 3, 16, 16), float32] */;
  %139 = (%126, %127, %128, %129, %130, %131, %132, %133, %134, %135, %136, %137, %138);
  %140 = concatenate(%139, axis=1) /* ty=Tensor[(1, 13, 3, 16, 16), float32] */;
  %141 = strided_slice(%var_4, begin=[0, 0, 10, 0], end=[1, 3, 26, 16], strides=[1]) /* ty=Tensor[(1, 3, 16, 16), float32] */;
  %142 = strided_slice(%var_4, begin=[0, 0, 10, 2], end=[1, 3, 26, 18], strides=[1]) /* ty=Tensor[(1, 3, 16, 16), float32] */;
  %143 = strided_slice(%var_4, begin=[0, 0, 10, 4], end=[1, 3, 26, 20], strides=[1]) /* ty=Tensor[(1, 3, 16, 16), float32] */;
  %144 = strided_slice(%var_4, begin=[0, 0, 10, 6], end=[1, 3, 26, 22], strides=[1]) /* ty=Tensor[(1, 3, 16, 16), float32] */;
  %145 = strided_slice(%var_4, begin=[0, 0, 10, 8], end=[1, 3, 26, 24], strides=[1]) /* ty=Tensor[(1, 3, 16, 16), float32] */;
  %146 = strided_slice(%var_4, begin=[0, 0, 10, 10], end=[1, 3, 26, 26], strides=[1]) /* ty=Tensor[(1, 3, 16, 16), float32] */;
  %147 = strided_slice(%var_4, begin=[0, 0, 10, 12], end=[1, 3, 26, 28], strides=[1]) /* ty=Tensor[(1, 3, 16, 16), float32] */;
  %148 = strided_slice(%var_4, begin=[0, 0, 10, 14], end=[1, 3, 26, 30], strides=[1]) /* ty=Tensor[(1, 3, 16, 16), float32] */;
  %149 = strided_slice(%var_4, begin=[0, 0, 10, 16], end=[1, 3, 26, 32], strides=[1]) /* ty=Tensor[(1, 3, 16, 16), float32] */;
  %150 = strided_slice(%var_4, begin=[0, 0, 10, 18], end=[1, 3, 26, 34], strides=[1]) /* ty=Tensor[(1, 3, 16, 16), float32] */;
  %151 = strided_slice(%var_4, begin=[0, 0, 10, 20], end=[1, 3, 26, 36], strides=[1]) /* ty=Tensor[(1, 3, 16, 16), float32] */;
  %152 = strided_slice(%var_4, begin=[0, 0, 10, 22], end=[1, 3, 26, 38], strides=[1]) /* ty=Tensor[(1, 3, 16, 16), float32] */;
  %153 = strided_slice(%var_4, begin=[0, 0, 10, 24], end=[1, 3, 26, 40], strides=[1]) /* ty=Tensor[(1, 3, 16, 16), float32] */;
  %154 = expand_dims(%141, axis=1) /* ty=Tensor[(1, 1, 3, 16, 16), float32] */;
  %155 = expand_dims(%142, axis=1) /* ty=Tensor[(1, 1, 3, 16, 16), float32] */;
  %156 = expand_dims(%143, axis=1) /* ty=Tensor[(1, 1, 3, 16, 16), float32] */;
  %157 = expand_dims(%144, axis=1) /* ty=Tensor[(1, 1, 3, 16, 16), float32] */;
  %158 = expand_dims(%145, axis=1) /* ty=Tensor[(1, 1, 3, 16, 16), float32] */;
  %159 = expand_dims(%146, axis=1) /* ty=Tensor[(1, 1, 3, 16, 16), float32] */;
  %160 = expand_dims(%147, axis=1) /* ty=Tensor[(1, 1, 3, 16, 16), float32] */;
  %161 = expand_dims(%148, axis=1) /* ty=Tensor[(1, 1, 3, 16, 16), float32] */;
  %162 = expand_dims(%149, axis=1) /* ty=Tensor[(1, 1, 3, 16, 16), float32] */;
  %163 = expand_dims(%150, axis=1) /* ty=Tensor[(1, 1, 3, 16, 16), float32] */;
  %164 = expand_dims(%151, axis=1) /* ty=Tensor[(1, 1, 3, 16, 16), float32] */;
  %165 = expand_dims(%152, axis=1) /* ty=Tensor[(1, 1, 3, 16, 16), float32] */;
  %166 = expand_dims(%153, axis=1) /* ty=Tensor[(1, 1, 3, 16, 16), float32] */;
  %167 = (%154, %155, %156, %157, %158, %159, %160, %161, %162, %163, %164, %165, %166);
  %168 = concatenate(%167, axis=1) /* ty=Tensor[(1, 13, 3, 16, 16), float32] */;
  %169 = strided_slice(%var_4, begin=[0, 0, 12, 0], end=[1, 3, 28, 16], strides=[1]) /* ty=Tensor[(1, 3, 16, 16), float32] */;
  %170 = strided_slice(%var_4, begin=[0, 0, 12, 2], end=[1, 3, 28, 18], strides=[1]) /* ty=Tensor[(1, 3, 16, 16), float32] */;
  %171 = strided_slice(%var_4, begin=[0, 0, 12, 4], end=[1, 3, 28, 20], strides=[1]) /* ty=Tensor[(1, 3, 16, 16), float32] */;
  %172 = strided_slice(%var_4, begin=[0, 0, 12, 6], end=[1, 3, 28, 22], strides=[1]) /* ty=Tensor[(1, 3, 16, 16), float32] */;
  %173 = strided_slice(%var_4, begin=[0, 0, 12, 8], end=[1, 3, 28, 24], strides=[1]) /* ty=Tensor[(1, 3, 16, 16), float32] */;
  %174 = strided_slice(%var_4, begin=[0, 0, 12, 10], end=[1, 3, 28, 26], strides=[1]) /* ty=Tensor[(1, 3, 16, 16), float32] */;
  %175 = strided_slice(%var_4, begin=[0, 0, 12, 12], end=[1, 3, 28, 28], strides=[1]) /* ty=Tensor[(1, 3, 16, 16), float32] */;
  %176 = strided_slice(%var_4, begin=[0, 0, 12, 14], end=[1, 3, 28, 30], strides=[1]) /* ty=Tensor[(1, 3, 16, 16), float32] */;
  %177 = strided_slice(%var_4, begin=[0, 0, 12, 16], end=[1, 3, 28, 32], strides=[1]) /* ty=Tensor[(1, 3, 16, 16), float32] */;
  %178 = strided_slice(%var_4, begin=[0, 0, 12, 18], end=[1, 3, 28, 34], strides=[1]) /* ty=Tensor[(1, 3, 16, 16), float32] */;
  %179 = strided_slice(%var_4, begin=[0, 0, 12, 20], end=[1, 3, 28, 36], strides=[1]) /* ty=Tensor[(1, 3, 16, 16), float32] */;
  %180 = strided_slice(%var_4, begin=[0, 0, 12, 22], end=[1, 3, 28, 38], strides=[1]) /* ty=Tensor[(1, 3, 16, 16), float32] */;
  %181 = strided_slice(%var_4, begin=[0, 0, 12, 24], end=[1, 3, 28, 40], strides=[1]) /* ty=Tensor[(1, 3, 16, 16), float32] */;
  %182 = expand_dims(%169, axis=1) /* ty=Tensor[(1, 1, 3, 16, 16), float32] */;
  %183 = expand_dims(%170, axis=1) /* ty=Tensor[(1, 1, 3, 16, 16), float32] */;
  %184 = expand_dims(%171, axis=1) /* ty=Tensor[(1, 1, 3, 16, 16), float32] */;
  %185 = expand_dims(%172, axis=1) /* ty=Tensor[(1, 1, 3, 16, 16), float32] */;
  %186 = expand_dims(%173, axis=1) /* ty=Tensor[(1, 1, 3, 16, 16), float32] */;
  %187 = expand_dims(%174, axis=1) /* ty=Tensor[(1, 1, 3, 16, 16), float32] */;
  %188 = expand_dims(%175, axis=1) /* ty=Tensor[(1, 1, 3, 16, 16), float32] */;
  %189 = expand_dims(%176, axis=1) /* ty=Tensor[(1, 1, 3, 16, 16), float32] */;
  %190 = expand_dims(%177, axis=1) /* ty=Tensor[(1, 1, 3, 16, 16), float32] */;
  %191 = expand_dims(%178, axis=1) /* ty=Tensor[(1, 1, 3, 16, 16), float32] */;
  %192 = expand_dims(%179, axis=1) /* ty=Tensor[(1, 1, 3, 16, 16), float32] */;
  %193 = expand_dims(%180, axis=1) /* ty=Tensor[(1, 1, 3, 16, 16), float32] */;
  %194 = expand_dims(%181, axis=1) /* ty=Tensor[(1, 1, 3, 16, 16), float32] */;
  %195 = (%182, %183, %184, %185, %186, %187, %188, %189, %190, %191, %192, %193, %194);
  %196 = concatenate(%195, axis=1) /* ty=Tensor[(1, 13, 3, 16, 16), float32] */;
  %197 = strided_slice(%var_4, begin=[0, 0, 14, 0], end=[1, 3, 30, 16], strides=[1]) /* ty=Tensor[(1, 3, 16, 16), float32] */;
  %198 = strided_slice(%var_4, begin=[0, 0, 14, 2], end=[1, 3, 30, 18], strides=[1]) /* ty=Tensor[(1, 3, 16, 16), float32] */;
  %199 = strided_slice(%var_4, begin=[0, 0, 14, 4], end=[1, 3, 30, 20], strides=[1]) /* ty=Tensor[(1, 3, 16, 16), float32] */;
  %200 = strided_slice(%var_4, begin=[0, 0, 14, 6], end=[1, 3, 30, 22], strides=[1]) /* ty=Tensor[(1, 3, 16, 16), float32] */;
  %201 = strided_slice(%var_4, begin=[0, 0, 14, 8], end=[1, 3, 30, 24], strides=[1]) /* ty=Tensor[(1, 3, 16, 16), float32] */;
  %202 = strided_slice(%var_4, begin=[0, 0, 14, 10], end=[1, 3, 30, 26], strides=[1]) /* ty=Tensor[(1, 3, 16, 16), float32] */;
  %203 = strided_slice(%var_4, begin=[0, 0, 14, 12], end=[1, 3, 30, 28], strides=[1]) /* ty=Tensor[(1, 3, 16, 16), float32] */;
  %204 = strided_slice(%var_4, begin=[0, 0, 14, 14], end=[1, 3, 30, 30], strides=[1]) /* ty=Tensor[(1, 3, 16, 16), float32] */;
  %205 = strided_slice(%var_4, begin=[0, 0, 14, 16], end=[1, 3, 30, 32], strides=[1]) /* ty=Tensor[(1, 3, 16, 16), float32] */;
  %206 = strided_slice(%var_4, begin=[0, 0, 14, 18], end=[1, 3, 30, 34], strides=[1]) /* ty=Tensor[(1, 3, 16, 16), float32] */;
  %207 = strided_slice(%var_4, begin=[0, 0, 14, 20], end=[1, 3, 30, 36], strides=[1]) /* ty=Tensor[(1, 3, 16, 16), float32] */;
  %208 = strided_slice(%var_4, begin=[0, 0, 14, 22], end=[1, 3, 30, 38], strides=[1]) /* ty=Tensor[(1, 3, 16, 16), float32] */;
  %209 = strided_slice(%var_4, begin=[0, 0, 14, 24], end=[1, 3, 30, 40], strides=[1]) /* ty=Tensor[(1, 3, 16, 16), float32] */;
  %210 = expand_dims(%197, axis=1) /* ty=Tensor[(1, 1, 3, 16, 16), float32] */;
  %211 = expand_dims(%198, axis=1) /* ty=Tensor[(1, 1, 3, 16, 16), float32] */;
  %212 = expand_dims(%199, axis=1) /* ty=Tensor[(1, 1, 3, 16, 16), float32] */;
  %213 = expand_dims(%200, axis=1) /* ty=Tensor[(1, 1, 3, 16, 16), float32] */;
  %214 = expand_dims(%201, axis=1) /* ty=Tensor[(1, 1, 3, 16, 16), float32] */;
  %215 = expand_dims(%202, axis=1) /* ty=Tensor[(1, 1, 3, 16, 16), float32] */;
  %216 = expand_dims(%203, axis=1) /* ty=Tensor[(1, 1, 3, 16, 16), float32] */;
  %217 = expand_dims(%204, axis=1) /* ty=Tensor[(1, 1, 3, 16, 16), float32] */;
  %218 = expand_dims(%205, axis=1) /* ty=Tensor[(1, 1, 3, 16, 16), float32] */;
  %219 = expand_dims(%206, axis=1) /* ty=Tensor[(1, 1, 3, 16, 16), float32] */;
  %220 = expand_dims(%207, axis=1) /* ty=Tensor[(1, 1, 3, 16, 16), float32] */;
  %221 = expand_dims(%208, axis=1) /* ty=Tensor[(1, 1, 3, 16, 16), float32] */;
  %222 = expand_dims(%209, axis=1) /* ty=Tensor[(1, 1, 3, 16, 16), float32] */;
  %223 = (%210, %211, %212, %213, %214, %215, %216, %217, %218, %219, %220, %221, %222);
  %224 = concatenate(%223, axis=1) /* ty=Tensor[(1, 13, 3, 16, 16), float32] */;
  %225 = strided_slice(%var_4, begin=[0, 0, 16, 0], end=[1, 3, 32, 16], strides=[1]) /* ty=Tensor[(1, 3, 16, 16), float32] */;
  %226 = strided_slice(%var_4, begin=[0, 0, 16, 2], end=[1, 3, 32, 18], strides=[1]) /* ty=Tensor[(1, 3, 16, 16), float32] */;
  %227 = strided_slice(%var_4, begin=[0, 0, 16, 4], end=[1, 3, 32, 20], strides=[1]) /* ty=Tensor[(1, 3, 16, 16), float32] */;
  %228 = strided_slice(%var_4, begin=[0, 0, 16, 6], end=[1, 3, 32, 22], strides=[1]) /* ty=Tensor[(1, 3, 16, 16), float32] */;
  %229 = strided_slice(%var_4, begin=[0, 0, 16, 8], end=[1, 3, 32, 24], strides=[1]) /* ty=Tensor[(1, 3, 16, 16), float32] */;
  %230 = strided_slice(%var_4, begin=[0, 0, 16, 10], end=[1, 3, 32, 26], strides=[1]) /* ty=Tensor[(1, 3, 16, 16), float32] */;
  %231 = strided_slice(%var_4, begin=[0, 0, 16, 12], end=[1, 3, 32, 28], strides=[1]) /* ty=Tensor[(1, 3, 16, 16), float32] */;
  %232 = strided_slice(%var_4, begin=[0, 0, 16, 14], end=[1, 3, 32, 30], strides=[1]) /* ty=Tensor[(1, 3, 16, 16), float32] */;
  %233 = strided_slice(%var_4, begin=[0, 0, 16, 16], end=[1, 3, 32, 32], strides=[1]) /* ty=Tensor[(1, 3, 16, 16), float32] */;
  %234 = strided_slice(%var_4, begin=[0, 0, 16, 18], end=[1, 3, 32, 34], strides=[1]) /* ty=Tensor[(1, 3, 16, 16), float32] */;
  %235 = strided_slice(%var_4, begin=[0, 0, 16, 20], end=[1, 3, 32, 36], strides=[1]) /* ty=Tensor[(1, 3, 16, 16), float32] */;
  %236 = strided_slice(%var_4, begin=[0, 0, 16, 22], end=[1, 3, 32, 38], strides=[1]) /* ty=Tensor[(1, 3, 16, 16), float32] */;
  %237 = strided_slice(%var_4, begin=[0, 0, 16, 24], end=[1, 3, 32, 40], strides=[1]) /* ty=Tensor[(1, 3, 16, 16), float32] */;
  %238 = expand_dims(%225, axis=1) /* ty=Tensor[(1, 1, 3, 16, 16), float32] */;
  %239 = expand_dims(%226, axis=1) /* ty=Tensor[(1, 1, 3, 16, 16), float32] */;
  %240 = expand_dims(%227, axis=1) /* ty=Tensor[(1, 1, 3, 16, 16), float32] */;
  %241 = expand_dims(%228, axis=1) /* ty=Tensor[(1, 1, 3, 16, 16), float32] */;
  %242 = expand_dims(%229, axis=1) /* ty=Tensor[(1, 1, 3, 16, 16), float32] */;
  %243 = expand_dims(%230, axis=1) /* ty=Tensor[(1, 1, 3, 16, 16), float32] */;
  %244 = expand_dims(%231, axis=1) /* ty=Tensor[(1, 1, 3, 16, 16), float32] */;
  %245 = expand_dims(%232, axis=1) /* ty=Tensor[(1, 1, 3, 16, 16), float32] */;
  %246 = expand_dims(%233, axis=1) /* ty=Tensor[(1, 1, 3, 16, 16), float32] */;
  %247 = expand_dims(%234, axis=1) /* ty=Tensor[(1, 1, 3, 16, 16), float32] */;
  %248 = expand_dims(%235, axis=1) /* ty=Tensor[(1, 1, 3, 16, 16), float32] */;
  %249 = expand_dims(%236, axis=1) /* ty=Tensor[(1, 1, 3, 16, 16), float32] */;
  %250 = expand_dims(%237, axis=1) /* ty=Tensor[(1, 1, 3, 16, 16), float32] */;
  %251 = (%238, %239, %240, %241, %242, %243, %244, %245, %246, %247, %248, %249, %250);
  %252 = concatenate(%251, axis=1) /* ty=Tensor[(1, 13, 3, 16, 16), float32] */;
  %253 = strided_slice(%var_4, begin=[0, 0, 18, 0], end=[1, 3, 34, 16], strides=[1]) /* ty=Tensor[(1, 3, 16, 16), float32] */;
  %254 = strided_slice(%var_4, begin=[0, 0, 18, 2], end=[1, 3, 34, 18], strides=[1]) /* ty=Tensor[(1, 3, 16, 16), float32] */;
  %255 = strided_slice(%var_4, begin=[0, 0, 18, 4], end=[1, 3, 34, 20], strides=[1]) /* ty=Tensor[(1, 3, 16, 16), float32] */;
  %256 = strided_slice(%var_4, begin=[0, 0, 18, 6], end=[1, 3, 34, 22], strides=[1]) /* ty=Tensor[(1, 3, 16, 16), float32] */;
  %257 = strided_slice(%var_4, begin=[0, 0, 18, 8], end=[1, 3, 34, 24], strides=[1]) /* ty=Tensor[(1, 3, 16, 16), float32] */;
  %258 = strided_slice(%var_4, begin=[0, 0, 18, 10], end=[1, 3, 34, 26], strides=[1]) /* ty=Tensor[(1, 3, 16, 16), float32] */;
  %259 = strided_slice(%var_4, begin=[0, 0, 18, 12], end=[1, 3, 34, 28], strides=[1]) /* ty=Tensor[(1, 3, 16, 16), float32] */;
  %260 = strided_slice(%var_4, begin=[0, 0, 18, 14], end=[1, 3, 34, 30], strides=[1]) /* ty=Tensor[(1, 3, 16, 16), float32] */;
  %261 = strided_slice(%var_4, begin=[0, 0, 18, 16], end=[1, 3, 34, 32], strides=[1]) /* ty=Tensor[(1, 3, 16, 16), float32] */;
  %262 = strided_slice(%var_4, begin=[0, 0, 18, 18], end=[1, 3, 34, 34], strides=[1]) /* ty=Tensor[(1, 3, 16, 16), float32] */;
  %263 = strided_slice(%var_4, begin=[0, 0, 18, 20], end=[1, 3, 34, 36], strides=[1]) /* ty=Tensor[(1, 3, 16, 16), float32] */;
  %264 = strided_slice(%var_4, begin=[0, 0, 18, 22], end=[1, 3, 34, 38], strides=[1]) /* ty=Tensor[(1, 3, 16, 16), float32] */;
  %265 = strided_slice(%var_4, begin=[0, 0, 18, 24], end=[1, 3, 34, 40], strides=[1]) /* ty=Tensor[(1, 3, 16, 16), float32] */;
  %266 = expand_dims(%253, axis=1) /* ty=Tensor[(1, 1, 3, 16, 16), float32] */;
  %267 = expand_dims(%254, axis=1) /* ty=Tensor[(1, 1, 3, 16, 16), float32] */;
  %268 = expand_dims(%255, axis=1) /* ty=Tensor[(1, 1, 3, 16, 16), float32] */;
  %269 = expand_dims(%256, axis=1) /* ty=Tensor[(1, 1, 3, 16, 16), float32] */;
  %270 = expand_dims(%257, axis=1) /* ty=Tensor[(1, 1, 3, 16, 16), float32] */;
  %271 = expand_dims(%258, axis=1) /* ty=Tensor[(1, 1, 3, 16, 16), float32] */;
  %272 = expand_dims(%259, axis=1) /* ty=Tensor[(1, 1, 3, 16, 16), float32] */;
  %273 = expand_dims(%260, axis=1) /* ty=Tensor[(1, 1, 3, 16, 16), float32] */;
  %274 = expand_dims(%261, axis=1) /* ty=Tensor[(1, 1, 3, 16, 16), float32] */;
  %275 = expand_dims(%262, axis=1) /* ty=Tensor[(1, 1, 3, 16, 16), float32] */;
  %276 = expand_dims(%263, axis=1) /* ty=Tensor[(1, 1, 3, 16, 16), float32] */;
  %277 = expand_dims(%264, axis=1) /* ty=Tensor[(1, 1, 3, 16, 16), float32] */;
  %278 = expand_dims(%265, axis=1) /* ty=Tensor[(1, 1, 3, 16, 16), float32] */;
  %279 = (%266, %267, %268, %269, %270, %271, %272, %273, %274, %275, %276, %277, %278);
  %280 = concatenate(%279, axis=1) /* ty=Tensor[(1, 13, 3, 16, 16), float32] */;
  %281 = strided_slice(%var_4, begin=[0, 0, 20, 0], end=[1, 3, 36, 16], strides=[1]) /* ty=Tensor[(1, 3, 16, 16), float32] */;
  %282 = strided_slice(%var_4, begin=[0, 0, 20, 2], end=[1, 3, 36, 18], strides=[1]) /* ty=Tensor[(1, 3, 16, 16), float32] */;
  %283 = strided_slice(%var_4, begin=[0, 0, 20, 4], end=[1, 3, 36, 20], strides=[1]) /* ty=Tensor[(1, 3, 16, 16), float32] */;
  %284 = strided_slice(%var_4, begin=[0, 0, 20, 6], end=[1, 3, 36, 22], strides=[1]) /* ty=Tensor[(1, 3, 16, 16), float32] */;
  %285 = strided_slice(%var_4, begin=[0, 0, 20, 8], end=[1, 3, 36, 24], strides=[1]) /* ty=Tensor[(1, 3, 16, 16), float32] */;
  %286 = strided_slice(%var_4, begin=[0, 0, 20, 10], end=[1, 3, 36, 26], strides=[1]) /* ty=Tensor[(1, 3, 16, 16), float32] */;
  %287 = strided_slice(%var_4, begin=[0, 0, 20, 12], end=[1, 3, 36, 28], strides=[1]) /* ty=Tensor[(1, 3, 16, 16), float32] */;
  %288 = strided_slice(%var_4, begin=[0, 0, 20, 14], end=[1, 3, 36, 30], strides=[1]) /* ty=Tensor[(1, 3, 16, 16), float32] */;
  %289 = strided_slice(%var_4, begin=[0, 0, 20, 16], end=[1, 3, 36, 32], strides=[1]) /* ty=Tensor[(1, 3, 16, 16), float32] */;
  %290 = strided_slice(%var_4, begin=[0, 0, 20, 18], end=[1, 3, 36, 34], strides=[1]) /* ty=Tensor[(1, 3, 16, 16), float32] */;
  %291 = strided_slice(%var_4, begin=[0, 0, 20, 20], end=[1, 3, 36, 36], strides=[1]) /* ty=Tensor[(1, 3, 16, 16), float32] */;
  %292 = strided_slice(%var_4, begin=[0, 0, 20, 22], end=[1, 3, 36, 38], strides=[1]) /* ty=Tensor[(1, 3, 16, 16), float32] */;
  %293 = strided_slice(%var_4, begin=[0, 0, 20, 24], end=[1, 3, 36, 40], strides=[1]) /* ty=Tensor[(1, 3, 16, 16), float32] */;
  %294 = expand_dims(%281, axis=1) /* ty=Tensor[(1, 1, 3, 16, 16), float32] */;
  %295 = expand_dims(%282, axis=1) /* ty=Tensor[(1, 1, 3, 16, 16), float32] */;
  %296 = expand_dims(%283, axis=1) /* ty=Tensor[(1, 1, 3, 16, 16), float32] */;
  %297 = expand_dims(%284, axis=1) /* ty=Tensor[(1, 1, 3, 16, 16), float32] */;
  %298 = expand_dims(%285, axis=1) /* ty=Tensor[(1, 1, 3, 16, 16), float32] */;
  %299 = expand_dims(%286, axis=1) /* ty=Tensor[(1, 1, 3, 16, 16), float32] */;
  %300 = expand_dims(%287, axis=1) /* ty=Tensor[(1, 1, 3, 16, 16), float32] */;
  %301 = expand_dims(%288, axis=1) /* ty=Tensor[(1, 1, 3, 16, 16), float32] */;
  %302 = expand_dims(%289, axis=1) /* ty=Tensor[(1, 1, 3, 16, 16), float32] */;
  %303 = expand_dims(%290, axis=1) /* ty=Tensor[(1, 1, 3, 16, 16), float32] */;
  %304 = expand_dims(%291, axis=1) /* ty=Tensor[(1, 1, 3, 16, 16), float32] */;
  %305 = expand_dims(%292, axis=1) /* ty=Tensor[(1, 1, 3, 16, 16), float32] */;
  %306 = expand_dims(%293, axis=1) /* ty=Tensor[(1, 1, 3, 16, 16), float32] */;
  %307 = (%294, %295, %296, %297, %298, %299, %300, %301, %302, %303, %304, %305, %306);
  %308 = concatenate(%307, axis=1) /* ty=Tensor[(1, 13, 3, 16, 16), float32] */;
  %309 = strided_slice(%var_4, begin=[0, 0, 22, 0], end=[1, 3, 38, 16], strides=[1]) /* ty=Tensor[(1, 3, 16, 16), float32] */;
  %310 = strided_slice(%var_4, begin=[0, 0, 22, 2], end=[1, 3, 38, 18], strides=[1]) /* ty=Tensor[(1, 3, 16, 16), float32] */;
  %311 = strided_slice(%var_4, begin=[0, 0, 22, 4], end=[1, 3, 38, 20], strides=[1]) /* ty=Tensor[(1, 3, 16, 16), float32] */;
  %312 = strided_slice(%var_4, begin=[0, 0, 22, 6], end=[1, 3, 38, 22], strides=[1]) /* ty=Tensor[(1, 3, 16, 16), float32] */;
  %313 = strided_slice(%var_4, begin=[0, 0, 22, 8], end=[1, 3, 38, 24], strides=[1]) /* ty=Tensor[(1, 3, 16, 16), float32] */;
  %314 = strided_slice(%var_4, begin=[0, 0, 22, 10], end=[1, 3, 38, 26], strides=[1]) /* ty=Tensor[(1, 3, 16, 16), float32] */;
  %315 = strided_slice(%var_4, begin=[0, 0, 22, 12], end=[1, 3, 38, 28], strides=[1]) /* ty=Tensor[(1, 3, 16, 16), float32] */;
  %316 = strided_slice(%var_4, begin=[0, 0, 22, 14], end=[1, 3, 38, 30], strides=[1]) /* ty=Tensor[(1, 3, 16, 16), float32] */;
  %317 = strided_slice(%var_4, begin=[0, 0, 22, 16], end=[1, 3, 38, 32], strides=[1]) /* ty=Tensor[(1, 3, 16, 16), float32] */;
  %318 = strided_slice(%var_4, begin=[0, 0, 22, 18], end=[1, 3, 38, 34], strides=[1]) /* ty=Tensor[(1, 3, 16, 16), float32] */;
  %319 = strided_slice(%var_4, begin=[0, 0, 22, 20], end=[1, 3, 38, 36], strides=[1]) /* ty=Tensor[(1, 3, 16, 16), float32] */;
  %320 = strided_slice(%var_4, begin=[0, 0, 22, 22], end=[1, 3, 38, 38], strides=[1]) /* ty=Tensor[(1, 3, 16, 16), float32] */;
  %321 = strided_slice(%var_4, begin=[0, 0, 22, 24], end=[1, 3, 38, 40], strides=[1]) /* ty=Tensor[(1, 3, 16, 16), float32] */;
  %322 = expand_dims(%309, axis=1) /* ty=Tensor[(1, 1, 3, 16, 16), float32] */;
  %323 = expand_dims(%310, axis=1) /* ty=Tensor[(1, 1, 3, 16, 16), float32] */;
  %324 = expand_dims(%311, axis=1) /* ty=Tensor[(1, 1, 3, 16, 16), float32] */;
  %325 = expand_dims(%312, axis=1) /* ty=Tensor[(1, 1, 3, 16, 16), float32] */;
  %326 = expand_dims(%313, axis=1) /* ty=Tensor[(1, 1, 3, 16, 16), float32] */;
  %327 = expand_dims(%314, axis=1) /* ty=Tensor[(1, 1, 3, 16, 16), float32] */;
  %328 = expand_dims(%315, axis=1) /* ty=Tensor[(1, 1, 3, 16, 16), float32] */;
  %329 = expand_dims(%316, axis=1) /* ty=Tensor[(1, 1, 3, 16, 16), float32] */;
  %330 = expand_dims(%317, axis=1) /* ty=Tensor[(1, 1, 3, 16, 16), float32] */;
  %331 = expand_dims(%318, axis=1) /* ty=Tensor[(1, 1, 3, 16, 16), float32] */;
  %332 = expand_dims(%319, axis=1) /* ty=Tensor[(1, 1, 3, 16, 16), float32] */;
  %333 = expand_dims(%320, axis=1) /* ty=Tensor[(1, 1, 3, 16, 16), float32] */;
  %334 = expand_dims(%321, axis=1) /* ty=Tensor[(1, 1, 3, 16, 16), float32] */;
  %335 = (%322, %323, %324, %325, %326, %327, %328, %329, %330, %331, %332, %333, %334);
  %336 = concatenate(%335, axis=1) /* ty=Tensor[(1, 13, 3, 16, 16), float32] */;
  %337 = strided_slice(%var_4, begin=[0, 0, 24, 0], end=[1, 3, 40, 16], strides=[1]) /* ty=Tensor[(1, 3, 16, 16), float32] */;
  %338 = strided_slice(%var_4, begin=[0, 0, 24, 2], end=[1, 3, 40, 18], strides=[1]) /* ty=Tensor[(1, 3, 16, 16), float32] */;
  %339 = strided_slice(%var_4, begin=[0, 0, 24, 4], end=[1, 3, 40, 20], strides=[1]) /* ty=Tensor[(1, 3, 16, 16), float32] */;
  %340 = strided_slice(%var_4, begin=[0, 0, 24, 6], end=[1, 3, 40, 22], strides=[1]) /* ty=Tensor[(1, 3, 16, 16), float32] */;
  %341 = strided_slice(%var_4, begin=[0, 0, 24, 8], end=[1, 3, 40, 24], strides=[1]) /* ty=Tensor[(1, 3, 16, 16), float32] */;
  %342 = strided_slice(%var_4, begin=[0, 0, 24, 10], end=[1, 3, 40, 26], strides=[1]) /* ty=Tensor[(1, 3, 16, 16), float32] */;
  %343 = strided_slice(%var_4, begin=[0, 0, 24, 12], end=[1, 3, 40, 28], strides=[1]) /* ty=Tensor[(1, 3, 16, 16), float32] */;
  %344 = strided_slice(%var_4, begin=[0, 0, 24, 14], end=[1, 3, 40, 30], strides=[1]) /* ty=Tensor[(1, 3, 16, 16), float32] */;
  %345 = strided_slice(%var_4, begin=[0, 0, 24, 16], end=[1, 3, 40, 32], strides=[1]) /* ty=Tensor[(1, 3, 16, 16), float32] */;
  %346 = strided_slice(%var_4, begin=[0, 0, 24, 18], end=[1, 3, 40, 34], strides=[1]) /* ty=Tensor[(1, 3, 16, 16), float32] */;
  %347 = strided_slice(%var_4, begin=[0, 0, 24, 20], end=[1, 3, 40, 36], strides=[1]) /* ty=Tensor[(1, 3, 16, 16), float32] */;
  %348 = strided_slice(%var_4, begin=[0, 0, 24, 22], end=[1, 3, 40, 38], strides=[1]) /* ty=Tensor[(1, 3, 16, 16), float32] */;
  %349 = strided_slice(%var_4, begin=[0, 0, 24, 24], end=[1, 3, 40, 40], strides=[1]) /* ty=Tensor[(1, 3, 16, 16), float32] */;
  %350 = expand_dims(%337, axis=1) /* ty=Tensor[(1, 1, 3, 16, 16), float32] */;
  %351 = expand_dims(%338, axis=1) /* ty=Tensor[(1, 1, 3, 16, 16), float32] */;
  %352 = expand_dims(%339, axis=1) /* ty=Tensor[(1, 1, 3, 16, 16), float32] */;
  %353 = expand_dims(%340, axis=1) /* ty=Tensor[(1, 1, 3, 16, 16), float32] */;
  %354 = expand_dims(%341, axis=1) /* ty=Tensor[(1, 1, 3, 16, 16), float32] */;
  %355 = expand_dims(%342, axis=1) /* ty=Tensor[(1, 1, 3, 16, 16), float32] */;
  %356 = expand_dims(%343, axis=1) /* ty=Tensor[(1, 1, 3, 16, 16), float32] */;
  %357 = expand_dims(%344, axis=1) /* ty=Tensor[(1, 1, 3, 16, 16), float32] */;
  %358 = expand_dims(%345, axis=1) /* ty=Tensor[(1, 1, 3, 16, 16), float32] */;
  %359 = expand_dims(%346, axis=1) /* ty=Tensor[(1, 1, 3, 16, 16), float32] */;
  %360 = expand_dims(%347, axis=1) /* ty=Tensor[(1, 1, 3, 16, 16), float32] */;
  %361 = expand_dims(%348, axis=1) /* ty=Tensor[(1, 1, 3, 16, 16), float32] */;
  %362 = expand_dims(%349, axis=1) /* ty=Tensor[(1, 1, 3, 16, 16), float32] */;
  %363 = (%350, %351, %352, %353, %354, %355, %356, %357, %358, %359, %360, %361, %362);
  %364 = concatenate(%363, axis=1) /* ty=Tensor[(1, 13, 3, 16, 16), float32] */;
  %365 = expand_dims(%28, axis=1) /* ty=Tensor[(1, 1, 13, 3, 16, 16), float32] */;
  %366 = expand_dims(%56, axis=1) /* ty=Tensor[(1, 1, 13, 3, 16, 16), float32] */;
  %367 = expand_dims(%84, axis=1) /* ty=Tensor[(1, 1, 13, 3, 16, 16), float32] */;
  %368 = expand_dims(%112, axis=1) /* ty=Tensor[(1, 1, 13, 3, 16, 16), float32] */;
  %369 = expand_dims(%140, axis=1) /* ty=Tensor[(1, 1, 13, 3, 16, 16), float32] */;
  %370 = expand_dims(%168, axis=1) /* ty=Tensor[(1, 1, 13, 3, 16, 16), float32] */;
  %371 = expand_dims(%196, axis=1) /* ty=Tensor[(1, 1, 13, 3, 16, 16), float32] */;
  %372 = expand_dims(%224, axis=1) /* ty=Tensor[(1, 1, 13, 3, 16, 16), float32] */;
  %373 = expand_dims(%252, axis=1) /* ty=Tensor[(1, 1, 13, 3, 16, 16), float32] */;
  %374 = expand_dims(%280, axis=1) /* ty=Tensor[(1, 1, 13, 3, 16, 16), float32] */;
  %375 = expand_dims(%308, axis=1) /* ty=Tensor[(1, 1, 13, 3, 16, 16), float32] */;
  %376 = expand_dims(%336, axis=1) /* ty=Tensor[(1, 1, 13, 3, 16, 16), float32] */;
  %377 = expand_dims(%364, axis=1) /* ty=Tensor[(1, 1, 13, 3, 16, 16), float32] */;
  %378 = (%365, %366, %367, %368, %369, %370, %371, %372, %373, %374, %375, %376, %377);
  %379 = concatenate(%378, axis=1) /* ty=Tensor[(1, 13, 13, 3, 16, 16), float32] */;
  %380 = expand_dims(%379, axis=1) /* ty=Tensor[(1, 1, 13, 13, 3, 16, 16), float32] */;
  %381 = (%380,);
  %382 = concatenate(%381, axis=1) /* ty=Tensor[(1, 1, 13, 13, 3, 16, 16), float32] */;
  %383 = (%382,);
  let %var_5: Tensor[(1, 1, 13, 13, 3, 16, 16), float32] = concatenate(%383) /* ty=Tensor[(1, 1, 13, 13, 3, 16, 16), float32] */;
  let %var_6: Tensor[(1, 13, 13, 3, 16, 16), float32] = squeeze(%var_5, axis=[1]) /* ty=Tensor[(1, 13, 13, 3, 16, 16), float32] */;
  let %var_7: Tensor[(2, 768), float32] = reshape(%weights, newshape=[2, 768]) /* ty=Tensor[(2, 768), float32] */;
  let %var_8: Tensor[(169, 768), float32] = reshape(%var_6, newshape=[169, 768]) /* ty=Tensor[(169, 768), float32] */;
  %385 = fn (%outer_arg_0: Tensor[(2, 768), float32], %outer_arg_1: Tensor[(169, 768), float32], Compiler="ilavta", Primitive=1, global_symbol="ilavta.dense_0") -> Tensor[(2, 169), float32] {
    %384 = fn (%inner_arg_0: Tensor[(2, 768), float32], %inner_arg_1: Tensor[(169, 768), float32], Composite="ilavta.dense") -> Tensor[(2, 169), float32] {
      accelerator_call(meta[relay.attrs.AcceleratorCallAttrs][0]) /* ty=Tensor[(2, 169), float32] */
    };
    %384(%outer_arg_0, %outer_arg_1) /* ty=Tensor[(2, 169), float32] */
  };
  let %var_9: Tensor[(2, 169), float32] = %385(%var_7, %var_8) /* ty=Tensor[(2, 169), float32] */;
  let %var_10: Tensor[(2, 1, 13, 13), float32] = reshape(%var_9, newshape=[2, 1, 13, 13]) /* ty=Tensor[(2, 1, 13, 13), float32] */;
  transpose(%var_10, axes=[1, 0, 2, 3]) /* ty=Tensor[(1, 2, 13, 13), float32] */
}

#[metadata]
{
  "root": 1, 
  "nodes": [
    {
      "type_key": ""
    }, 
    {
      "type_key": "Map", 
      "keys": [
        "relay.attrs.AcceleratorCallAttrs"
      ], 
      "data": [2]
    }, 
    {
      "type_key": "Array", 
      "data": [3]
    }, 
    {
      "type_key": "relay.attrs.AcceleratorCallAttrs", 
      "attrs": {
        "func_name": "vta-dense", 
        "output_shape": "4"
      }
    }, 
    {
      "type_key": "Array", 
      "data": [5, 6]
    }, 
    {
      "type_key": "IntImm", 
      "attrs": {
        "dtype": "int32", 
        "span": "0", 
        "value": "2"
      }
    }, 
    {
      "type_key": "IntImm", 
      "attrs": {
        "dtype": "int32", 
        "span": "0", 
        "value": "169"
      }
    }
  ], 
  "b64ndarrays": [], 
  "attrs": {"tvm_version": "0.8.dev0"}
}