#[version = "0.0.5"]
def @main(%input0: Tensor[(1, 3, 32, 32), float32]) -> Tensor[(1, 10), float32] {
  %0 = multiply(%input0, 16f /* ty=float32 */) /* from_string */ /* ty=Tensor[(1, 3, 32, 32), float32] */;
  %1 = round(%0) /* from_string */ /* ty=Tensor[(1, 3, 32, 32), float32] */;
  %2 = clip(%1, a_min=-127f, a_max=127f) /* from_string */ /* ty=Tensor[(1, 3, 32, 32), float32] */;
  %3 = cast(%2, dtype="int8") /* from_string */ /* ty=Tensor[(1, 3, 32, 32), int8] */;
  %4 = nn.conv2d(%3, meta[relay.Constant][0] /* ty=Tensor[(32, 3, 3, 3), int8] */, padding=[1, 1, 1, 1], channels=32, kernel_size=[3, 3], out_dtype="int32") /* from_string */ /* ty=Tensor[(1, 32, 32, 32), int32] */;
  %5 = add(%4, 64 /* ty=int32 */) /* from_string */ /* ty=Tensor[(1, 32, 32, 32), int32] */;
  %6 = right_shift(%5, 7 /* ty=int32 */) /* from_string */ /* ty=Tensor[(1, 32, 32, 32), int32] */;
  %7 = clip(%6, a_min=-127f, a_max=127f) /* from_string */ /* ty=Tensor[(1, 32, 32, 32), int32] */;
  %8 = cast(%7, dtype="int8") /* from_string */ /* ty=Tensor[(1, 32, 32, 32), int8] */;
  %9 = cast(%8, dtype="int32") /* from_string */ /* ty=Tensor[(1, 32, 32, 32), int32] */;
  %10 = multiply(%9, meta[relay.Constant][1] /* ty=Tensor[(32, 1, 1), int32] */) /* from_string */ /* ty=Tensor[(1, 32, 32, 32), int32] */;
  %11 = add(%10, meta[relay.Constant][2] /* ty=Tensor[(32, 1, 1), int32] */) /* from_string */ /* ty=Tensor[(1, 32, 32, 32), int32] */;
  %12 = nn.relu(%11) /* from_string */ /* ty=Tensor[(1, 32, 32, 32), int32] */;
  %13 = add(%12, 128 /* ty=int32 */) /* from_string */ /* ty=Tensor[(1, 32, 32, 32), int32] */;
  %14 = right_shift(%13, 8 /* ty=int32 */) /* from_string */ /* ty=Tensor[(1, 32, 32, 32), int32] */;
  %15 = clip(%14, a_min=-127f, a_max=127f) /* from_string */ /* ty=Tensor[(1, 32, 32, 32), int32] */;
  %16 = cast(%15, dtype="int8") /* from_string */ /* ty=Tensor[(1, 32, 32, 32), int8] */;
  %17 = nn.conv2d(%16, meta[relay.Constant][3] /* ty=Tensor[(32, 32, 1, 1), int8] */, padding=[0, 0, 0, 0], channels=32, kernel_size=[1, 1], out_dtype="int32") /* from_string */ /* ty=Tensor[(1, 32, 32, 32), int32] */;
  %18 = add(%17, 128 /* ty=int32 */) /* from_string */ /* ty=Tensor[(1, 32, 32, 32), int32] */;
  %19 = right_shift(%18, 8 /* ty=int32 */) /* from_string */ /* ty=Tensor[(1, 32, 32, 32), int32] */;
  %20 = clip(%19, a_min=-127f, a_max=127f) /* from_string */ /* ty=Tensor[(1, 32, 32, 32), int32] */;
  %21 = cast(%20, dtype="int8") /* from_string */ /* ty=Tensor[(1, 32, 32, 32), int8] */;
  %22 = cast(%21, dtype="int32") /* from_string */ /* ty=Tensor[(1, 32, 32, 32), int32] */;
  %23 = multiply(%22, meta[relay.Constant][4] /* ty=Tensor[(32, 1, 1), int32] */) /* from_string */ /* ty=Tensor[(1, 32, 32, 32), int32] */;
  %24 = add(%23, meta[relay.Constant][5] /* ty=Tensor[(32, 1, 1), int32] */) /* from_string */ /* ty=Tensor[(1, 32, 32, 32), int32] */;
  %25 = nn.relu(%24) /* from_string */ /* ty=Tensor[(1, 32, 32, 32), int32] */;
  %26 = add(%25, 16 /* ty=int32 */) /* from_string */ /* ty=Tensor[(1, 32, 32, 32), int32] */;
  %27 = right_shift(%26, 5 /* ty=int32 */) /* from_string */ /* ty=Tensor[(1, 32, 32, 32), int32] */;
  %28 = clip(%27, a_min=-127f, a_max=127f) /* from_string */ /* ty=Tensor[(1, 32, 32, 32), int32] */;
  %29 = cast(%28, dtype="int8") /* from_string */ /* ty=Tensor[(1, 32, 32, 32), int8] */;
  %30 = nn.conv2d(%29, meta[relay.Constant][6] /* ty=Tensor[(32, 1, 3, 3), int8] */, padding=[1, 1, 1, 1], groups=32, channels=32, kernel_size=[3, 3], out_dtype="int32") /* from_string */ /* ty=Tensor[(1, 32, 32, 32), int32] */;
  %31 = add(%30, 128 /* ty=int32 */) /* from_string */ /* ty=Tensor[(1, 32, 32, 32), int32] */;
  %32 = right_shift(%31, 8 /* ty=int32 */) /* from_string */ /* ty=Tensor[(1, 32, 32, 32), int32] */;
  %33 = clip(%32, a_min=-127f, a_max=127f) /* from_string */ /* ty=Tensor[(1, 32, 32, 32), int32] */;
  %34 = cast(%33, dtype="int8") /* from_string */ /* ty=Tensor[(1, 32, 32, 32), int8] */;
  %35 = cast(%34, dtype="int32") /* from_string */ /* ty=Tensor[(1, 32, 32, 32), int32] */;
  %36 = multiply(%35, meta[relay.Constant][7] /* ty=Tensor[(32, 1, 1), int32] */) /* from_string */ /* ty=Tensor[(1, 32, 32, 32), int32] */;
  %37 = left_shift(%36, 1 /* ty=int32 */) /* from_string */ /* ty=Tensor[(1, 32, 32, 32), int32] */;
  %38 = add(%37, meta[relay.Constant][8] /* ty=Tensor[(32, 1, 1), int32] */) /* from_string */ /* ty=Tensor[(1, 32, 32, 32), int32] */;
  %39 = nn.relu(%38) /* from_string */ /* ty=Tensor[(1, 32, 32, 32), int32] */;
  %40 = add(%39, 32 /* ty=int32 */) /* from_string */ /* ty=Tensor[(1, 32, 32, 32), int32] */;
  %41 = right_shift(%40, 6 /* ty=int32 */) /* from_string */ /* ty=Tensor[(1, 32, 32, 32), int32] */;
  %42 = clip(%41, a_min=-127f, a_max=127f) /* from_string */ /* ty=Tensor[(1, 32, 32, 32), int32] */;
  %43 = cast(%42, dtype="int8") /* from_string */ /* ty=Tensor[(1, 32, 32, 32), int8] */;
  %44 = nn.conv2d(%43, meta[relay.Constant][9] /* ty=Tensor[(16, 32, 1, 1), int8] */, padding=[0, 0, 0, 0], channels=16, kernel_size=[1, 1], out_dtype="int32") /* from_string */ /* ty=Tensor[(1, 16, 32, 32), int32] */;
  %45 = add(%44, 256 /* ty=int32 */) /* from_string */ /* ty=Tensor[(1, 16, 32, 32), int32] */;
  %46 = right_shift(%45, 9 /* ty=int32 */) /* from_string */ /* ty=Tensor[(1, 16, 32, 32), int32] */;
  %47 = clip(%46, a_min=-127f, a_max=127f) /* from_string */ /* ty=Tensor[(1, 16, 32, 32), int32] */;
  %48 = cast(%47, dtype="int8") /* from_string */ /* ty=Tensor[(1, 16, 32, 32), int8] */;
  %49 = cast(%48, dtype="int32") /* from_string */ /* ty=Tensor[(1, 16, 32, 32), int32] */;
  %50 = multiply(%49, meta[relay.Constant][10] /* ty=Tensor[(16, 1, 1), int32] */) /* from_string */ /* ty=Tensor[(1, 16, 32, 32), int32] */;
  %51 = add(%50, meta[relay.Constant][11] /* ty=Tensor[(16, 1, 1), int32] */) /* from_string */ /* ty=Tensor[(1, 16, 32, 32), int32] */;
  %52 = add(%51, 4 /* ty=int32 */) /* from_string */ /* ty=Tensor[(1, 16, 32, 32), int32] */;
  %53 = right_shift(%52, 3 /* ty=int32 */) /* from_string */ /* ty=Tensor[(1, 16, 32, 32), int32] */;
  %54 = clip(%53, a_min=-127f, a_max=127f) /* from_string */ /* ty=Tensor[(1, 16, 32, 32), int32] */;
  %55 = cast(%54, dtype="int8") /* from_string */ /* ty=Tensor[(1, 16, 32, 32), int8] */;
  %56 = cast(%15, dtype="int8") /* from_string */ /* ty=Tensor[(1, 32, 32, 32), int8] */;
  %57 = nn.conv2d(%56, meta[relay.Constant][12] /* ty=Tensor[(16, 32, 1, 1), int8] */, padding=[0, 0, 0, 0], channels=16, kernel_size=[1, 1], out_dtype="int32") /* from_string */ /* ty=Tensor[(1, 16, 32, 32), int32] */;
  %58 = add(%57, 128 /* ty=int32 */) /* from_string */ /* ty=Tensor[(1, 16, 32, 32), int32] */;
  %59 = right_shift(%58, 8 /* ty=int32 */) /* from_string */ /* ty=Tensor[(1, 16, 32, 32), int32] */;
  %60 = clip(%59, a_min=-127f, a_max=127f) /* from_string */ /* ty=Tensor[(1, 16, 32, 32), int32] */;
  %61 = cast(%60, dtype="int8") /* from_string */ /* ty=Tensor[(1, 16, 32, 32), int8] */;
  %62 = cast(%61, dtype="int32") /* from_string */ /* ty=Tensor[(1, 16, 32, 32), int32] */;
  %63 = multiply(%62, meta[relay.Constant][13] /* ty=Tensor[(16, 1, 1), int32] */) /* from_string */ /* ty=Tensor[(1, 16, 32, 32), int32] */;
  %64 = add(%63, meta[relay.Constant][14] /* ty=Tensor[(16, 1, 1), int32] */) /* from_string */ /* ty=Tensor[(1, 16, 32, 32), int32] */;
  %65 = add(%64, 8 /* ty=int32 */) /* from_string */ /* ty=Tensor[(1, 16, 32, 32), int32] */;
  %66 = right_shift(%65, 4 /* ty=int32 */) /* from_string */ /* ty=Tensor[(1, 16, 32, 32), int32] */;
  %67 = clip(%66, a_min=-127f, a_max=127f) /* from_string */ /* ty=Tensor[(1, 16, 32, 32), int32] */;
  %68 = cast(%67, dtype="int8") /* from_string */ /* ty=Tensor[(1, 16, 32, 32), int8] */;
  %69 = cast(%55, dtype="int32") /* from_string */ /* ty=Tensor[(1, 16, 32, 32), int32] */;
  %70 = cast(%68, dtype="int32") /* from_string */ /* ty=Tensor[(1, 16, 32, 32), int32] */;
  %71 = add(%69, %70) /* from_string */ /* ty=Tensor[(1, 16, 32, 32), int32] */;
  %72 = clip(%71, a_min=-127f, a_max=127f) /* from_string */ /* ty=Tensor[(1, 16, 32, 32), int32] */;
  %73 = cast(%72, dtype="int8") /* from_string */ /* ty=Tensor[(1, 16, 32, 32), int8] */;
  %74 = nn.conv2d(%73, meta[relay.Constant][15] /* ty=Tensor[(96, 16, 1, 1), int8] */, padding=[0, 0, 0, 0], channels=96, kernel_size=[1, 1], out_dtype="int32") /* from_string */ /* ty=Tensor[(1, 96, 32, 32), int32] */;
  %75 = add(%74, 128 /* ty=int32 */) /* from_string */ /* ty=Tensor[(1, 96, 32, 32), int32] */;
  %76 = right_shift(%75, 8 /* ty=int32 */) /* from_string */ /* ty=Tensor[(1, 96, 32, 32), int32] */;
  %77 = clip(%76, a_min=-127f, a_max=127f) /* from_string */ /* ty=Tensor[(1, 96, 32, 32), int32] */;
  %78 = cast(%77, dtype="int8") /* from_string */ /* ty=Tensor[(1, 96, 32, 32), int8] */;
  %79 = cast(%78, dtype="int32") /* from_string */ /* ty=Tensor[(1, 96, 32, 32), int32] */;
  %80 = multiply(%79, meta[relay.Constant][16] /* ty=Tensor[(96, 1, 1), int32] */) /* from_string */ /* ty=Tensor[(1, 96, 32, 32), int32] */;
  %81 = add(%80, meta[relay.Constant][17] /* ty=Tensor[(96, 1, 1), int32] */) /* from_string */ /* ty=Tensor[(1, 96, 32, 32), int32] */;
  %82 = nn.relu(%81) /* from_string */ /* ty=Tensor[(1, 96, 32, 32), int32] */;
  %83 = add(%82, 16 /* ty=int32 */) /* from_string */ /* ty=Tensor[(1, 96, 32, 32), int32] */;
  %84 = right_shift(%83, 5 /* ty=int32 */) /* from_string */ /* ty=Tensor[(1, 96, 32, 32), int32] */;
  %85 = clip(%84, a_min=-127f, a_max=127f) /* from_string */ /* ty=Tensor[(1, 96, 32, 32), int32] */;
  %86 = cast(%85, dtype="int8") /* from_string */ /* ty=Tensor[(1, 96, 32, 32), int8] */;
  %87 = nn.conv2d(%86, meta[relay.Constant][18] /* ty=Tensor[(96, 1, 3, 3), int8] */, padding=[1, 1, 1, 1], groups=96, channels=96, kernel_size=[3, 3], out_dtype="int32") /* from_string */ /* ty=Tensor[(1, 96, 32, 32), int32] */;
  %88 = add(%87, 128 /* ty=int32 */) /* from_string */ /* ty=Tensor[(1, 96, 32, 32), int32] */;
  %89 = right_shift(%88, 8 /* ty=int32 */) /* from_string */ /* ty=Tensor[(1, 96, 32, 32), int32] */;
  %90 = clip(%89, a_min=-127f, a_max=127f) /* from_string */ /* ty=Tensor[(1, 96, 32, 32), int32] */;
  %91 = cast(%90, dtype="int8") /* from_string */ /* ty=Tensor[(1, 96, 32, 32), int8] */;
  %92 = cast(%91, dtype="int32") /* from_string */ /* ty=Tensor[(1, 96, 32, 32), int32] */;
  %93 = multiply(%92, meta[relay.Constant][19] /* ty=Tensor[(96, 1, 1), int32] */) /* from_string */ /* ty=Tensor[(1, 96, 32, 32), int32] */;
  %94 = left_shift(%93, 1 /* ty=int32 */) /* from_string */ /* ty=Tensor[(1, 96, 32, 32), int32] */;
  %95 = add(%94, meta[relay.Constant][20] /* ty=Tensor[(96, 1, 1), int32] */) /* from_string */ /* ty=Tensor[(1, 96, 32, 32), int32] */;
  %96 = nn.relu(%95) /* from_string */ /* ty=Tensor[(1, 96, 32, 32), int32] */;
  %97 = add(%96, 8 /* ty=int32 */) /* from_string */ /* ty=Tensor[(1, 96, 32, 32), int32] */;
  %98 = right_shift(%97, 4 /* ty=int32 */) /* from_string */ /* ty=Tensor[(1, 96, 32, 32), int32] */;
  %99 = clip(%98, a_min=-127f, a_max=127f) /* from_string */ /* ty=Tensor[(1, 96, 32, 32), int32] */;
  %100 = cast(%99, dtype="int8") /* from_string */ /* ty=Tensor[(1, 96, 32, 32), int8] */;
  %101 = nn.conv2d(%100, meta[relay.Constant][21] /* ty=Tensor[(24, 96, 1, 1), int8] */, padding=[0, 0, 0, 0], channels=24, kernel_size=[1, 1], out_dtype="int32") /* from_string */ /* ty=Tensor[(1, 24, 32, 32), int32] */;
  %102 = add(%101, 128 /* ty=int32 */) /* from_string */ /* ty=Tensor[(1, 24, 32, 32), int32] */;
  %103 = right_shift(%102, 8 /* ty=int32 */) /* from_string */ /* ty=Tensor[(1, 24, 32, 32), int32] */;
  %104 = clip(%103, a_min=-127f, a_max=127f) /* from_string */ /* ty=Tensor[(1, 24, 32, 32), int32] */;
  %105 = cast(%104, dtype="int8") /* from_string */ /* ty=Tensor[(1, 24, 32, 32), int8] */;
  %106 = cast(%105, dtype="int32") /* from_string */ /* ty=Tensor[(1, 24, 32, 32), int32] */;
  %107 = multiply(%106, meta[relay.Constant][22] /* ty=Tensor[(24, 1, 1), int32] */) /* from_string */ /* ty=Tensor[(1, 24, 32, 32), int32] */;
  %108 = add(%107, meta[relay.Constant][23] /* ty=Tensor[(24, 1, 1), int32] */) /* from_string */ /* ty=Tensor[(1, 24, 32, 32), int32] */;
  %109 = add(%108, 8 /* ty=int32 */) /* from_string */ /* ty=Tensor[(1, 24, 32, 32), int32] */;
  %110 = right_shift(%109, 4 /* ty=int32 */) /* from_string */ /* ty=Tensor[(1, 24, 32, 32), int32] */;
  %111 = clip(%110, a_min=-127f, a_max=127f) /* from_string */ /* ty=Tensor[(1, 24, 32, 32), int32] */;
  %112 = cast(%111, dtype="int8") /* from_string */ /* ty=Tensor[(1, 24, 32, 32), int8] */;
  %113 = cast(%72, dtype="int8") /* from_string */ /* ty=Tensor[(1, 16, 32, 32), int8] */;
  %114 = nn.conv2d(%113, meta[relay.Constant][24] /* ty=Tensor[(24, 16, 1, 1), int8] */, padding=[0, 0, 0, 0], channels=24, kernel_size=[1, 1], out_dtype="int32") /* from_string */ /* ty=Tensor[(1, 24, 32, 32), int32] */;
  %115 = add(%114, 128 /* ty=int32 */) /* from_string */ /* ty=Tensor[(1, 24, 32, 32), int32] */;
  %116 = right_shift(%115, 8 /* ty=int32 */) /* from_string */ /* ty=Tensor[(1, 24, 32, 32), int32] */;
  %117 = clip(%116, a_min=-127f, a_max=127f) /* from_string */ /* ty=Tensor[(1, 24, 32, 32), int32] */;
  %118 = cast(%117, dtype="int8") /* from_string */ /* ty=Tensor[(1, 24, 32, 32), int8] */;
  %119 = cast(%118, dtype="int32") /* from_string */ /* ty=Tensor[(1, 24, 32, 32), int32] */;
  %120 = multiply(%119, meta[relay.Constant][25] /* ty=Tensor[(24, 1, 1), int32] */) /* from_string */ /* ty=Tensor[(1, 24, 32, 32), int32] */;
  %121 = left_shift(%120, 18 /* ty=int32 */) /* from_string */ /* ty=Tensor[(1, 24, 32, 32), int32] */;
  %122 = add(%121, meta[relay.Constant][26] /* ty=Tensor[(24, 1, 1), int32] */) /* from_string */ /* ty=Tensor[(1, 24, 32, 32), int32] */;
  %123 = add(%122, 4194304 /* ty=int32 */) /* from_string */ /* ty=Tensor[(1, 24, 32, 32), int32] */;
  %124 = right_shift(%123, 23 /* ty=int32 */) /* from_string */ /* ty=Tensor[(1, 24, 32, 32), int32] */;
  %125 = clip(%124, a_min=-127f, a_max=127f) /* from_string */ /* ty=Tensor[(1, 24, 32, 32), int32] */;
  %126 = cast(%125, dtype="int8") /* from_string */ /* ty=Tensor[(1, 24, 32, 32), int8] */;
  %127 = cast(%112, dtype="int32") /* from_string */ /* ty=Tensor[(1, 24, 32, 32), int32] */;
  %128 = cast(%126, dtype="int32") /* from_string */ /* ty=Tensor[(1, 24, 32, 32), int32] */;
  %129 = add(%127, %128) /* from_string */ /* ty=Tensor[(1, 24, 32, 32), int32] */;
  %130 = clip(%129, a_min=-127f, a_max=127f) /* from_string */ /* ty=Tensor[(1, 24, 32, 32), int32] */;
  %131 = cast(%130, dtype="int8") /* from_string */ /* ty=Tensor[(1, 24, 32, 32), int8] */;
  %132 = nn.conv2d(%131, meta[relay.Constant][27] /* ty=Tensor[(144, 24, 1, 1), int8] */, padding=[0, 0, 0, 0], channels=144, kernel_size=[1, 1], out_dtype="int32") /* from_string */ /* ty=Tensor[(1, 144, 32, 32), int32] */;
  %133 = add(%132, 256 /* ty=int32 */) /* from_string */ /* ty=Tensor[(1, 144, 32, 32), int32] */;
  %134 = right_shift(%133, 9 /* ty=int32 */) /* from_string */ /* ty=Tensor[(1, 144, 32, 32), int32] */;
  %135 = clip(%134, a_min=-127f, a_max=127f) /* from_string */ /* ty=Tensor[(1, 144, 32, 32), int32] */;
  %136 = cast(%135, dtype="int8") /* from_string */ /* ty=Tensor[(1, 144, 32, 32), int8] */;
  %137 = cast(%136, dtype="int32") /* from_string */ /* ty=Tensor[(1, 144, 32, 32), int32] */;
  %138 = multiply(%137, meta[relay.Constant][28] /* ty=Tensor[(144, 1, 1), int32] */) /* from_string */ /* ty=Tensor[(1, 144, 32, 32), int32] */;
  %139 = add(%138, meta[relay.Constant][29] /* ty=Tensor[(144, 1, 1), int32] */) /* from_string */ /* ty=Tensor[(1, 144, 32, 32), int32] */;
  %140 = nn.relu(%139) /* from_string */ /* ty=Tensor[(1, 144, 32, 32), int32] */;
  %141 = add(%140, 32 /* ty=int32 */) /* from_string */ /* ty=Tensor[(1, 144, 32, 32), int32] */;
  %142 = right_shift(%141, 6 /* ty=int32 */) /* from_string */ /* ty=Tensor[(1, 144, 32, 32), int32] */;
  %143 = clip(%142, a_min=-127f, a_max=127f) /* from_string */ /* ty=Tensor[(1, 144, 32, 32), int32] */;
  %144 = cast(%143, dtype="int8") /* from_string */ /* ty=Tensor[(1, 144, 32, 32), int8] */;
  %145 = nn.conv2d(%144, meta[relay.Constant][30] /* ty=Tensor[(144, 1, 3, 3), int8] */, padding=[1, 1, 1, 1], groups=144, channels=144, kernel_size=[3, 3], out_dtype="int32") /* from_string */ /* ty=Tensor[(1, 144, 32, 32), int32] */;
  %146 = add(%145, 256 /* ty=int32 */) /* from_string */ /* ty=Tensor[(1, 144, 32, 32), int32] */;
  %147 = right_shift(%146, 9 /* ty=int32 */) /* from_string */ /* ty=Tensor[(1, 144, 32, 32), int32] */;
  %148 = clip(%147, a_min=-127f, a_max=127f) /* from_string */ /* ty=Tensor[(1, 144, 32, 32), int32] */;
  %149 = cast(%148, dtype="int8") /* from_string */ /* ty=Tensor[(1, 144, 32, 32), int8] */;
  %150 = cast(%149, dtype="int32") /* from_string */ /* ty=Tensor[(1, 144, 32, 32), int32] */;
  %151 = multiply(%150, meta[relay.Constant][31] /* ty=Tensor[(144, 1, 1), int32] */) /* from_string */ /* ty=Tensor[(1, 144, 32, 32), int32] */;
  %152 = left_shift(%151, 3 /* ty=int32 */) /* from_string */ /* ty=Tensor[(1, 144, 32, 32), int32] */;
  %153 = add(%152, meta[relay.Constant][32] /* ty=Tensor[(144, 1, 1), int32] */) /* from_string */ /* ty=Tensor[(1, 144, 32, 32), int32] */;
  %154 = nn.relu(%153) /* from_string */ /* ty=Tensor[(1, 144, 32, 32), int32] */;
  %155 = add(%154, 16 /* ty=int32 */) /* from_string */ /* ty=Tensor[(1, 144, 32, 32), int32] */;
  %156 = right_shift(%155, 5 /* ty=int32 */) /* from_string */ /* ty=Tensor[(1, 144, 32, 32), int32] */;
  %157 = clip(%156, a_min=-127f, a_max=127f) /* from_string */ /* ty=Tensor[(1, 144, 32, 32), int32] */;
  %158 = cast(%157, dtype="int8") /* from_string */ /* ty=Tensor[(1, 144, 32, 32), int8] */;
  %159 = nn.conv2d(%158, meta[relay.Constant][33] /* ty=Tensor[(24, 144, 1, 1), int8] */, padding=[0, 0, 0, 0], channels=24, kernel_size=[1, 1], out_dtype="int32") /* from_string */ /* ty=Tensor[(1, 24, 32, 32), int32] */;
  %160 = add(%159, 256 /* ty=int32 */) /* from_string */ /* ty=Tensor[(1, 24, 32, 32), int32] */;
  %161 = right_shift(%160, 9 /* ty=int32 */) /* from_string */ /* ty=Tensor[(1, 24, 32, 32), int32] */;
  %162 = clip(%161, a_min=-127f, a_max=127f) /* from_string */ /* ty=Tensor[(1, 24, 32, 32), int32] */;
  %163 = cast(%162, dtype="int8") /* from_string */ /* ty=Tensor[(1, 24, 32, 32), int8] */;
  %164 = cast(%163, dtype="int32") /* from_string */ /* ty=Tensor[(1, 24, 32, 32), int32] */;
  %165 = multiply(%164, meta[relay.Constant][34] /* ty=Tensor[(24, 1, 1), int32] */) /* from_string */ /* ty=Tensor[(1, 24, 32, 32), int32] */;
  %166 = add(%165, meta[relay.Constant][35] /* ty=Tensor[(24, 1, 1), int32] */) /* from_string */ /* ty=Tensor[(1, 24, 32, 32), int32] */;
  %167 = add(%166, 8 /* ty=int32 */) /* from_string */ /* ty=Tensor[(1, 24, 32, 32), int32] */;
  %168 = right_shift(%167, 4 /* ty=int32 */) /* from_string */ /* ty=Tensor[(1, 24, 32, 32), int32] */;
  %169 = clip(%168, a_min=-127f, a_max=127f) /* from_string */ /* ty=Tensor[(1, 24, 32, 32), int32] */;
  %170 = cast(%169, dtype="int8") /* from_string */ /* ty=Tensor[(1, 24, 32, 32), int8] */;
  %171 = cast(%130, dtype="int8") /* from_string */ /* ty=Tensor[(1, 24, 32, 32), int8] */;
  %172 = cast(%170, dtype="int32") /* from_string */ /* ty=Tensor[(1, 24, 32, 32), int32] */;
  %173 = cast(%171, dtype="int32") /* from_string */ /* ty=Tensor[(1, 24, 32, 32), int32] */;
  %174 = add(%172, %173) /* from_string */ /* ty=Tensor[(1, 24, 32, 32), int32] */;
  %175 = cast(%174, dtype="int8") /* from_string */ /* ty=Tensor[(1, 24, 32, 32), int8] */;
  %176 = nn.conv2d(%175, meta[relay.Constant][36] /* ty=Tensor[(144, 24, 1, 1), int8] */, padding=[0, 0, 0, 0], channels=144, kernel_size=[1, 1], out_dtype="int32") /* from_string */ /* ty=Tensor[(1, 144, 32, 32), int32] */;
  %177 = add(%176, 128 /* ty=int32 */) /* from_string */ /* ty=Tensor[(1, 144, 32, 32), int32] */;
  %178 = right_shift(%177, 8 /* ty=int32 */) /* from_string */ /* ty=Tensor[(1, 144, 32, 32), int32] */;
  %179 = clip(%178, a_min=-127f, a_max=127f) /* from_string */ /* ty=Tensor[(1, 144, 32, 32), int32] */;
  %180 = cast(%179, dtype="int8") /* from_string */ /* ty=Tensor[(1, 144, 32, 32), int8] */;
  %181 = cast(%180, dtype="int32") /* from_string */ /* ty=Tensor[(1, 144, 32, 32), int32] */;
  %182 = multiply(%181, meta[relay.Constant][37] /* ty=Tensor[(144, 1, 1), int32] */) /* from_string */ /* ty=Tensor[(1, 144, 32, 32), int32] */;
  %183 = add(%182, meta[relay.Constant][38] /* ty=Tensor[(144, 1, 1), int32] */) /* from_string */ /* ty=Tensor[(1, 144, 32, 32), int32] */;
  %184 = nn.relu(%183) /* from_string */ /* ty=Tensor[(1, 144, 32, 32), int32] */;
  %185 = add(%184, 32 /* ty=int32 */) /* from_string */ /* ty=Tensor[(1, 144, 32, 32), int32] */;
  %186 = right_shift(%185, 6 /* ty=int32 */) /* from_string */ /* ty=Tensor[(1, 144, 32, 32), int32] */;
  %187 = clip(%186, a_min=-127f, a_max=127f) /* from_string */ /* ty=Tensor[(1, 144, 32, 32), int32] */;
  %188 = cast(%187, dtype="int8") /* from_string */ /* ty=Tensor[(1, 144, 32, 32), int8] */;
  %189 = nn.conv2d(%188, meta[relay.Constant][39] /* ty=Tensor[(144, 1, 3, 3), int8] */, strides=[2, 2], padding=[1, 1, 1, 1], groups=144, channels=144, kernel_size=[3, 3], out_dtype="int32") /* from_string */ /* ty=Tensor[(1, 144, 16, 16), int32] */;
  %190 = add(%189, 256 /* ty=int32 */) /* from_string */ /* ty=Tensor[(1, 144, 16, 16), int32] */;
  %191 = right_shift(%190, 9 /* ty=int32 */) /* from_string */ /* ty=Tensor[(1, 144, 16, 16), int32] */;
  %192 = clip(%191, a_min=-127f, a_max=127f) /* from_string */ /* ty=Tensor[(1, 144, 16, 16), int32] */;
  %193 = cast(%192, dtype="int8") /* from_string */ /* ty=Tensor[(1, 144, 16, 16), int8] */;
  %194 = cast(%193, dtype="int32") /* from_string */ /* ty=Tensor[(1, 144, 16, 16), int32] */;
  %195 = multiply(%194, meta[relay.Constant][40] /* ty=Tensor[(144, 1, 1), int32] */) /* from_string */ /* ty=Tensor[(1, 144, 16, 16), int32] */;
  %196 = left_shift(%195, 2 /* ty=int32 */) /* from_string */ /* ty=Tensor[(1, 144, 16, 16), int32] */;
  %197 = add(%196, meta[relay.Constant][41] /* ty=Tensor[(144, 1, 1), int32] */) /* from_string */ /* ty=Tensor[(1, 144, 16, 16), int32] */;
  %198 = nn.relu(%197) /* from_string */ /* ty=Tensor[(1, 144, 16, 16), int32] */;
  %199 = add(%198, 8 /* ty=int32 */) /* from_string */ /* ty=Tensor[(1, 144, 16, 16), int32] */;
  %200 = right_shift(%199, 4 /* ty=int32 */) /* from_string */ /* ty=Tensor[(1, 144, 16, 16), int32] */;
  %201 = clip(%200, a_min=-127f, a_max=127f) /* from_string */ /* ty=Tensor[(1, 144, 16, 16), int32] */;
  %202 = cast(%201, dtype="int8") /* from_string */ /* ty=Tensor[(1, 144, 16, 16), int8] */;
  %203 = nn.conv2d(%202, meta[relay.Constant][42] /* ty=Tensor[(32, 144, 1, 1), int8] */, padding=[0, 0, 0, 0], channels=32, kernel_size=[1, 1], out_dtype="int32") /* from_string */ /* ty=Tensor[(1, 32, 16, 16), int32] */;
  %204 = add(%203, 128 /* ty=int32 */) /* from_string */ /* ty=Tensor[(1, 32, 16, 16), int32] */;
  %205 = right_shift(%204, 8 /* ty=int32 */) /* from_string */ /* ty=Tensor[(1, 32, 16, 16), int32] */;
  %206 = clip(%205, a_min=-127f, a_max=127f) /* from_string */ /* ty=Tensor[(1, 32, 16, 16), int32] */;
  %207 = cast(%206, dtype="int8") /* from_string */ /* ty=Tensor[(1, 32, 16, 16), int8] */;
  %208 = cast(%207, dtype="int32") /* from_string */ /* ty=Tensor[(1, 32, 16, 16), int32] */;
  %209 = multiply(%208, meta[relay.Constant][43] /* ty=Tensor[(32, 1, 1), int32] */) /* from_string */ /* ty=Tensor[(1, 32, 16, 16), int32] */;
  %210 = add(%209, meta[relay.Constant][44] /* ty=Tensor[(32, 1, 1), int32] */) /* from_string */ /* ty=Tensor[(1, 32, 16, 16), int32] */;
  %211 = add(%210, 16 /* ty=int32 */) /* from_string */ /* ty=Tensor[(1, 32, 16, 16), int32] */;
  %212 = right_shift(%211, 5 /* ty=int32 */) /* from_string */ /* ty=Tensor[(1, 32, 16, 16), int32] */;
  %213 = clip(%212, a_min=-127f, a_max=127f) /* from_string */ /* ty=Tensor[(1, 32, 16, 16), int32] */;
  %214 = cast(%213, dtype="int8") /* from_string */ /* ty=Tensor[(1, 32, 16, 16), int8] */;
  %215 = nn.conv2d(%214, meta[relay.Constant][45] /* ty=Tensor[(192, 32, 1, 1), int8] */, padding=[0, 0, 0, 0], channels=192, kernel_size=[1, 1], out_dtype="int32") /* from_string */ /* ty=Tensor[(1, 192, 16, 16), int32] */;
  %216 = add(%215, 128 /* ty=int32 */) /* from_string */ /* ty=Tensor[(1, 192, 16, 16), int32] */;
  %217 = right_shift(%216, 8 /* ty=int32 */) /* from_string */ /* ty=Tensor[(1, 192, 16, 16), int32] */;
  %218 = clip(%217, a_min=-127f, a_max=127f) /* from_string */ /* ty=Tensor[(1, 192, 16, 16), int32] */;
  %219 = cast(%218, dtype="int8") /* from_string */ /* ty=Tensor[(1, 192, 16, 16), int8] */;
  %220 = cast(%219, dtype="int32") /* from_string */ /* ty=Tensor[(1, 192, 16, 16), int32] */;
  %221 = multiply(%220, meta[relay.Constant][46] /* ty=Tensor[(192, 1, 1), int32] */) /* from_string */ /* ty=Tensor[(1, 192, 16, 16), int32] */;
  %222 = add(%221, meta[relay.Constant][47] /* ty=Tensor[(192, 1, 1), int32] */) /* from_string */ /* ty=Tensor[(1, 192, 16, 16), int32] */;
  %223 = nn.relu(%222) /* from_string */ /* ty=Tensor[(1, 192, 16, 16), int32] */;
  %224 = add(%223, 32 /* ty=int32 */) /* from_string */ /* ty=Tensor[(1, 192, 16, 16), int32] */;
  %225 = right_shift(%224, 6 /* ty=int32 */) /* from_string */ /* ty=Tensor[(1, 192, 16, 16), int32] */;
  %226 = clip(%225, a_min=-127f, a_max=127f) /* from_string */ /* ty=Tensor[(1, 192, 16, 16), int32] */;
  %227 = cast(%226, dtype="int8") /* from_string */ /* ty=Tensor[(1, 192, 16, 16), int8] */;
  %228 = nn.conv2d(%227, meta[relay.Constant][48] /* ty=Tensor[(192, 1, 3, 3), int8] */, padding=[1, 1, 1, 1], groups=192, channels=192, kernel_size=[3, 3], out_dtype="int32") /* from_string */ /* ty=Tensor[(1, 192, 16, 16), int32] */;
  %229 = add(%228, 128 /* ty=int32 */) /* from_string */ /* ty=Tensor[(1, 192, 16, 16), int32] */;
  %230 = right_shift(%229, 8 /* ty=int32 */) /* from_string */ /* ty=Tensor[(1, 192, 16, 16), int32] */;
  %231 = clip(%230, a_min=-127f, a_max=127f) /* from_string */ /* ty=Tensor[(1, 192, 16, 16), int32] */;
  %232 = cast(%231, dtype="int8") /* from_string */ /* ty=Tensor[(1, 192, 16, 16), int8] */;
  %233 = cast(%232, dtype="int32") /* from_string */ /* ty=Tensor[(1, 192, 16, 16), int32] */;
  %234 = multiply(%233, meta[relay.Constant][49] /* ty=Tensor[(192, 1, 1), int32] */) /* from_string */ /* ty=Tensor[(1, 192, 16, 16), int32] */;
  %235 = left_shift(%234, 2 /* ty=int32 */) /* from_string */ /* ty=Tensor[(1, 192, 16, 16), int32] */;
  %236 = add(%235, meta[relay.Constant][50] /* ty=Tensor[(192, 1, 1), int32] */) /* from_string */ /* ty=Tensor[(1, 192, 16, 16), int32] */;
  %237 = nn.relu(%236) /* from_string */ /* ty=Tensor[(1, 192, 16, 16), int32] */;
  %238 = add(%237, 8 /* ty=int32 */) /* from_string */ /* ty=Tensor[(1, 192, 16, 16), int32] */;
  %239 = right_shift(%238, 4 /* ty=int32 */) /* from_string */ /* ty=Tensor[(1, 192, 16, 16), int32] */;
  %240 = clip(%239, a_min=-127f, a_max=127f) /* from_string */ /* ty=Tensor[(1, 192, 16, 16), int32] */;
  %241 = cast(%240, dtype="int8") /* from_string */ /* ty=Tensor[(1, 192, 16, 16), int8] */;
  %242 = nn.conv2d(%241, meta[relay.Constant][51] /* ty=Tensor[(32, 192, 1, 1), int8] */, padding=[0, 0, 0, 0], channels=32, kernel_size=[1, 1], out_dtype="int32") /* from_string */ /* ty=Tensor[(1, 32, 16, 16), int32] */;
  %243 = add(%242, 256 /* ty=int32 */) /* from_string */ /* ty=Tensor[(1, 32, 16, 16), int32] */;
  %244 = right_shift(%243, 9 /* ty=int32 */) /* from_string */ /* ty=Tensor[(1, 32, 16, 16), int32] */;
  %245 = clip(%244, a_min=-127f, a_max=127f) /* from_string */ /* ty=Tensor[(1, 32, 16, 16), int32] */;
  %246 = cast(%245, dtype="int8") /* from_string */ /* ty=Tensor[(1, 32, 16, 16), int8] */;
  %247 = cast(%246, dtype="int32") /* from_string */ /* ty=Tensor[(1, 32, 16, 16), int32] */;
  %248 = multiply(%247, meta[relay.Constant][52] /* ty=Tensor[(32, 1, 1), int32] */) /* from_string */ /* ty=Tensor[(1, 32, 16, 16), int32] */;
  %249 = add(%248, meta[relay.Constant][53] /* ty=Tensor[(32, 1, 1), int32] */) /* from_string */ /* ty=Tensor[(1, 32, 16, 16), int32] */;
  %250 = add(%249, 8 /* ty=int32 */) /* from_string */ /* ty=Tensor[(1, 32, 16, 16), int32] */;
  %251 = right_shift(%250, 4 /* ty=int32 */) /* from_string */ /* ty=Tensor[(1, 32, 16, 16), int32] */;
  %252 = clip(%251, a_min=-127f, a_max=127f) /* from_string */ /* ty=Tensor[(1, 32, 16, 16), int32] */;
  %253 = cast(%252, dtype="int8") /* from_string */ /* ty=Tensor[(1, 32, 16, 16), int8] */;
  %254 = cast(%213, dtype="int8") /* from_string */ /* ty=Tensor[(1, 32, 16, 16), int8] */;
  %255 = cast(%253, dtype="int32") /* from_string */ /* ty=Tensor[(1, 32, 16, 16), int32] */;
  %256 = cast(%254, dtype="int32") /* from_string */ /* ty=Tensor[(1, 32, 16, 16), int32] */;
  %257 = add(%255, %256) /* from_string */ /* ty=Tensor[(1, 32, 16, 16), int32] */;
  %258 = clip(%257, a_min=-127f, a_max=127f) /* from_string */ /* ty=Tensor[(1, 32, 16, 16), int32] */;
  %259 = cast(%258, dtype="int8") /* from_string */ /* ty=Tensor[(1, 32, 16, 16), int8] */;
  %260 = nn.conv2d(%259, meta[relay.Constant][54] /* ty=Tensor[(192, 32, 1, 1), int8] */, padding=[0, 0, 0, 0], channels=192, kernel_size=[1, 1], out_dtype="int32") /* from_string */ /* ty=Tensor[(1, 192, 16, 16), int32] */;
  %261 = add(%260, 256 /* ty=int32 */) /* from_string */ /* ty=Tensor[(1, 192, 16, 16), int32] */;
  %262 = right_shift(%261, 9 /* ty=int32 */) /* from_string */ /* ty=Tensor[(1, 192, 16, 16), int32] */;
  %263 = clip(%262, a_min=-127f, a_max=127f) /* from_string */ /* ty=Tensor[(1, 192, 16, 16), int32] */;
  %264 = cast(%263, dtype="int8") /* from_string */ /* ty=Tensor[(1, 192, 16, 16), int8] */;
  %265 = cast(%264, dtype="int32") /* from_string */ /* ty=Tensor[(1, 192, 16, 16), int32] */;
  %266 = multiply(%265, meta[relay.Constant][55] /* ty=Tensor[(192, 1, 1), int32] */) /* from_string */ /* ty=Tensor[(1, 192, 16, 16), int32] */;
  %267 = add(%266, meta[relay.Constant][56] /* ty=Tensor[(192, 1, 1), int32] */) /* from_string */ /* ty=Tensor[(1, 192, 16, 16), int32] */;
  %268 = nn.relu(%267) /* from_string */ /* ty=Tensor[(1, 192, 16, 16), int32] */;
  %269 = add(%268, 32 /* ty=int32 */) /* from_string */ /* ty=Tensor[(1, 192, 16, 16), int32] */;
  %270 = right_shift(%269, 6 /* ty=int32 */) /* from_string */ /* ty=Tensor[(1, 192, 16, 16), int32] */;
  %271 = clip(%270, a_min=-127f, a_max=127f) /* from_string */ /* ty=Tensor[(1, 192, 16, 16), int32] */;
  %272 = cast(%271, dtype="int8") /* from_string */ /* ty=Tensor[(1, 192, 16, 16), int8] */;
  %273 = nn.conv2d(%272, meta[relay.Constant][57] /* ty=Tensor[(192, 1, 3, 3), int8] */, padding=[1, 1, 1, 1], groups=192, channels=192, kernel_size=[3, 3], out_dtype="int32") /* from_string */ /* ty=Tensor[(1, 192, 16, 16), int32] */;
  %274 = add(%273, 256 /* ty=int32 */) /* from_string */ /* ty=Tensor[(1, 192, 16, 16), int32] */;
  %275 = right_shift(%274, 9 /* ty=int32 */) /* from_string */ /* ty=Tensor[(1, 192, 16, 16), int32] */;
  %276 = clip(%275, a_min=-127f, a_max=127f) /* from_string */ /* ty=Tensor[(1, 192, 16, 16), int32] */;
  %277 = cast(%276, dtype="int8") /* from_string */ /* ty=Tensor[(1, 192, 16, 16), int8] */;
  %278 = cast(%277, dtype="int32") /* from_string */ /* ty=Tensor[(1, 192, 16, 16), int32] */;
  %279 = multiply(%278, meta[relay.Constant][58] /* ty=Tensor[(192, 1, 1), int32] */) /* from_string */ /* ty=Tensor[(1, 192, 16, 16), int32] */;
  %280 = left_shift(%279, 3 /* ty=int32 */) /* from_string */ /* ty=Tensor[(1, 192, 16, 16), int32] */;
  %281 = add(%280, meta[relay.Constant][59] /* ty=Tensor[(192, 1, 1), int32] */) /* from_string */ /* ty=Tensor[(1, 192, 16, 16), int32] */;
  %282 = nn.relu(%281) /* from_string */ /* ty=Tensor[(1, 192, 16, 16), int32] */;
  %283 = add(%282, 16 /* ty=int32 */) /* from_string */ /* ty=Tensor[(1, 192, 16, 16), int32] */;
  %284 = right_shift(%283, 5 /* ty=int32 */) /* from_string */ /* ty=Tensor[(1, 192, 16, 16), int32] */;
  %285 = clip(%284, a_min=-127f, a_max=127f) /* from_string */ /* ty=Tensor[(1, 192, 16, 16), int32] */;
  %286 = cast(%285, dtype="int8") /* from_string */ /* ty=Tensor[(1, 192, 16, 16), int8] */;
  %287 = nn.conv2d(%286, meta[relay.Constant][60] /* ty=Tensor[(32, 192, 1, 1), int8] */, padding=[0, 0, 0, 0], channels=32, kernel_size=[1, 1], out_dtype="int32") /* from_string */ /* ty=Tensor[(1, 32, 16, 16), int32] */;
  %288 = add(%287, 256 /* ty=int32 */) /* from_string */ /* ty=Tensor[(1, 32, 16, 16), int32] */;
  %289 = right_shift(%288, 9 /* ty=int32 */) /* from_string */ /* ty=Tensor[(1, 32, 16, 16), int32] */;
  %290 = clip(%289, a_min=-127f, a_max=127f) /* from_string */ /* ty=Tensor[(1, 32, 16, 16), int32] */;
  %291 = cast(%290, dtype="int8") /* from_string */ /* ty=Tensor[(1, 32, 16, 16), int8] */;
  %292 = cast(%291, dtype="int32") /* from_string */ /* ty=Tensor[(1, 32, 16, 16), int32] */;
  %293 = multiply(%292, meta[relay.Constant][61] /* ty=Tensor[(32, 1, 1), int32] */) /* from_string */ /* ty=Tensor[(1, 32, 16, 16), int32] */;
  %294 = add(%293, meta[relay.Constant][62] /* ty=Tensor[(32, 1, 1), int32] */) /* from_string */ /* ty=Tensor[(1, 32, 16, 16), int32] */;
  %295 = add(%294, 8 /* ty=int32 */) /* from_string */ /* ty=Tensor[(1, 32, 16, 16), int32] */;
  %296 = right_shift(%295, 4 /* ty=int32 */) /* from_string */ /* ty=Tensor[(1, 32, 16, 16), int32] */;
  %297 = clip(%296, a_min=-127f, a_max=127f) /* from_string */ /* ty=Tensor[(1, 32, 16, 16), int32] */;
  %298 = cast(%297, dtype="int8") /* from_string */ /* ty=Tensor[(1, 32, 16, 16), int8] */;
  %299 = cast(%258, dtype="int8") /* from_string */ /* ty=Tensor[(1, 32, 16, 16), int8] */;
  %300 = cast(%298, dtype="int32") /* from_string */ /* ty=Tensor[(1, 32, 16, 16), int32] */;
  %301 = cast(%299, dtype="int32") /* from_string */ /* ty=Tensor[(1, 32, 16, 16), int32] */;
  %302 = add(%300, %301) /* from_string */ /* ty=Tensor[(1, 32, 16, 16), int32] */;
  %303 = cast(%302, dtype="int8") /* from_string */ /* ty=Tensor[(1, 32, 16, 16), int8] */;
  %304 = nn.conv2d(%303, meta[relay.Constant][63] /* ty=Tensor[(192, 32, 1, 1), int8] */, padding=[0, 0, 0, 0], channels=192, kernel_size=[1, 1], out_dtype="int32") /* from_string */ /* ty=Tensor[(1, 192, 16, 16), int32] */;
  %305 = add(%304, 128 /* ty=int32 */) /* from_string */ /* ty=Tensor[(1, 192, 16, 16), int32] */;
  %306 = right_shift(%305, 8 /* ty=int32 */) /* from_string */ /* ty=Tensor[(1, 192, 16, 16), int32] */;
  %307 = clip(%306, a_min=-127f, a_max=127f) /* from_string */ /* ty=Tensor[(1, 192, 16, 16), int32] */;
  %308 = cast(%307, dtype="int8") /* from_string */ /* ty=Tensor[(1, 192, 16, 16), int8] */;
  %309 = cast(%308, dtype="int32") /* from_string */ /* ty=Tensor[(1, 192, 16, 16), int32] */;
  %310 = multiply(%309, meta[relay.Constant][64] /* ty=Tensor[(192, 1, 1), int32] */) /* from_string */ /* ty=Tensor[(1, 192, 16, 16), int32] */;
  %311 = add(%310, meta[relay.Constant][65] /* ty=Tensor[(192, 1, 1), int32] */) /* from_string */ /* ty=Tensor[(1, 192, 16, 16), int32] */;
  %312 = nn.relu(%311) /* from_string */ /* ty=Tensor[(1, 192, 16, 16), int32] */;
  %313 = add(%312, 64 /* ty=int32 */) /* from_string */ /* ty=Tensor[(1, 192, 16, 16), int32] */;
  %314 = right_shift(%313, 7 /* ty=int32 */) /* from_string */ /* ty=Tensor[(1, 192, 16, 16), int32] */;
  %315 = clip(%314, a_min=-127f, a_max=127f) /* from_string */ /* ty=Tensor[(1, 192, 16, 16), int32] */;
  %316 = cast(%315, dtype="int8") /* from_string */ /* ty=Tensor[(1, 192, 16, 16), int8] */;
  %317 = nn.conv2d(%316, meta[relay.Constant][66] /* ty=Tensor[(192, 1, 3, 3), int8] */, strides=[2, 2], padding=[1, 1, 1, 1], groups=192, channels=192, kernel_size=[3, 3], out_dtype="int32") /* from_string */ /* ty=Tensor[(1, 192, 8, 8), int32] */;
  %318 = add(%317, 256 /* ty=int32 */) /* from_string */ /* ty=Tensor[(1, 192, 8, 8), int32] */;
  %319 = right_shift(%318, 9 /* ty=int32 */) /* from_string */ /* ty=Tensor[(1, 192, 8, 8), int32] */;
  %320 = clip(%319, a_min=-127f, a_max=127f) /* from_string */ /* ty=Tensor[(1, 192, 8, 8), int32] */;
  %321 = cast(%320, dtype="int8") /* from_string */ /* ty=Tensor[(1, 192, 8, 8), int8] */;
  %322 = cast(%321, dtype="int32") /* from_string */ /* ty=Tensor[(1, 192, 8, 8), int32] */;
  %323 = multiply(%322, meta[relay.Constant][67] /* ty=Tensor[(192, 1, 1), int32] */) /* from_string */ /* ty=Tensor[(1, 192, 8, 8), int32] */;
  %324 = add(%323, meta[relay.Constant][68] /* ty=Tensor[(192, 1, 1), int32] */) /* from_string */ /* ty=Tensor[(1, 192, 8, 8), int32] */;
  %325 = nn.relu(%324) /* from_string */ /* ty=Tensor[(1, 192, 8, 8), int32] */;
  %326 = add(%325, 4 /* ty=int32 */) /* from_string */ /* ty=Tensor[(1, 192, 8, 8), int32] */;
  %327 = right_shift(%326, 3 /* ty=int32 */) /* from_string */ /* ty=Tensor[(1, 192, 8, 8), int32] */;
  %328 = clip(%327, a_min=-127f, a_max=127f) /* from_string */ /* ty=Tensor[(1, 192, 8, 8), int32] */;
  %329 = cast(%328, dtype="int8") /* from_string */ /* ty=Tensor[(1, 192, 8, 8), int8] */;
  %330 = nn.conv2d(%329, meta[relay.Constant][69] /* ty=Tensor[(64, 192, 1, 1), int8] */, padding=[0, 0, 0, 0], channels=64, kernel_size=[1, 1], out_dtype="int32") /* from_string */ /* ty=Tensor[(1, 64, 8, 8), int32] */;
  %331 = add(%330, 128 /* ty=int32 */) /* from_string */ /* ty=Tensor[(1, 64, 8, 8), int32] */;
  %332 = right_shift(%331, 8 /* ty=int32 */) /* from_string */ /* ty=Tensor[(1, 64, 8, 8), int32] */;
  %333 = clip(%332, a_min=-127f, a_max=127f) /* from_string */ /* ty=Tensor[(1, 64, 8, 8), int32] */;
  %334 = cast(%333, dtype="int8") /* from_string */ /* ty=Tensor[(1, 64, 8, 8), int8] */;
  %335 = cast(%334, dtype="int32") /* from_string */ /* ty=Tensor[(1, 64, 8, 8), int32] */;
  %336 = multiply(%335, meta[relay.Constant][70] /* ty=Tensor[(64, 1, 1), int32] */) /* from_string */ /* ty=Tensor[(1, 64, 8, 8), int32] */;
  %337 = add(%336, meta[relay.Constant][71] /* ty=Tensor[(64, 1, 1), int32] */) /* from_string */ /* ty=Tensor[(1, 64, 8, 8), int32] */;
  %338 = add(%337, 16 /* ty=int32 */) /* from_string */ /* ty=Tensor[(1, 64, 8, 8), int32] */;
  %339 = right_shift(%338, 5 /* ty=int32 */) /* from_string */ /* ty=Tensor[(1, 64, 8, 8), int32] */;
  %340 = clip(%339, a_min=-127f, a_max=127f) /* from_string */ /* ty=Tensor[(1, 64, 8, 8), int32] */;
  %341 = cast(%340, dtype="int8") /* from_string */ /* ty=Tensor[(1, 64, 8, 8), int8] */;
  %342 = nn.conv2d(%341, meta[relay.Constant][72] /* ty=Tensor[(384, 64, 1, 1), int8] */, padding=[0, 0, 0, 0], channels=384, kernel_size=[1, 1], out_dtype="int32") /* from_string */ /* ty=Tensor[(1, 384, 8, 8), int32] */;
  %343 = add(%342, 256 /* ty=int32 */) /* from_string */ /* ty=Tensor[(1, 384, 8, 8), int32] */;
  %344 = right_shift(%343, 9 /* ty=int32 */) /* from_string */ /* ty=Tensor[(1, 384, 8, 8), int32] */;
  %345 = clip(%344, a_min=-127f, a_max=127f) /* from_string */ /* ty=Tensor[(1, 384, 8, 8), int32] */;
  %346 = cast(%345, dtype="int8") /* from_string */ /* ty=Tensor[(1, 384, 8, 8), int8] */;
  %347 = cast(%346, dtype="int32") /* from_string */ /* ty=Tensor[(1, 384, 8, 8), int32] */;
  %348 = multiply(%347, meta[relay.Constant][73] /* ty=Tensor[(384, 1, 1), int32] */) /* from_string */ /* ty=Tensor[(1, 384, 8, 8), int32] */;
  %349 = add(%348, meta[relay.Constant][74] /* ty=Tensor[(384, 1, 1), int32] */) /* from_string */ /* ty=Tensor[(1, 384, 8, 8), int32] */;
  %350 = nn.relu(%349) /* from_string */ /* ty=Tensor[(1, 384, 8, 8), int32] */;
  %351 = add(%350, 32 /* ty=int32 */) /* from_string */ /* ty=Tensor[(1, 384, 8, 8), int32] */;
  %352 = right_shift(%351, 6 /* ty=int32 */) /* from_string */ /* ty=Tensor[(1, 384, 8, 8), int32] */;
  %353 = clip(%352, a_min=-127f, a_max=127f) /* from_string */ /* ty=Tensor[(1, 384, 8, 8), int32] */;
  %354 = cast(%353, dtype="int8") /* from_string */ /* ty=Tensor[(1, 384, 8, 8), int8] */;
  %355 = nn.conv2d(%354, meta[relay.Constant][75] /* ty=Tensor[(384, 1, 3, 3), int8] */, padding=[1, 1, 1, 1], groups=384, channels=384, kernel_size=[3, 3], out_dtype="int32") /* from_string */ /* ty=Tensor[(1, 384, 8, 8), int32] */;
  %356 = add(%355, 256 /* ty=int32 */) /* from_string */ /* ty=Tensor[(1, 384, 8, 8), int32] */;
  %357 = right_shift(%356, 9 /* ty=int32 */) /* from_string */ /* ty=Tensor[(1, 384, 8, 8), int32] */;
  %358 = clip(%357, a_min=-127f, a_max=127f) /* from_string */ /* ty=Tensor[(1, 384, 8, 8), int32] */;
  %359 = cast(%358, dtype="int8") /* from_string */ /* ty=Tensor[(1, 384, 8, 8), int8] */;
  %360 = cast(%359, dtype="int32") /* from_string */ /* ty=Tensor[(1, 384, 8, 8), int32] */;
  %361 = multiply(%360, meta[relay.Constant][76] /* ty=Tensor[(384, 1, 1), int32] */) /* from_string */ /* ty=Tensor[(1, 384, 8, 8), int32] */;
  %362 = left_shift(%361, 2 /* ty=int32 */) /* from_string */ /* ty=Tensor[(1, 384, 8, 8), int32] */;
  %363 = add(%362, meta[relay.Constant][77] /* ty=Tensor[(384, 1, 1), int32] */) /* from_string */ /* ty=Tensor[(1, 384, 8, 8), int32] */;
  %364 = nn.relu(%363) /* from_string */ /* ty=Tensor[(1, 384, 8, 8), int32] */;
  %365 = add(%364, 8 /* ty=int32 */) /* from_string */ /* ty=Tensor[(1, 384, 8, 8), int32] */;
  %366 = right_shift(%365, 4 /* ty=int32 */) /* from_string */ /* ty=Tensor[(1, 384, 8, 8), int32] */;
  %367 = clip(%366, a_min=-127f, a_max=127f) /* from_string */ /* ty=Tensor[(1, 384, 8, 8), int32] */;
  %368 = cast(%367, dtype="int8") /* from_string */ /* ty=Tensor[(1, 384, 8, 8), int8] */;
  %369 = nn.conv2d(%368, meta[relay.Constant][78] /* ty=Tensor[(64, 384, 1, 1), int8] */, padding=[0, 0, 0, 0], channels=64, kernel_size=[1, 1], out_dtype="int32") /* from_string */ /* ty=Tensor[(1, 64, 8, 8), int32] */;
  %370 = add(%369, 256 /* ty=int32 */) /* from_string */ /* ty=Tensor[(1, 64, 8, 8), int32] */;
  %371 = right_shift(%370, 9 /* ty=int32 */) /* from_string */ /* ty=Tensor[(1, 64, 8, 8), int32] */;
  %372 = clip(%371, a_min=-127f, a_max=127f) /* from_string */ /* ty=Tensor[(1, 64, 8, 8), int32] */;
  %373 = cast(%372, dtype="int8") /* from_string */ /* ty=Tensor[(1, 64, 8, 8), int8] */;
  %374 = cast(%373, dtype="int32") /* from_string */ /* ty=Tensor[(1, 64, 8, 8), int32] */;
  %375 = multiply(%374, meta[relay.Constant][79] /* ty=Tensor[(64, 1, 1), int32] */) /* from_string */ /* ty=Tensor[(1, 64, 8, 8), int32] */;
  %376 = add(%375, meta[relay.Constant][80] /* ty=Tensor[(64, 1, 1), int32] */) /* from_string */ /* ty=Tensor[(1, 64, 8, 8), int32] */;
  %377 = add(%376, 8 /* ty=int32 */) /* from_string */ /* ty=Tensor[(1, 64, 8, 8), int32] */;
  %378 = right_shift(%377, 4 /* ty=int32 */) /* from_string */ /* ty=Tensor[(1, 64, 8, 8), int32] */;
  %379 = clip(%378, a_min=-127f, a_max=127f) /* from_string */ /* ty=Tensor[(1, 64, 8, 8), int32] */;
  %380 = cast(%379, dtype="int8") /* from_string */ /* ty=Tensor[(1, 64, 8, 8), int8] */;
  %381 = cast(%340, dtype="int8") /* from_string */ /* ty=Tensor[(1, 64, 8, 8), int8] */;
  %382 = cast(%380, dtype="int32") /* from_string */ /* ty=Tensor[(1, 64, 8, 8), int32] */;
  %383 = cast(%381, dtype="int32") /* from_string */ /* ty=Tensor[(1, 64, 8, 8), int32] */;
  %384 = add(%382, %383) /* from_string */ /* ty=Tensor[(1, 64, 8, 8), int32] */;
  %385 = clip(%384, a_min=-127f, a_max=127f) /* from_string */ /* ty=Tensor[(1, 64, 8, 8), int32] */;
  %386 = cast(%385, dtype="int8") /* from_string */ /* ty=Tensor[(1, 64, 8, 8), int8] */;
  %387 = nn.conv2d(%386, meta[relay.Constant][81] /* ty=Tensor[(384, 64, 1, 1), int8] */, padding=[0, 0, 0, 0], channels=384, kernel_size=[1, 1], out_dtype="int32") /* from_string */ /* ty=Tensor[(1, 384, 8, 8), int32] */;
  %388 = add(%387, 256 /* ty=int32 */) /* from_string */ /* ty=Tensor[(1, 384, 8, 8), int32] */;
  %389 = right_shift(%388, 9 /* ty=int32 */) /* from_string */ /* ty=Tensor[(1, 384, 8, 8), int32] */;
  %390 = clip(%389, a_min=-127f, a_max=127f) /* from_string */ /* ty=Tensor[(1, 384, 8, 8), int32] */;
  %391 = cast(%390, dtype="int8") /* from_string */ /* ty=Tensor[(1, 384, 8, 8), int8] */;
  %392 = cast(%391, dtype="int32") /* from_string */ /* ty=Tensor[(1, 384, 8, 8), int32] */;
  %393 = multiply(%392, meta[relay.Constant][82] /* ty=Tensor[(384, 1, 1), int32] */) /* from_string */ /* ty=Tensor[(1, 384, 8, 8), int32] */;
  %394 = add(%393, meta[relay.Constant][83] /* ty=Tensor[(384, 1, 1), int32] */) /* from_string */ /* ty=Tensor[(1, 384, 8, 8), int32] */;
  %395 = nn.relu(%394) /* from_string */ /* ty=Tensor[(1, 384, 8, 8), int32] */;
  %396 = add(%395, 32 /* ty=int32 */) /* from_string */ /* ty=Tensor[(1, 384, 8, 8), int32] */;
  %397 = right_shift(%396, 6 /* ty=int32 */) /* from_string */ /* ty=Tensor[(1, 384, 8, 8), int32] */;
  %398 = clip(%397, a_min=-127f, a_max=127f) /* from_string */ /* ty=Tensor[(1, 384, 8, 8), int32] */;
  %399 = cast(%398, dtype="int8") /* from_string */ /* ty=Tensor[(1, 384, 8, 8), int8] */;
  %400 = nn.conv2d(%399, meta[relay.Constant][84] /* ty=Tensor[(384, 1, 3, 3), int8] */, padding=[1, 1, 1, 1], groups=384, channels=384, kernel_size=[3, 3], out_dtype="int32") /* from_string */ /* ty=Tensor[(1, 384, 8, 8), int32] */;
  %401 = add(%400, 256 /* ty=int32 */) /* from_string */ /* ty=Tensor[(1, 384, 8, 8), int32] */;
  %402 = right_shift(%401, 9 /* ty=int32 */) /* from_string */ /* ty=Tensor[(1, 384, 8, 8), int32] */;
  %403 = clip(%402, a_min=-127f, a_max=127f) /* from_string */ /* ty=Tensor[(1, 384, 8, 8), int32] */;
  %404 = cast(%403, dtype="int8") /* from_string */ /* ty=Tensor[(1, 384, 8, 8), int8] */;
  %405 = cast(%404, dtype="int32") /* from_string */ /* ty=Tensor[(1, 384, 8, 8), int32] */;
  %406 = multiply(%405, meta[relay.Constant][85] /* ty=Tensor[(384, 1, 1), int32] */) /* from_string */ /* ty=Tensor[(1, 384, 8, 8), int32] */;
  %407 = left_shift(%406, 1 /* ty=int32 */) /* from_string */ /* ty=Tensor[(1, 384, 8, 8), int32] */;
  %408 = add(%407, meta[relay.Constant][86] /* ty=Tensor[(384, 1, 1), int32] */) /* from_string */ /* ty=Tensor[(1, 384, 8, 8), int32] */;
  %409 = nn.relu(%408) /* from_string */ /* ty=Tensor[(1, 384, 8, 8), int32] */;
  %410 = add(%409, 8 /* ty=int32 */) /* from_string */ /* ty=Tensor[(1, 384, 8, 8), int32] */;
  %411 = right_shift(%410, 4 /* ty=int32 */) /* from_string */ /* ty=Tensor[(1, 384, 8, 8), int32] */;
  %412 = clip(%411, a_min=-127f, a_max=127f) /* from_string */ /* ty=Tensor[(1, 384, 8, 8), int32] */;
  %413 = cast(%412, dtype="int8") /* from_string */ /* ty=Tensor[(1, 384, 8, 8), int8] */;
  %414 = nn.conv2d(%413, meta[relay.Constant][87] /* ty=Tensor[(64, 384, 1, 1), int8] */, padding=[0, 0, 0, 0], channels=64, kernel_size=[1, 1], out_dtype="int32") /* from_string */ /* ty=Tensor[(1, 64, 8, 8), int32] */;
  %415 = add(%414, 128 /* ty=int32 */) /* from_string */ /* ty=Tensor[(1, 64, 8, 8), int32] */;
  %416 = right_shift(%415, 8 /* ty=int32 */) /* from_string */ /* ty=Tensor[(1, 64, 8, 8), int32] */;
  %417 = clip(%416, a_min=-127f, a_max=127f) /* from_string */ /* ty=Tensor[(1, 64, 8, 8), int32] */;
  %418 = cast(%417, dtype="int8") /* from_string */ /* ty=Tensor[(1, 64, 8, 8), int8] */;
  %419 = cast(%418, dtype="int32") /* from_string */ /* ty=Tensor[(1, 64, 8, 8), int32] */;
  %420 = multiply(%419, meta[relay.Constant][88] /* ty=Tensor[(64, 1, 1), int32] */) /* from_string */ /* ty=Tensor[(1, 64, 8, 8), int32] */;
  %421 = add(%420, meta[relay.Constant][89] /* ty=Tensor[(64, 1, 1), int32] */) /* from_string */ /* ty=Tensor[(1, 64, 8, 8), int32] */;
  %422 = add(%421, 8 /* ty=int32 */) /* from_string */ /* ty=Tensor[(1, 64, 8, 8), int32] */;
  %423 = right_shift(%422, 4 /* ty=int32 */) /* from_string */ /* ty=Tensor[(1, 64, 8, 8), int32] */;
  %424 = clip(%423, a_min=-127f, a_max=127f) /* from_string */ /* ty=Tensor[(1, 64, 8, 8), int32] */;
  %425 = cast(%424, dtype="int8") /* from_string */ /* ty=Tensor[(1, 64, 8, 8), int8] */;
  %426 = cast(%385, dtype="int8") /* from_string */ /* ty=Tensor[(1, 64, 8, 8), int8] */;
  %427 = cast(%425, dtype="int32") /* from_string */ /* ty=Tensor[(1, 64, 8, 8), int32] */;
  %428 = cast(%426, dtype="int32") /* from_string */ /* ty=Tensor[(1, 64, 8, 8), int32] */;
  %429 = add(%427, %428) /* from_string */ /* ty=Tensor[(1, 64, 8, 8), int32] */;
  %430 = clip(%429, a_min=-127f, a_max=127f) /* from_string */ /* ty=Tensor[(1, 64, 8, 8), int32] */;
  %431 = cast(%430, dtype="int8") /* from_string */ /* ty=Tensor[(1, 64, 8, 8), int8] */;
  %432 = nn.conv2d(%431, meta[relay.Constant][90] /* ty=Tensor[(384, 64, 1, 1), int8] */, padding=[0, 0, 0, 0], channels=384, kernel_size=[1, 1], out_dtype="int32") /* from_string */ /* ty=Tensor[(1, 384, 8, 8), int32] */;
  %433 = add(%432, 256 /* ty=int32 */) /* from_string */ /* ty=Tensor[(1, 384, 8, 8), int32] */;
  %434 = right_shift(%433, 9 /* ty=int32 */) /* from_string */ /* ty=Tensor[(1, 384, 8, 8), int32] */;
  %435 = clip(%434, a_min=-127f, a_max=127f) /* from_string */ /* ty=Tensor[(1, 384, 8, 8), int32] */;
  %436 = cast(%435, dtype="int8") /* from_string */ /* ty=Tensor[(1, 384, 8, 8), int8] */;
  %437 = cast(%436, dtype="int32") /* from_string */ /* ty=Tensor[(1, 384, 8, 8), int32] */;
  %438 = multiply(%437, meta[relay.Constant][91] /* ty=Tensor[(384, 1, 1), int32] */) /* from_string */ /* ty=Tensor[(1, 384, 8, 8), int32] */;
  %439 = add(%438, meta[relay.Constant][92] /* ty=Tensor[(384, 1, 1), int32] */) /* from_string */ /* ty=Tensor[(1, 384, 8, 8), int32] */;
  %440 = nn.relu(%439) /* from_string */ /* ty=Tensor[(1, 384, 8, 8), int32] */;
  %441 = add(%440, 64 /* ty=int32 */) /* from_string */ /* ty=Tensor[(1, 384, 8, 8), int32] */;
  %442 = right_shift(%441, 7 /* ty=int32 */) /* from_string */ /* ty=Tensor[(1, 384, 8, 8), int32] */;
  %443 = clip(%442, a_min=-127f, a_max=127f) /* from_string */ /* ty=Tensor[(1, 384, 8, 8), int32] */;
  %444 = cast(%443, dtype="int8") /* from_string */ /* ty=Tensor[(1, 384, 8, 8), int8] */;
  %445 = nn.conv2d(%444, meta[relay.Constant][93] /* ty=Tensor[(384, 1, 3, 3), int8] */, padding=[1, 1, 1, 1], groups=384, channels=384, kernel_size=[3, 3], out_dtype="int32") /* from_string */ /* ty=Tensor[(1, 384, 8, 8), int32] */;
  %446 = add(%445, 256 /* ty=int32 */) /* from_string */ /* ty=Tensor[(1, 384, 8, 8), int32] */;
  %447 = right_shift(%446, 9 /* ty=int32 */) /* from_string */ /* ty=Tensor[(1, 384, 8, 8), int32] */;
  %448 = clip(%447, a_min=-127f, a_max=127f) /* from_string */ /* ty=Tensor[(1, 384, 8, 8), int32] */;
  %449 = cast(%448, dtype="int8") /* from_string */ /* ty=Tensor[(1, 384, 8, 8), int8] */;
  %450 = cast(%449, dtype="int32") /* from_string */ /* ty=Tensor[(1, 384, 8, 8), int32] */;
  %451 = multiply(%450, meta[relay.Constant][94] /* ty=Tensor[(384, 1, 1), int32] */) /* from_string */ /* ty=Tensor[(1, 384, 8, 8), int32] */;
  %452 = left_shift(%451, 2 /* ty=int32 */) /* from_string */ /* ty=Tensor[(1, 384, 8, 8), int32] */;
  %453 = add(%452, meta[relay.Constant][95] /* ty=Tensor[(384, 1, 1), int32] */) /* from_string */ /* ty=Tensor[(1, 384, 8, 8), int32] */;
  %454 = nn.relu(%453) /* from_string */ /* ty=Tensor[(1, 384, 8, 8), int32] */;
  %455 = add(%454, 8 /* ty=int32 */) /* from_string */ /* ty=Tensor[(1, 384, 8, 8), int32] */;
  %456 = right_shift(%455, 4 /* ty=int32 */) /* from_string */ /* ty=Tensor[(1, 384, 8, 8), int32] */;
  %457 = clip(%456, a_min=-127f, a_max=127f) /* from_string */ /* ty=Tensor[(1, 384, 8, 8), int32] */;
  %458 = cast(%457, dtype="int8") /* from_string */ /* ty=Tensor[(1, 384, 8, 8), int8] */;
  %459 = nn.conv2d(%458, meta[relay.Constant][96] /* ty=Tensor[(64, 384, 1, 1), int8] */, padding=[0, 0, 0, 0], channels=64, kernel_size=[1, 1], out_dtype="int32") /* from_string */ /* ty=Tensor[(1, 64, 8, 8), int32] */;
  %460 = add(%459, 256 /* ty=int32 */) /* from_string */ /* ty=Tensor[(1, 64, 8, 8), int32] */;
  %461 = right_shift(%460, 9 /* ty=int32 */) /* from_string */ /* ty=Tensor[(1, 64, 8, 8), int32] */;
  %462 = clip(%461, a_min=-127f, a_max=127f) /* from_string */ /* ty=Tensor[(1, 64, 8, 8), int32] */;
  %463 = cast(%462, dtype="int8") /* from_string */ /* ty=Tensor[(1, 64, 8, 8), int8] */;
  %464 = cast(%463, dtype="int32") /* from_string */ /* ty=Tensor[(1, 64, 8, 8), int32] */;
  %465 = multiply(%464, meta[relay.Constant][97] /* ty=Tensor[(64, 1, 1), int32] */) /* from_string */ /* ty=Tensor[(1, 64, 8, 8), int32] */;
  %466 = left_shift(%465, 2 /* ty=int32 */) /* from_string */ /* ty=Tensor[(1, 64, 8, 8), int32] */;
  %467 = add(%466, meta[relay.Constant][98] /* ty=Tensor[(64, 1, 1), int32] */) /* from_string */ /* ty=Tensor[(1, 64, 8, 8), int32] */;
  %468 = add(%467, 16 /* ty=int32 */) /* from_string */ /* ty=Tensor[(1, 64, 8, 8), int32] */;
  %469 = right_shift(%468, 5 /* ty=int32 */) /* from_string */ /* ty=Tensor[(1, 64, 8, 8), int32] */;
  %470 = clip(%469, a_min=-127f, a_max=127f) /* from_string */ /* ty=Tensor[(1, 64, 8, 8), int32] */;
  %471 = cast(%470, dtype="int8") /* from_string */ /* ty=Tensor[(1, 64, 8, 8), int8] */;
  %472 = cast(%430, dtype="int8") /* from_string */ /* ty=Tensor[(1, 64, 8, 8), int8] */;
  %473 = cast(%471, dtype="int32") /* from_string */ /* ty=Tensor[(1, 64, 8, 8), int32] */;
  %474 = cast(%472, dtype="int32") /* from_string */ /* ty=Tensor[(1, 64, 8, 8), int32] */;
  %475 = add(%473, %474) /* from_string */ /* ty=Tensor[(1, 64, 8, 8), int32] */;
  %476 = clip(%475, a_min=-127f, a_max=127f) /* from_string */ /* ty=Tensor[(1, 64, 8, 8), int32] */;
  %477 = cast(%476, dtype="int8") /* from_string */ /* ty=Tensor[(1, 64, 8, 8), int8] */;
  %478 = nn.conv2d(%477, meta[relay.Constant][99] /* ty=Tensor[(384, 64, 1, 1), int8] */, padding=[0, 0, 0, 0], channels=384, kernel_size=[1, 1], out_dtype="int32") /* from_string */ /* ty=Tensor[(1, 384, 8, 8), int32] */;
  %479 = add(%478, 256 /* ty=int32 */) /* from_string */ /* ty=Tensor[(1, 384, 8, 8), int32] */;
  %480 = right_shift(%479, 9 /* ty=int32 */) /* from_string */ /* ty=Tensor[(1, 384, 8, 8), int32] */;
  %481 = clip(%480, a_min=-127f, a_max=127f) /* from_string */ /* ty=Tensor[(1, 384, 8, 8), int32] */;
  %482 = cast(%481, dtype="int8") /* from_string */ /* ty=Tensor[(1, 384, 8, 8), int8] */;
  %483 = cast(%482, dtype="int32") /* from_string */ /* ty=Tensor[(1, 384, 8, 8), int32] */;
  %484 = multiply(%483, meta[relay.Constant][100] /* ty=Tensor[(384, 1, 1), int32] */) /* from_string */ /* ty=Tensor[(1, 384, 8, 8), int32] */;
  %485 = add(%484, meta[relay.Constant][101] /* ty=Tensor[(384, 1, 1), int32] */) /* from_string */ /* ty=Tensor[(1, 384, 8, 8), int32] */;
  %486 = nn.relu(%485) /* from_string */ /* ty=Tensor[(1, 384, 8, 8), int32] */;
  %487 = add(%486, 64 /* ty=int32 */) /* from_string */ /* ty=Tensor[(1, 384, 8, 8), int32] */;
  %488 = right_shift(%487, 7 /* ty=int32 */) /* from_string */ /* ty=Tensor[(1, 384, 8, 8), int32] */;
  %489 = clip(%488, a_min=-127f, a_max=127f) /* from_string */ /* ty=Tensor[(1, 384, 8, 8), int32] */;
  %490 = cast(%489, dtype="int8") /* from_string */ /* ty=Tensor[(1, 384, 8, 8), int8] */;
  %491 = nn.conv2d(%490, meta[relay.Constant][102] /* ty=Tensor[(384, 1, 3, 3), int8] */, padding=[1, 1, 1, 1], groups=384, channels=384, kernel_size=[3, 3], out_dtype="int32") /* from_string */ /* ty=Tensor[(1, 384, 8, 8), int32] */;
  %492 = add(%491, 128 /* ty=int32 */) /* from_string */ /* ty=Tensor[(1, 384, 8, 8), int32] */;
  %493 = right_shift(%492, 8 /* ty=int32 */) /* from_string */ /* ty=Tensor[(1, 384, 8, 8), int32] */;
  %494 = clip(%493, a_min=-127f, a_max=127f) /* from_string */ /* ty=Tensor[(1, 384, 8, 8), int32] */;
  %495 = cast(%494, dtype="int8") /* from_string */ /* ty=Tensor[(1, 384, 8, 8), int8] */;
  %496 = cast(%495, dtype="int32") /* from_string */ /* ty=Tensor[(1, 384, 8, 8), int32] */;
  %497 = multiply(%496, meta[relay.Constant][103] /* ty=Tensor[(384, 1, 1), int32] */) /* from_string */ /* ty=Tensor[(1, 384, 8, 8), int32] */;
  %498 = left_shift(%497, 2 /* ty=int32 */) /* from_string */ /* ty=Tensor[(1, 384, 8, 8), int32] */;
  %499 = add(%498, meta[relay.Constant][104] /* ty=Tensor[(384, 1, 1), int32] */) /* from_string */ /* ty=Tensor[(1, 384, 8, 8), int32] */;
  %500 = nn.relu(%499) /* from_string */ /* ty=Tensor[(1, 384, 8, 8), int32] */;
  %501 = add(%500, 8 /* ty=int32 */) /* from_string */ /* ty=Tensor[(1, 384, 8, 8), int32] */;
  %502 = right_shift(%501, 4 /* ty=int32 */) /* from_string */ /* ty=Tensor[(1, 384, 8, 8), int32] */;
  %503 = clip(%502, a_min=-127f, a_max=127f) /* from_string */ /* ty=Tensor[(1, 384, 8, 8), int32] */;
  %504 = cast(%503, dtype="int8") /* from_string */ /* ty=Tensor[(1, 384, 8, 8), int8] */;
  %505 = nn.conv2d(%504, meta[relay.Constant][105] /* ty=Tensor[(96, 384, 1, 1), int8] */, padding=[0, 0, 0, 0], channels=96, kernel_size=[1, 1], out_dtype="int32") /* from_string */ /* ty=Tensor[(1, 96, 8, 8), int32] */;
  %506 = add(%505, 256 /* ty=int32 */) /* from_string */ /* ty=Tensor[(1, 96, 8, 8), int32] */;
  %507 = right_shift(%506, 9 /* ty=int32 */) /* from_string */ /* ty=Tensor[(1, 96, 8, 8), int32] */;
  %508 = clip(%507, a_min=-127f, a_max=127f) /* from_string */ /* ty=Tensor[(1, 96, 8, 8), int32] */;
  %509 = cast(%508, dtype="int8") /* from_string */ /* ty=Tensor[(1, 96, 8, 8), int8] */;
  %510 = cast(%509, dtype="int32") /* from_string */ /* ty=Tensor[(1, 96, 8, 8), int32] */;
  %511 = multiply(%510, meta[relay.Constant][106] /* ty=Tensor[(96, 1, 1), int32] */) /* from_string */ /* ty=Tensor[(1, 96, 8, 8), int32] */;
  %512 = add(%511, meta[relay.Constant][107] /* ty=Tensor[(96, 1, 1), int32] */) /* from_string */ /* ty=Tensor[(1, 96, 8, 8), int32] */;
  %513 = add(%512, 8 /* ty=int32 */) /* from_string */ /* ty=Tensor[(1, 96, 8, 8), int32] */;
  %514 = right_shift(%513, 4 /* ty=int32 */) /* from_string */ /* ty=Tensor[(1, 96, 8, 8), int32] */;
  %515 = clip(%514, a_min=-127f, a_max=127f) /* from_string */ /* ty=Tensor[(1, 96, 8, 8), int32] */;
  %516 = cast(%515, dtype="int8") /* from_string */ /* ty=Tensor[(1, 96, 8, 8), int8] */;
  %517 = cast(%476, dtype="int8") /* from_string */ /* ty=Tensor[(1, 64, 8, 8), int8] */;
  %518 = nn.conv2d(%517, meta[relay.Constant][108] /* ty=Tensor[(96, 64, 1, 1), int8] */, padding=[0, 0, 0, 0], channels=96, kernel_size=[1, 1], out_dtype="int32") /* from_string */ /* ty=Tensor[(1, 96, 8, 8), int32] */;
  %519 = add(%518, 128 /* ty=int32 */) /* from_string */ /* ty=Tensor[(1, 96, 8, 8), int32] */;
  %520 = right_shift(%519, 8 /* ty=int32 */) /* from_string */ /* ty=Tensor[(1, 96, 8, 8), int32] */;
  %521 = clip(%520, a_min=-127f, a_max=127f) /* from_string */ /* ty=Tensor[(1, 96, 8, 8), int32] */;
  %522 = cast(%521, dtype="int8") /* from_string */ /* ty=Tensor[(1, 96, 8, 8), int8] */;
  %523 = cast(%522, dtype="int32") /* from_string */ /* ty=Tensor[(1, 96, 8, 8), int32] */;
  %524 = multiply(%523, meta[relay.Constant][109] /* ty=Tensor[(96, 1, 1), int32] */) /* from_string */ /* ty=Tensor[(1, 96, 8, 8), int32] */;
  %525 = left_shift(%524, 19 /* ty=int32 */) /* from_string */ /* ty=Tensor[(1, 96, 8, 8), int32] */;
  %526 = add(%525, meta[relay.Constant][110] /* ty=Tensor[(96, 1, 1), int32] */) /* from_string */ /* ty=Tensor[(1, 96, 8, 8), int32] */;
  %527 = add(%526, 16777216 /* ty=int32 */) /* from_string */ /* ty=Tensor[(1, 96, 8, 8), int32] */;
  %528 = right_shift(%527, 25 /* ty=int32 */) /* from_string */ /* ty=Tensor[(1, 96, 8, 8), int32] */;
  %529 = clip(%528, a_min=-127f, a_max=127f) /* from_string */ /* ty=Tensor[(1, 96, 8, 8), int32] */;
  %530 = cast(%529, dtype="int8") /* from_string */ /* ty=Tensor[(1, 96, 8, 8), int8] */;
  %531 = cast(%516, dtype="int32") /* from_string */ /* ty=Tensor[(1, 96, 8, 8), int32] */;
  %532 = cast(%530, dtype="int32") /* from_string */ /* ty=Tensor[(1, 96, 8, 8), int32] */;
  %533 = add(%531, %532) /* from_string */ /* ty=Tensor[(1, 96, 8, 8), int32] */;
  %534 = clip(%533, a_min=-127f, a_max=127f) /* from_string */ /* ty=Tensor[(1, 96, 8, 8), int32] */;
  %535 = cast(%534, dtype="int8") /* from_string */ /* ty=Tensor[(1, 96, 8, 8), int8] */;
  %536 = nn.conv2d(%535, meta[relay.Constant][111] /* ty=Tensor[(576, 96, 1, 1), int8] */, padding=[0, 0, 0, 0], channels=576, kernel_size=[1, 1], out_dtype="int32") /* from_string */ /* ty=Tensor[(1, 576, 8, 8), int32] */;
  %537 = add(%536, 256 /* ty=int32 */) /* from_string */ /* ty=Tensor[(1, 576, 8, 8), int32] */;
  %538 = right_shift(%537, 9 /* ty=int32 */) /* from_string */ /* ty=Tensor[(1, 576, 8, 8), int32] */;
  %539 = clip(%538, a_min=-127f, a_max=127f) /* from_string */ /* ty=Tensor[(1, 576, 8, 8), int32] */;
  %540 = cast(%539, dtype="int8") /* from_string */ /* ty=Tensor[(1, 576, 8, 8), int8] */;
  %541 = cast(%540, dtype="int32") /* from_string */ /* ty=Tensor[(1, 576, 8, 8), int32] */;
  %542 = multiply(%541, meta[relay.Constant][112] /* ty=Tensor[(576, 1, 1), int32] */) /* from_string */ /* ty=Tensor[(1, 576, 8, 8), int32] */;
  %543 = add(%542, meta[relay.Constant][113] /* ty=Tensor[(576, 1, 1), int32] */) /* from_string */ /* ty=Tensor[(1, 576, 8, 8), int32] */;
  %544 = nn.relu(%543) /* from_string */ /* ty=Tensor[(1, 576, 8, 8), int32] */;
  %545 = add(%544, 32 /* ty=int32 */) /* from_string */ /* ty=Tensor[(1, 576, 8, 8), int32] */;
  %546 = right_shift(%545, 6 /* ty=int32 */) /* from_string */ /* ty=Tensor[(1, 576, 8, 8), int32] */;
  %547 = clip(%546, a_min=-127f, a_max=127f) /* from_string */ /* ty=Tensor[(1, 576, 8, 8), int32] */;
  %548 = cast(%547, dtype="int8") /* from_string */ /* ty=Tensor[(1, 576, 8, 8), int8] */;
  %549 = nn.conv2d(%548, meta[relay.Constant][114] /* ty=Tensor[(576, 1, 3, 3), int8] */, padding=[1, 1, 1, 1], groups=576, channels=576, kernel_size=[3, 3], out_dtype="int32") /* from_string */ /* ty=Tensor[(1, 576, 8, 8), int32] */;
  %550 = add(%549, 256 /* ty=int32 */) /* from_string */ /* ty=Tensor[(1, 576, 8, 8), int32] */;
  %551 = right_shift(%550, 9 /* ty=int32 */) /* from_string */ /* ty=Tensor[(1, 576, 8, 8), int32] */;
  %552 = clip(%551, a_min=-127f, a_max=127f) /* from_string */ /* ty=Tensor[(1, 576, 8, 8), int32] */;
  %553 = cast(%552, dtype="int8") /* from_string */ /* ty=Tensor[(1, 576, 8, 8), int8] */;
  %554 = cast(%553, dtype="int32") /* from_string */ /* ty=Tensor[(1, 576, 8, 8), int32] */;
  %555 = multiply(%554, meta[relay.Constant][115] /* ty=Tensor[(576, 1, 1), int32] */) /* from_string */ /* ty=Tensor[(1, 576, 8, 8), int32] */;
  %556 = left_shift(%555, 1 /* ty=int32 */) /* from_string */ /* ty=Tensor[(1, 576, 8, 8), int32] */;
  %557 = add(%556, meta[relay.Constant][116] /* ty=Tensor[(576, 1, 1), int32] */) /* from_string */ /* ty=Tensor[(1, 576, 8, 8), int32] */;
  %558 = nn.relu(%557) /* from_string */ /* ty=Tensor[(1, 576, 8, 8), int32] */;
  %559 = add(%558, 8 /* ty=int32 */) /* from_string */ /* ty=Tensor[(1, 576, 8, 8), int32] */;
  %560 = right_shift(%559, 4 /* ty=int32 */) /* from_string */ /* ty=Tensor[(1, 576, 8, 8), int32] */;
  %561 = clip(%560, a_min=-127f, a_max=127f) /* from_string */ /* ty=Tensor[(1, 576, 8, 8), int32] */;
  %562 = cast(%561, dtype="int8") /* from_string */ /* ty=Tensor[(1, 576, 8, 8), int8] */;
  %563 = nn.conv2d(%562, meta[relay.Constant][117] /* ty=Tensor[(96, 576, 1, 1), int8] */, padding=[0, 0, 0, 0], channels=96, kernel_size=[1, 1], out_dtype="int32") /* from_string */ /* ty=Tensor[(1, 96, 8, 8), int32] */;
  %564 = add(%563, 256 /* ty=int32 */) /* from_string */ /* ty=Tensor[(1, 96, 8, 8), int32] */;
  %565 = right_shift(%564, 9 /* ty=int32 */) /* from_string */ /* ty=Tensor[(1, 96, 8, 8), int32] */;
  %566 = clip(%565, a_min=-127f, a_max=127f) /* from_string */ /* ty=Tensor[(1, 96, 8, 8), int32] */;
  %567 = cast(%566, dtype="int8") /* from_string */ /* ty=Tensor[(1, 96, 8, 8), int8] */;
  %568 = cast(%567, dtype="int32") /* from_string */ /* ty=Tensor[(1, 96, 8, 8), int32] */;
  %569 = multiply(%568, meta[relay.Constant][118] /* ty=Tensor[(96, 1, 1), int32] */) /* from_string */ /* ty=Tensor[(1, 96, 8, 8), int32] */;
  %570 = add(%569, meta[relay.Constant][119] /* ty=Tensor[(96, 1, 1), int32] */) /* from_string */ /* ty=Tensor[(1, 96, 8, 8), int32] */;
  %571 = add(%570, 8 /* ty=int32 */) /* from_string */ /* ty=Tensor[(1, 96, 8, 8), int32] */;
  %572 = right_shift(%571, 4 /* ty=int32 */) /* from_string */ /* ty=Tensor[(1, 96, 8, 8), int32] */;
  %573 = clip(%572, a_min=-127f, a_max=127f) /* from_string */ /* ty=Tensor[(1, 96, 8, 8), int32] */;
  %574 = cast(%573, dtype="int8") /* from_string */ /* ty=Tensor[(1, 96, 8, 8), int8] */;
  %575 = cast(%534, dtype="int8") /* from_string */ /* ty=Tensor[(1, 96, 8, 8), int8] */;
  %576 = cast(%574, dtype="int32") /* from_string */ /* ty=Tensor[(1, 96, 8, 8), int32] */;
  %577 = cast(%575, dtype="int32") /* from_string */ /* ty=Tensor[(1, 96, 8, 8), int32] */;
  %578 = add(%576, %577) /* from_string */ /* ty=Tensor[(1, 96, 8, 8), int32] */;
  %579 = clip(%578, a_min=-127f, a_max=127f) /* from_string */ /* ty=Tensor[(1, 96, 8, 8), int32] */;
  %580 = cast(%579, dtype="int8") /* from_string */ /* ty=Tensor[(1, 96, 8, 8), int8] */;
  %581 = nn.conv2d(%580, meta[relay.Constant][120] /* ty=Tensor[(576, 96, 1, 1), int8] */, padding=[0, 0, 0, 0], channels=576, kernel_size=[1, 1], out_dtype="int32") /* from_string */ /* ty=Tensor[(1, 576, 8, 8), int32] */;
  %582 = add(%581, 256 /* ty=int32 */) /* from_string */ /* ty=Tensor[(1, 576, 8, 8), int32] */;
  %583 = right_shift(%582, 9 /* ty=int32 */) /* from_string */ /* ty=Tensor[(1, 576, 8, 8), int32] */;
  %584 = clip(%583, a_min=-127f, a_max=127f) /* from_string */ /* ty=Tensor[(1, 576, 8, 8), int32] */;
  %585 = cast(%584, dtype="int8") /* from_string */ /* ty=Tensor[(1, 576, 8, 8), int8] */;
  %586 = cast(%585, dtype="int32") /* from_string */ /* ty=Tensor[(1, 576, 8, 8), int32] */;
  %587 = multiply(%586, meta[relay.Constant][121] /* ty=Tensor[(576, 1, 1), int32] */) /* from_string */ /* ty=Tensor[(1, 576, 8, 8), int32] */;
  %588 = add(%587, meta[relay.Constant][122] /* ty=Tensor[(576, 1, 1), int32] */) /* from_string */ /* ty=Tensor[(1, 576, 8, 8), int32] */;
  %589 = nn.relu(%588) /* from_string */ /* ty=Tensor[(1, 576, 8, 8), int32] */;
  %590 = add(%589, 64 /* ty=int32 */) /* from_string */ /* ty=Tensor[(1, 576, 8, 8), int32] */;
  %591 = right_shift(%590, 7 /* ty=int32 */) /* from_string */ /* ty=Tensor[(1, 576, 8, 8), int32] */;
  %592 = clip(%591, a_min=-127f, a_max=127f) /* from_string */ /* ty=Tensor[(1, 576, 8, 8), int32] */;
  %593 = cast(%592, dtype="int8") /* from_string */ /* ty=Tensor[(1, 576, 8, 8), int8] */;
  %594 = nn.conv2d(%593, meta[relay.Constant][123] /* ty=Tensor[(576, 1, 3, 3), int8] */, padding=[1, 1, 1, 1], groups=576, channels=576, kernel_size=[3, 3], out_dtype="int32") /* from_string */ /* ty=Tensor[(1, 576, 8, 8), int32] */;
  %595 = add(%594, 256 /* ty=int32 */) /* from_string */ /* ty=Tensor[(1, 576, 8, 8), int32] */;
  %596 = right_shift(%595, 9 /* ty=int32 */) /* from_string */ /* ty=Tensor[(1, 576, 8, 8), int32] */;
  %597 = clip(%596, a_min=-127f, a_max=127f) /* from_string */ /* ty=Tensor[(1, 576, 8, 8), int32] */;
  %598 = cast(%597, dtype="int8") /* from_string */ /* ty=Tensor[(1, 576, 8, 8), int8] */;
  %599 = cast(%598, dtype="int32") /* from_string */ /* ty=Tensor[(1, 576, 8, 8), int32] */;
  %600 = multiply(%599, meta[relay.Constant][124] /* ty=Tensor[(576, 1, 1), int32] */) /* from_string */ /* ty=Tensor[(1, 576, 8, 8), int32] */;
  %601 = left_shift(%600, 1 /* ty=int32 */) /* from_string */ /* ty=Tensor[(1, 576, 8, 8), int32] */;
  %602 = add(%601, meta[relay.Constant][125] /* ty=Tensor[(576, 1, 1), int32] */) /* from_string */ /* ty=Tensor[(1, 576, 8, 8), int32] */;
  %603 = nn.relu(%602) /* from_string */ /* ty=Tensor[(1, 576, 8, 8), int32] */;
  %604 = add(%603, 8 /* ty=int32 */) /* from_string */ /* ty=Tensor[(1, 576, 8, 8), int32] */;
  %605 = right_shift(%604, 4 /* ty=int32 */) /* from_string */ /* ty=Tensor[(1, 576, 8, 8), int32] */;
  %606 = clip(%605, a_min=-127f, a_max=127f) /* from_string */ /* ty=Tensor[(1, 576, 8, 8), int32] */;
  %607 = cast(%606, dtype="int8") /* from_string */ /* ty=Tensor[(1, 576, 8, 8), int8] */;
  %608 = nn.conv2d(%607, meta[relay.Constant][126] /* ty=Tensor[(96, 576, 1, 1), int8] */, padding=[0, 0, 0, 0], channels=96, kernel_size=[1, 1], out_dtype="int32") /* from_string */ /* ty=Tensor[(1, 96, 8, 8), int32] */;
  %609 = add(%608, 128 /* ty=int32 */) /* from_string */ /* ty=Tensor[(1, 96, 8, 8), int32] */;
  %610 = right_shift(%609, 8 /* ty=int32 */) /* from_string */ /* ty=Tensor[(1, 96, 8, 8), int32] */;
  %611 = clip(%610, a_min=-127f, a_max=127f) /* from_string */ /* ty=Tensor[(1, 96, 8, 8), int32] */;
  %612 = cast(%611, dtype="int8") /* from_string */ /* ty=Tensor[(1, 96, 8, 8), int8] */;
  %613 = cast(%612, dtype="int32") /* from_string */ /* ty=Tensor[(1, 96, 8, 8), int32] */;
  %614 = multiply(%613, meta[relay.Constant][127] /* ty=Tensor[(96, 1, 1), int32] */) /* from_string */ /* ty=Tensor[(1, 96, 8, 8), int32] */;
  %615 = add(%614, meta[relay.Constant][128] /* ty=Tensor[(96, 1, 1), int32] */) /* from_string */ /* ty=Tensor[(1, 96, 8, 8), int32] */;
  %616 = add(%615, 8 /* ty=int32 */) /* from_string */ /* ty=Tensor[(1, 96, 8, 8), int32] */;
  %617 = right_shift(%616, 4 /* ty=int32 */) /* from_string */ /* ty=Tensor[(1, 96, 8, 8), int32] */;
  %618 = clip(%617, a_min=-127f, a_max=127f) /* from_string */ /* ty=Tensor[(1, 96, 8, 8), int32] */;
  %619 = cast(%618, dtype="int8") /* from_string */ /* ty=Tensor[(1, 96, 8, 8), int8] */;
  %620 = cast(%579, dtype="int8") /* from_string */ /* ty=Tensor[(1, 96, 8, 8), int8] */;
  %621 = cast(%619, dtype="int32") /* from_string */ /* ty=Tensor[(1, 96, 8, 8), int32] */;
  %622 = cast(%620, dtype="int32") /* from_string */ /* ty=Tensor[(1, 96, 8, 8), int32] */;
  %623 = add(%621, %622) /* from_string */ /* ty=Tensor[(1, 96, 8, 8), int32] */;
  %624 = cast(%623, dtype="int8") /* from_string */ /* ty=Tensor[(1, 96, 8, 8), int8] */;
  %625 = nn.conv2d(%624, meta[relay.Constant][129] /* ty=Tensor[(576, 96, 1, 1), int8] */, padding=[0, 0, 0, 0], channels=576, kernel_size=[1, 1], out_dtype="int32") /* from_string */ /* ty=Tensor[(1, 576, 8, 8), int32] */;
  %626 = add(%625, 128 /* ty=int32 */) /* from_string */ /* ty=Tensor[(1, 576, 8, 8), int32] */;
  %627 = right_shift(%626, 8 /* ty=int32 */) /* from_string */ /* ty=Tensor[(1, 576, 8, 8), int32] */;
  %628 = clip(%627, a_min=-127f, a_max=127f) /* from_string */ /* ty=Tensor[(1, 576, 8, 8), int32] */;
  %629 = cast(%628, dtype="int8") /* from_string */ /* ty=Tensor[(1, 576, 8, 8), int8] */;
  %630 = cast(%629, dtype="int32") /* from_string */ /* ty=Tensor[(1, 576, 8, 8), int32] */;
  %631 = multiply(%630, meta[relay.Constant][130] /* ty=Tensor[(576, 1, 1), int32] */) /* from_string */ /* ty=Tensor[(1, 576, 8, 8), int32] */;
  %632 = add(%631, meta[relay.Constant][131] /* ty=Tensor[(576, 1, 1), int32] */) /* from_string */ /* ty=Tensor[(1, 576, 8, 8), int32] */;
  %633 = nn.relu(%632) /* from_string */ /* ty=Tensor[(1, 576, 8, 8), int32] */;
  %634 = add(%633, 64 /* ty=int32 */) /* from_string */ /* ty=Tensor[(1, 576, 8, 8), int32] */;
  %635 = right_shift(%634, 7 /* ty=int32 */) /* from_string */ /* ty=Tensor[(1, 576, 8, 8), int32] */;
  %636 = clip(%635, a_min=-127f, a_max=127f) /* from_string */ /* ty=Tensor[(1, 576, 8, 8), int32] */;
  %637 = cast(%636, dtype="int8") /* from_string */ /* ty=Tensor[(1, 576, 8, 8), int8] */;
  %638 = nn.conv2d(%637, meta[relay.Constant][132] /* ty=Tensor[(576, 1, 3, 3), int8] */, strides=[2, 2], padding=[1, 1, 1, 1], groups=576, channels=576, kernel_size=[3, 3], out_dtype="int32") /* from_string */ /* ty=Tensor[(1, 576, 4, 4), int32] */;
  %639 = add(%638, 256 /* ty=int32 */) /* from_string */ /* ty=Tensor[(1, 576, 4, 4), int32] */;
  %640 = right_shift(%639, 9 /* ty=int32 */) /* from_string */ /* ty=Tensor[(1, 576, 4, 4), int32] */;
  %641 = clip(%640, a_min=-127f, a_max=127f) /* from_string */ /* ty=Tensor[(1, 576, 4, 4), int32] */;
  %642 = cast(%641, dtype="int8") /* from_string */ /* ty=Tensor[(1, 576, 4, 4), int8] */;
  %643 = cast(%642, dtype="int32") /* from_string */ /* ty=Tensor[(1, 576, 4, 4), int32] */;
  %644 = multiply(%643, meta[relay.Constant][133] /* ty=Tensor[(576, 1, 1), int32] */) /* from_string */ /* ty=Tensor[(1, 576, 4, 4), int32] */;
  %645 = add(%644, meta[relay.Constant][134] /* ty=Tensor[(576, 1, 1), int32] */) /* from_string */ /* ty=Tensor[(1, 576, 4, 4), int32] */;
  %646 = nn.relu(%645) /* from_string */ /* ty=Tensor[(1, 576, 4, 4), int32] */;
  %647 = add(%646, 4 /* ty=int32 */) /* from_string */ /* ty=Tensor[(1, 576, 4, 4), int32] */;
  %648 = right_shift(%647, 3 /* ty=int32 */) /* from_string */ /* ty=Tensor[(1, 576, 4, 4), int32] */;
  %649 = clip(%648, a_min=-127f, a_max=127f) /* from_string */ /* ty=Tensor[(1, 576, 4, 4), int32] */;
  %650 = cast(%649, dtype="int8") /* from_string */ /* ty=Tensor[(1, 576, 4, 4), int8] */;
  %651 = nn.conv2d(%650, meta[relay.Constant][135] /* ty=Tensor[(160, 576, 1, 1), int8] */, padding=[0, 0, 0, 0], channels=160, kernel_size=[1, 1], out_dtype="int32") /* from_string */ /* ty=Tensor[(1, 160, 4, 4), int32] */;
  %652 = add(%651, 256 /* ty=int32 */) /* from_string */ /* ty=Tensor[(1, 160, 4, 4), int32] */;
  %653 = right_shift(%652, 9 /* ty=int32 */) /* from_string */ /* ty=Tensor[(1, 160, 4, 4), int32] */;
  %654 = clip(%653, a_min=-127f, a_max=127f) /* from_string */ /* ty=Tensor[(1, 160, 4, 4), int32] */;
  %655 = cast(%654, dtype="int8") /* from_string */ /* ty=Tensor[(1, 160, 4, 4), int8] */;
  %656 = cast(%655, dtype="int32") /* from_string */ /* ty=Tensor[(1, 160, 4, 4), int32] */;
  %657 = multiply(%656, meta[relay.Constant][136] /* ty=Tensor[(160, 1, 1), int32] */) /* from_string */ /* ty=Tensor[(1, 160, 4, 4), int32] */;
  %658 = add(%657, meta[relay.Constant][137] /* ty=Tensor[(160, 1, 1), int32] */) /* from_string */ /* ty=Tensor[(1, 160, 4, 4), int32] */;
  %659 = add(%658, 16 /* ty=int32 */) /* from_string */ /* ty=Tensor[(1, 160, 4, 4), int32] */;
  %660 = right_shift(%659, 5 /* ty=int32 */) /* from_string */ /* ty=Tensor[(1, 160, 4, 4), int32] */;
  %661 = clip(%660, a_min=-127f, a_max=127f) /* from_string */ /* ty=Tensor[(1, 160, 4, 4), int32] */;
  %662 = cast(%661, dtype="int8") /* from_string */ /* ty=Tensor[(1, 160, 4, 4), int8] */;
  %663 = nn.conv2d(%662, meta[relay.Constant][138] /* ty=Tensor[(960, 160, 1, 1), int8] */, padding=[0, 0, 0, 0], channels=960, kernel_size=[1, 1], out_dtype="int32") /* from_string */ /* ty=Tensor[(1, 960, 4, 4), int32] */;
  %664 = add(%663, 256 /* ty=int32 */) /* from_string */ /* ty=Tensor[(1, 960, 4, 4), int32] */;
  %665 = right_shift(%664, 9 /* ty=int32 */) /* from_string */ /* ty=Tensor[(1, 960, 4, 4), int32] */;
  %666 = clip(%665, a_min=-127f, a_max=127f) /* from_string */ /* ty=Tensor[(1, 960, 4, 4), int32] */;
  %667 = cast(%666, dtype="int8") /* from_string */ /* ty=Tensor[(1, 960, 4, 4), int8] */;
  %668 = cast(%667, dtype="int32") /* from_string */ /* ty=Tensor[(1, 960, 4, 4), int32] */;
  %669 = multiply(%668, meta[relay.Constant][139] /* ty=Tensor[(960, 1, 1), int32] */) /* from_string */ /* ty=Tensor[(1, 960, 4, 4), int32] */;
  %670 = add(%669, meta[relay.Constant][140] /* ty=Tensor[(960, 1, 1), int32] */) /* from_string */ /* ty=Tensor[(1, 960, 4, 4), int32] */;
  %671 = nn.relu(%670) /* from_string */ /* ty=Tensor[(1, 960, 4, 4), int32] */;
  %672 = add(%671, 16 /* ty=int32 */) /* from_string */ /* ty=Tensor[(1, 960, 4, 4), int32] */;
  %673 = right_shift(%672, 5 /* ty=int32 */) /* from_string */ /* ty=Tensor[(1, 960, 4, 4), int32] */;
  %674 = clip(%673, a_min=-127f, a_max=127f) /* from_string */ /* ty=Tensor[(1, 960, 4, 4), int32] */;
  %675 = cast(%674, dtype="int8") /* from_string */ /* ty=Tensor[(1, 960, 4, 4), int8] */;
  %676 = nn.conv2d(%675, meta[relay.Constant][141] /* ty=Tensor[(960, 1, 3, 3), int8] */, padding=[1, 1, 1, 1], groups=960, channels=960, kernel_size=[3, 3], out_dtype="int32") /* from_string */ /* ty=Tensor[(1, 960, 4, 4), int32] */;
  %677 = add(%676, 256 /* ty=int32 */) /* from_string */ /* ty=Tensor[(1, 960, 4, 4), int32] */;
  %678 = right_shift(%677, 9 /* ty=int32 */) /* from_string */ /* ty=Tensor[(1, 960, 4, 4), int32] */;
  %679 = clip(%678, a_min=-127f, a_max=127f) /* from_string */ /* ty=Tensor[(1, 960, 4, 4), int32] */;
  %680 = cast(%679, dtype="int8") /* from_string */ /* ty=Tensor[(1, 960, 4, 4), int8] */;
  %681 = cast(%680, dtype="int32") /* from_string */ /* ty=Tensor[(1, 960, 4, 4), int32] */;
  %682 = multiply(%681, meta[relay.Constant][142] /* ty=Tensor[(960, 1, 1), int32] */) /* from_string */ /* ty=Tensor[(1, 960, 4, 4), int32] */;
  %683 = left_shift(%682, 2 /* ty=int32 */) /* from_string */ /* ty=Tensor[(1, 960, 4, 4), int32] */;
  %684 = add(%683, meta[relay.Constant][143] /* ty=Tensor[(960, 1, 1), int32] */) /* from_string */ /* ty=Tensor[(1, 960, 4, 4), int32] */;
  %685 = nn.relu(%684) /* from_string */ /* ty=Tensor[(1, 960, 4, 4), int32] */;
  %686 = add(%685, 8 /* ty=int32 */) /* from_string */ /* ty=Tensor[(1, 960, 4, 4), int32] */;
  %687 = right_shift(%686, 4 /* ty=int32 */) /* from_string */ /* ty=Tensor[(1, 960, 4, 4), int32] */;
  %688 = clip(%687, a_min=-127f, a_max=127f) /* from_string */ /* ty=Tensor[(1, 960, 4, 4), int32] */;
  %689 = cast(%688, dtype="int8") /* from_string */ /* ty=Tensor[(1, 960, 4, 4), int8] */;
  %690 = nn.conv2d(%689, meta[relay.Constant][144] /* ty=Tensor[(160, 960, 1, 1), int8] */, padding=[0, 0, 0, 0], channels=160, kernel_size=[1, 1], out_dtype="int32") /* from_string */ /* ty=Tensor[(1, 160, 4, 4), int32] */;
  %691 = add(%690, 256 /* ty=int32 */) /* from_string */ /* ty=Tensor[(1, 160, 4, 4), int32] */;
  %692 = right_shift(%691, 9 /* ty=int32 */) /* from_string */ /* ty=Tensor[(1, 160, 4, 4), int32] */;
  %693 = clip(%692, a_min=-127f, a_max=127f) /* from_string */ /* ty=Tensor[(1, 160, 4, 4), int32] */;
  %694 = cast(%693, dtype="int8") /* from_string */ /* ty=Tensor[(1, 160, 4, 4), int8] */;
  %695 = cast(%694, dtype="int32") /* from_string */ /* ty=Tensor[(1, 160, 4, 4), int32] */;
  %696 = multiply(%695, meta[relay.Constant][145] /* ty=Tensor[(160, 1, 1), int32] */) /* from_string */ /* ty=Tensor[(1, 160, 4, 4), int32] */;
  %697 = add(%696, meta[relay.Constant][146] /* ty=Tensor[(160, 1, 1), int32] */) /* from_string */ /* ty=Tensor[(1, 160, 4, 4), int32] */;
  %698 = add(%697, 8 /* ty=int32 */) /* from_string */ /* ty=Tensor[(1, 160, 4, 4), int32] */;
  %699 = right_shift(%698, 4 /* ty=int32 */) /* from_string */ /* ty=Tensor[(1, 160, 4, 4), int32] */;
  %700 = clip(%699, a_min=-127f, a_max=127f) /* from_string */ /* ty=Tensor[(1, 160, 4, 4), int32] */;
  %701 = cast(%700, dtype="int8") /* from_string */ /* ty=Tensor[(1, 160, 4, 4), int8] */;
  %702 = cast(%661, dtype="int8") /* from_string */ /* ty=Tensor[(1, 160, 4, 4), int8] */;
  %703 = cast(%701, dtype="int32") /* from_string */ /* ty=Tensor[(1, 160, 4, 4), int32] */;
  %704 = cast(%702, dtype="int32") /* from_string */ /* ty=Tensor[(1, 160, 4, 4), int32] */;
  %705 = add(%703, %704) /* from_string */ /* ty=Tensor[(1, 160, 4, 4), int32] */;
  %706 = clip(%705, a_min=-127f, a_max=127f) /* from_string */ /* ty=Tensor[(1, 160, 4, 4), int32] */;
  %707 = cast(%706, dtype="int8") /* from_string */ /* ty=Tensor[(1, 160, 4, 4), int8] */;
  %708 = nn.conv2d(%707, meta[relay.Constant][147] /* ty=Tensor[(960, 160, 1, 1), int8] */, padding=[0, 0, 0, 0], channels=960, kernel_size=[1, 1], out_dtype="int32") /* from_string */ /* ty=Tensor[(1, 960, 4, 4), int32] */;
  %709 = add(%708, 256 /* ty=int32 */) /* from_string */ /* ty=Tensor[(1, 960, 4, 4), int32] */;
  %710 = right_shift(%709, 9 /* ty=int32 */) /* from_string */ /* ty=Tensor[(1, 960, 4, 4), int32] */;
  %711 = clip(%710, a_min=-127f, a_max=127f) /* from_string */ /* ty=Tensor[(1, 960, 4, 4), int32] */;
  %712 = cast(%711, dtype="int8") /* from_string */ /* ty=Tensor[(1, 960, 4, 4), int8] */;
  %713 = cast(%712, dtype="int32") /* from_string */ /* ty=Tensor[(1, 960, 4, 4), int32] */;
  %714 = multiply(%713, meta[relay.Constant][148] /* ty=Tensor[(960, 1, 1), int32] */) /* from_string */ /* ty=Tensor[(1, 960, 4, 4), int32] */;
  %715 = add(%714, meta[relay.Constant][149] /* ty=Tensor[(960, 1, 1), int32] */) /* from_string */ /* ty=Tensor[(1, 960, 4, 4), int32] */;
  %716 = nn.relu(%715) /* from_string */ /* ty=Tensor[(1, 960, 4, 4), int32] */;
  %717 = add(%716, 32 /* ty=int32 */) /* from_string */ /* ty=Tensor[(1, 960, 4, 4), int32] */;
  %718 = right_shift(%717, 6 /* ty=int32 */) /* from_string */ /* ty=Tensor[(1, 960, 4, 4), int32] */;
  %719 = clip(%718, a_min=-127f, a_max=127f) /* from_string */ /* ty=Tensor[(1, 960, 4, 4), int32] */;
  %720 = cast(%719, dtype="int8") /* from_string */ /* ty=Tensor[(1, 960, 4, 4), int8] */;
  %721 = nn.conv2d(%720, meta[relay.Constant][150] /* ty=Tensor[(960, 1, 3, 3), int8] */, padding=[1, 1, 1, 1], groups=960, channels=960, kernel_size=[3, 3], out_dtype="int32") /* from_string */ /* ty=Tensor[(1, 960, 4, 4), int32] */;
  %722 = add(%721, 256 /* ty=int32 */) /* from_string */ /* ty=Tensor[(1, 960, 4, 4), int32] */;
  %723 = right_shift(%722, 9 /* ty=int32 */) /* from_string */ /* ty=Tensor[(1, 960, 4, 4), int32] */;
  %724 = clip(%723, a_min=-127f, a_max=127f) /* from_string */ /* ty=Tensor[(1, 960, 4, 4), int32] */;
  %725 = cast(%724, dtype="int8") /* from_string */ /* ty=Tensor[(1, 960, 4, 4), int8] */;
  %726 = cast(%725, dtype="int32") /* from_string */ /* ty=Tensor[(1, 960, 4, 4), int32] */;
  %727 = multiply(%726, meta[relay.Constant][151] /* ty=Tensor[(960, 1, 1), int32] */) /* from_string */ /* ty=Tensor[(1, 960, 4, 4), int32] */;
  %728 = left_shift(%727, 2 /* ty=int32 */) /* from_string */ /* ty=Tensor[(1, 960, 4, 4), int32] */;
  %729 = add(%728, meta[relay.Constant][152] /* ty=Tensor[(960, 1, 1), int32] */) /* from_string */ /* ty=Tensor[(1, 960, 4, 4), int32] */;
  %730 = nn.relu(%729) /* from_string */ /* ty=Tensor[(1, 960, 4, 4), int32] */;
  %731 = add(%730, 8 /* ty=int32 */) /* from_string */ /* ty=Tensor[(1, 960, 4, 4), int32] */;
  %732 = right_shift(%731, 4 /* ty=int32 */) /* from_string */ /* ty=Tensor[(1, 960, 4, 4), int32] */;
  %733 = clip(%732, a_min=-127f, a_max=127f) /* from_string */ /* ty=Tensor[(1, 960, 4, 4), int32] */;
  %734 = cast(%733, dtype="int8") /* from_string */ /* ty=Tensor[(1, 960, 4, 4), int8] */;
  %735 = nn.conv2d(%734, meta[relay.Constant][153] /* ty=Tensor[(160, 960, 1, 1), int8] */, padding=[0, 0, 0, 0], channels=160, kernel_size=[1, 1], out_dtype="int32") /* from_string */ /* ty=Tensor[(1, 160, 4, 4), int32] */;
  %736 = add(%735, 256 /* ty=int32 */) /* from_string */ /* ty=Tensor[(1, 160, 4, 4), int32] */;
  %737 = right_shift(%736, 9 /* ty=int32 */) /* from_string */ /* ty=Tensor[(1, 160, 4, 4), int32] */;
  %738 = clip(%737, a_min=-127f, a_max=127f) /* from_string */ /* ty=Tensor[(1, 160, 4, 4), int32] */;
  %739 = cast(%738, dtype="int8") /* from_string */ /* ty=Tensor[(1, 160, 4, 4), int8] */;
  %740 = cast(%739, dtype="int32") /* from_string */ /* ty=Tensor[(1, 160, 4, 4), int32] */;
  %741 = multiply(%740, meta[relay.Constant][154] /* ty=Tensor[(160, 1, 1), int32] */) /* from_string */ /* ty=Tensor[(1, 160, 4, 4), int32] */;
  %742 = left_shift(%741, 2 /* ty=int32 */) /* from_string */ /* ty=Tensor[(1, 160, 4, 4), int32] */;
  %743 = add(%742, meta[relay.Constant][155] /* ty=Tensor[(160, 1, 1), int32] */) /* from_string */ /* ty=Tensor[(1, 160, 4, 4), int32] */;
  %744 = add(%743, 16 /* ty=int32 */) /* from_string */ /* ty=Tensor[(1, 160, 4, 4), int32] */;
  %745 = right_shift(%744, 5 /* ty=int32 */) /* from_string */ /* ty=Tensor[(1, 160, 4, 4), int32] */;
  %746 = clip(%745, a_min=-127f, a_max=127f) /* from_string */ /* ty=Tensor[(1, 160, 4, 4), int32] */;
  %747 = cast(%746, dtype="int8") /* from_string */ /* ty=Tensor[(1, 160, 4, 4), int8] */;
  %748 = cast(%706, dtype="int8") /* from_string */ /* ty=Tensor[(1, 160, 4, 4), int8] */;
  %749 = cast(%747, dtype="int32") /* from_string */ /* ty=Tensor[(1, 160, 4, 4), int32] */;
  %750 = cast(%748, dtype="int32") /* from_string */ /* ty=Tensor[(1, 160, 4, 4), int32] */;
  %751 = add(%749, %750) /* from_string */ /* ty=Tensor[(1, 160, 4, 4), int32] */;
  %752 = clip(%751, a_min=-127f, a_max=127f) /* from_string */ /* ty=Tensor[(1, 160, 4, 4), int32] */;
  %753 = cast(%752, dtype="int8") /* from_string */ /* ty=Tensor[(1, 160, 4, 4), int8] */;
  %754 = nn.conv2d(%753, meta[relay.Constant][156] /* ty=Tensor[(960, 160, 1, 1), int8] */, padding=[0, 0, 0, 0], channels=960, kernel_size=[1, 1], out_dtype="int32") /* from_string */ /* ty=Tensor[(1, 960, 4, 4), int32] */;
  %755 = add(%754, 256 /* ty=int32 */) /* from_string */ /* ty=Tensor[(1, 960, 4, 4), int32] */;
  %756 = right_shift(%755, 9 /* ty=int32 */) /* from_string */ /* ty=Tensor[(1, 960, 4, 4), int32] */;
  %757 = clip(%756, a_min=-127f, a_max=127f) /* from_string */ /* ty=Tensor[(1, 960, 4, 4), int32] */;
  %758 = cast(%757, dtype="int8") /* from_string */ /* ty=Tensor[(1, 960, 4, 4), int8] */;
  %759 = cast(%758, dtype="int32") /* from_string */ /* ty=Tensor[(1, 960, 4, 4), int32] */;
  %760 = multiply(%759, meta[relay.Constant][157] /* ty=Tensor[(960, 1, 1), int32] */) /* from_string */ /* ty=Tensor[(1, 960, 4, 4), int32] */;
  %761 = add(%760, meta[relay.Constant][158] /* ty=Tensor[(960, 1, 1), int32] */) /* from_string */ /* ty=Tensor[(1, 960, 4, 4), int32] */;
  %762 = nn.relu(%761) /* from_string */ /* ty=Tensor[(1, 960, 4, 4), int32] */;
  %763 = add(%762, 32 /* ty=int32 */) /* from_string */ /* ty=Tensor[(1, 960, 4, 4), int32] */;
  %764 = right_shift(%763, 6 /* ty=int32 */) /* from_string */ /* ty=Tensor[(1, 960, 4, 4), int32] */;
  %765 = clip(%764, a_min=-127f, a_max=127f) /* from_string */ /* ty=Tensor[(1, 960, 4, 4), int32] */;
  %766 = cast(%765, dtype="int8") /* from_string */ /* ty=Tensor[(1, 960, 4, 4), int8] */;
  %767 = nn.conv2d(%766, meta[relay.Constant][159] /* ty=Tensor[(960, 1, 3, 3), int8] */, padding=[1, 1, 1, 1], groups=960, channels=960, kernel_size=[3, 3], out_dtype="int32") /* from_string */ /* ty=Tensor[(1, 960, 4, 4), int32] */;
  %768 = add(%767, 512 /* ty=int32 */) /* from_string */ /* ty=Tensor[(1, 960, 4, 4), int32] */;
  %769 = right_shift(%768, 10 /* ty=int32 */) /* from_string */ /* ty=Tensor[(1, 960, 4, 4), int32] */;
  %770 = clip(%769, a_min=-127f, a_max=127f) /* from_string */ /* ty=Tensor[(1, 960, 4, 4), int32] */;
  %771 = cast(%770, dtype="int8") /* from_string */ /* ty=Tensor[(1, 960, 4, 4), int8] */;
  %772 = cast(%771, dtype="int32") /* from_string */ /* ty=Tensor[(1, 960, 4, 4), int32] */;
  %773 = multiply(%772, meta[relay.Constant][160] /* ty=Tensor[(960, 1, 1), int32] */) /* from_string */ /* ty=Tensor[(1, 960, 4, 4), int32] */;
  %774 = left_shift(%773, 4 /* ty=int32 */) /* from_string */ /* ty=Tensor[(1, 960, 4, 4), int32] */;
  %775 = add(%774, meta[relay.Constant][161] /* ty=Tensor[(960, 1, 1), int32] */) /* from_string */ /* ty=Tensor[(1, 960, 4, 4), int32] */;
  %776 = nn.relu(%775) /* from_string */ /* ty=Tensor[(1, 960, 4, 4), int32] */;
  %777 = add(%776, 16 /* ty=int32 */) /* from_string */ /* ty=Tensor[(1, 960, 4, 4), int32] */;
  %778 = right_shift(%777, 5 /* ty=int32 */) /* from_string */ /* ty=Tensor[(1, 960, 4, 4), int32] */;
  %779 = clip(%778, a_min=-127f, a_max=127f) /* from_string */ /* ty=Tensor[(1, 960, 4, 4), int32] */;
  %780 = cast(%779, dtype="int8") /* from_string */ /* ty=Tensor[(1, 960, 4, 4), int8] */;
  %781 = nn.conv2d(%780, meta[relay.Constant][162] /* ty=Tensor[(320, 960, 1, 1), int8] */, padding=[0, 0, 0, 0], channels=320, kernel_size=[1, 1], out_dtype="int32") /* from_string */ /* ty=Tensor[(1, 320, 4, 4), int32] */;
  %782 = add(%781, 512 /* ty=int32 */) /* from_string */ /* ty=Tensor[(1, 320, 4, 4), int32] */;
  %783 = right_shift(%782, 10 /* ty=int32 */) /* from_string */ /* ty=Tensor[(1, 320, 4, 4), int32] */;
  %784 = clip(%783, a_min=-127f, a_max=127f) /* from_string */ /* ty=Tensor[(1, 320, 4, 4), int32] */;
  %785 = cast(%784, dtype="int8") /* from_string */ /* ty=Tensor[(1, 320, 4, 4), int8] */;
  %786 = cast(%785, dtype="int32") /* from_string */ /* ty=Tensor[(1, 320, 4, 4), int32] */;
  %787 = multiply(%786, meta[relay.Constant][163] /* ty=Tensor[(320, 1, 1), int32] */) /* from_string */ /* ty=Tensor[(1, 320, 4, 4), int32] */;
  %788 = left_shift(%787, 2 /* ty=int32 */) /* from_string */ /* ty=Tensor[(1, 320, 4, 4), int32] */;
  %789 = add(%788, meta[relay.Constant][164] /* ty=Tensor[(320, 1, 1), int32] */) /* from_string */ /* ty=Tensor[(1, 320, 4, 4), int32] */;
  %790 = add(%789, 16 /* ty=int32 */) /* from_string */ /* ty=Tensor[(1, 320, 4, 4), int32] */;
  %791 = right_shift(%790, 5 /* ty=int32 */) /* from_string */ /* ty=Tensor[(1, 320, 4, 4), int32] */;
  %792 = clip(%791, a_min=-127f, a_max=127f) /* from_string */ /* ty=Tensor[(1, 320, 4, 4), int32] */;
  %793 = cast(%792, dtype="int8") /* from_string */ /* ty=Tensor[(1, 320, 4, 4), int8] */;
  %794 = cast(%752, dtype="int8") /* from_string */ /* ty=Tensor[(1, 160, 4, 4), int8] */;
  %795 = nn.conv2d(%794, meta[relay.Constant][165] /* ty=Tensor[(320, 160, 1, 1), int8] */, padding=[0, 0, 0, 0], channels=320, kernel_size=[1, 1], out_dtype="int32") /* from_string */ /* ty=Tensor[(1, 320, 4, 4), int32] */;
  %796 = add(%795, 1024 /* ty=int32 */) /* from_string */ /* ty=Tensor[(1, 320, 4, 4), int32] */;
  %797 = right_shift(%796, 11 /* ty=int32 */) /* from_string */ /* ty=Tensor[(1, 320, 4, 4), int32] */;
  %798 = clip(%797, a_min=-127f, a_max=127f) /* from_string */ /* ty=Tensor[(1, 320, 4, 4), int32] */;
  %799 = cast(%798, dtype="int8") /* from_string */ /* ty=Tensor[(1, 320, 4, 4), int8] */;
  %800 = cast(%799, dtype="int32") /* from_string */ /* ty=Tensor[(1, 320, 4, 4), int32] */;
  %801 = multiply(%800, meta[relay.Constant][166] /* ty=Tensor[(320, 1, 1), int32] */) /* from_string */ /* ty=Tensor[(1, 320, 4, 4), int32] */;
  %802 = left_shift(%801, 22 /* ty=int32 */) /* from_string */ /* ty=Tensor[(1, 320, 4, 4), int32] */;
  %803 = add(%802, meta[relay.Constant][167] /* ty=Tensor[(320, 1, 1), int32] */) /* from_string */ /* ty=Tensor[(1, 320, 4, 4), int32] */;
  %804 = add(%803, 67108864 /* ty=int32 */) /* from_string */ /* ty=Tensor[(1, 320, 4, 4), int32] */;
  %805 = right_shift(%804, 27 /* ty=int32 */) /* from_string */ /* ty=Tensor[(1, 320, 4, 4), int32] */;
  %806 = clip(%805, a_min=-127f, a_max=127f) /* from_string */ /* ty=Tensor[(1, 320, 4, 4), int32] */;
  %807 = cast(%806, dtype="int8") /* from_string */ /* ty=Tensor[(1, 320, 4, 4), int8] */;
  %808 = cast(%793, dtype="int32") /* from_string */ /* ty=Tensor[(1, 320, 4, 4), int32] */;
  %809 = cast(%807, dtype="int32") /* from_string */ /* ty=Tensor[(1, 320, 4, 4), int32] */;
  %810 = add(%808, %809) /* from_string */ /* ty=Tensor[(1, 320, 4, 4), int32] */;
  %811 = cast(%810, dtype="int8") /* from_string */ /* ty=Tensor[(1, 320, 4, 4), int8] */;
  %812 = nn.conv2d(%811, meta[relay.Constant][168] /* ty=Tensor[(1280, 320, 1, 1), int8] */, padding=[0, 0, 0, 0], channels=1280, kernel_size=[1, 1], out_dtype="int32") /* from_string */ /* ty=Tensor[(1, 1280, 4, 4), int32] */;
  %813 = add(%812, 1024 /* ty=int32 */) /* from_string */ /* ty=Tensor[(1, 1280, 4, 4), int32] */;
  %814 = right_shift(%813, 11 /* ty=int32 */) /* from_string */ /* ty=Tensor[(1, 1280, 4, 4), int32] */;
  %815 = clip(%814, a_min=-127f, a_max=127f) /* from_string */ /* ty=Tensor[(1, 1280, 4, 4), int32] */;
  %816 = cast(%815, dtype="int8") /* from_string */ /* ty=Tensor[(1, 1280, 4, 4), int8] */;
  %817 = cast(%816, dtype="int32") /* from_string */ /* ty=Tensor[(1, 1280, 4, 4), int32] */;
  %818 = multiply(%817, meta[relay.Constant][169] /* ty=Tensor[(1280, 1, 1), int32] */) /* from_string */ /* ty=Tensor[(1, 1280, 4, 4), int32] */;
  %819 = left_shift(%818, 2 /* ty=int32 */) /* from_string */ /* ty=Tensor[(1, 1280, 4, 4), int32] */;
  %820 = add(%819, meta[relay.Constant][170] /* ty=Tensor[(1280, 1, 1), int32] */) /* from_string */ /* ty=Tensor[(1, 1280, 4, 4), int32] */;
  %821 = nn.relu(%820) /* from_string */ /* ty=Tensor[(1, 1280, 4, 4), int32] */;
  %822 = add(%821, 16 /* ty=int32 */) /* from_string */ /* ty=Tensor[(1, 1280, 4, 4), int32] */;
  %823 = right_shift(%822, 5 /* ty=int32 */) /* from_string */ /* ty=Tensor[(1, 1280, 4, 4), int32] */;
  %824 = clip(%823, a_min=-127f, a_max=127f) /* from_string */ /* ty=Tensor[(1, 1280, 4, 4), int32] */;
  %825 = cast(%824, dtype="int8") /* from_string */ /* ty=Tensor[(1, 1280, 4, 4), int8] */;
  %826 = cast(%825, dtype="int32") /* from_string */ /* ty=Tensor[(1, 1280, 4, 4), int32] */;
  %827 = nn.avg_pool2d(%826, pool_size=[4, 4], strides=[4, 4], padding=[0, 0, 0, 0]) /* from_string */ /* ty=Tensor[(1, 1280, 1, 1), int32] */;
  %828 = reshape(%827, newshape=[1, -1]) /* from_string */ /* ty=Tensor[(1, 1280), int32] */;
  %829 = cast(%828, dtype="int8") /* from_string */ /* ty=Tensor[(1, 1280), int8] */;
  %830 = nn.dense(%829, meta[relay.Constant][171] /* ty=Tensor[(10, 1280), int8] */, units=10, out_dtype="int32") /* from_string */ /* ty=Tensor[(1, 10), int32] */;
  %831 = add(%830, meta[relay.Constant][172] /* ty=Tensor[(10), int32] */) /* from_string */ /* ty=Tensor[(1, 10), int32] */;
  %832 = cast(%831, dtype="float32") /* from_string */ /* ty=Tensor[(1, 10), float32] */;
  multiply(%832, 0.000244141f /* ty=float32 */) /* from_string */ /* ty=Tensor[(1, 10), float32] */
}

#[metadata]
{
  "root": 1, 
  "nodes": [
    {
      "type_key": ""
    }, 
    {
      "type_key": "Map", 
      "keys": [
        "relay.Constant"
      ], 
      "data": [2]
    }, 
    {
      "type_key": "Array", 
      "data": [
        3, 
        12, 
        19, 
        26, 
        34, 
        41, 
        48, 
        55, 
        62, 
        69, 
        77, 
        84, 
        91, 
        99, 
        106, 
        113, 
        121, 
        128, 
        135, 
        142, 
        149, 
        156, 
        164, 
        171, 
        178, 
        186, 
        193, 
        200, 
        208, 
        215, 
        222, 
        229, 
        236, 
        243, 
        251, 
        258, 
        265, 
        273, 
        280, 
        287, 
        294, 
        301, 
        308, 
        316, 
        323, 
        330, 
        338, 
        345, 
        352, 
        359, 
        366, 
        373, 
        381, 
        388, 
        395, 
        403, 
        410, 
        417, 
        424, 
        431, 
        438, 
        446, 
        453, 
        460, 
        468, 
        475, 
        482, 
        489, 
        496, 
        503, 
        511, 
        518, 
        525, 
        533, 
        540, 
        547, 
        554, 
        561, 
        568, 
        576, 
        583, 
        590, 
        598, 
        605, 
        612, 
        619, 
        626, 
        633, 
        641, 
        648, 
        655, 
        663, 
        670, 
        677, 
        684, 
        691, 
        698, 
        706, 
        713, 
        720, 
        728, 
        735, 
        742, 
        749, 
        756, 
        763, 
        771, 
        778, 
        785, 
        793, 
        800, 
        807, 
        815, 
        822, 
        829, 
        836, 
        843, 
        850, 
        858, 
        865, 
        872, 
        880, 
        887, 
        894, 
        901, 
        908, 
        915, 
        923, 
        930, 
        937, 
        945, 
        952, 
        959, 
        966, 
        973, 
        980, 
        988, 
        995, 
        1002, 
        1010, 
        1017, 
        1024, 
        1031, 
        1038, 
        1045, 
        1053, 
        1060, 
        1067, 
        1075, 
        1082, 
        1089, 
        1096, 
        1103, 
        1110, 
        1118, 
        1125, 
        1132, 
        1140, 
        1147, 
        1154, 
        1161, 
        1168, 
        1175, 
        1183, 
        1190, 
        1197, 
        1205, 
        1212, 
        1219, 
        1227, 
        1234, 
        1241, 
        1247
      ]
    }, 
    {
      "type_key": "relay.Constant", 
      "attrs": {
        "_checked_type_": "6", 
        "data": "0", 
        "span": "4"
      }
    }, 
    {
      "type_key": "Span", 
      "attrs": {
        "column": "26", 
        "end_column": "45", 
        "end_line": "7", 
        "line": "7", 
        "source_name": "5"
      }
    }, 
    {
      "type_key": "SourceName", 
      "repr_str": "from_string"
    }, 
    {
      "type_key": "relay.TensorType", 
      "attrs": {
        "dtype": "int8", 
        "shape": "7", 
        "span": "0"
      }
    }, 
    {
      "type_key": "Array", 
      "data": [8, 9, 10, 11]
    }, 
    {
      "type_key": "IntImm", 
      "attrs": {
        "dtype": "int32", 
        "span": "0", 
        "value": "32"
      }
    }, 
    {
      "type_key": "IntImm", 
      "attrs": {
        "dtype": "int32", 
        "span": "0", 
        "value": "3"
      }
    }, 
    {
      "type_key": "IntImm", 
      "attrs": {
        "dtype": "int32", 
        "span": "0", 
        "value": "3"
      }
    }, 
    {
      "type_key": "IntImm", 
      "attrs": {
        "dtype": "int32", 
        "span": "0", 
        "value": "3"
      }
    }, 
    {
      "type_key": "relay.Constant", 
      "attrs": {
        "_checked_type_": "14", 
        "data": "1", 
        "span": "13"
      }
    }, 
    {
      "type_key": "Span", 
      "attrs": {
        "column": "28", 
        "end_column": "47", 
        "end_line": "14", 
        "line": "14", 
        "source_name": "5"
      }
    }, 
    {
      "type_key": "relay.TensorType", 
      "attrs": {
        "dtype": "int32", 
        "shape": "15", 
        "span": "0"
      }
    }, 
    {
      "type_key": "Array", 
      "data": [16, 17, 18]
    }, 
    {
      "type_key": "IntImm", 
      "attrs": {
        "dtype": "int32", 
        "span": "0", 
        "value": "32"
      }
    }, 
    {
      "type_key": "IntImm", 
      "attrs": {
        "dtype": "int32", 
        "span": "0", 
        "value": "1"
      }
    }, 
    {
      "type_key": "IntImm", 
      "attrs": {
        "dtype": "int32", 
        "span": "0", 
        "value": "1"
      }
    }, 
    {
      "type_key": "relay.Constant", 
      "attrs": {
        "_checked_type_": "21", 
        "data": "2", 
        "span": "20"
      }
    }, 
    {
      "type_key": "Span", 
      "attrs": {
        "column": "22", 
        "end_column": "41", 
        "end_line": "15", 
        "line": "15", 
        "source_name": "5"
      }
    }, 
    {
      "type_key": "relay.TensorType", 
      "attrs": {
        "dtype": "int32", 
        "shape": "22", 
        "span": "0"
      }
    }, 
    {
      "type_key": "Array", 
      "data": [23, 24, 25]
    }, 
    {
      "type_key": "IntImm", 
      "attrs": {
        "dtype": "int32", 
        "span": "0", 
        "value": "32"
      }
    }, 
    {
      "type_key": "IntImm", 
      "attrs": {
        "dtype": "int32", 
        "span": "0", 
        "value": "1"
      }
    }, 
    {
      "type_key": "IntImm", 
      "attrs": {
        "dtype": "int32", 
        "span": "0", 
        "value": "1"
      }
    }, 
    {
      "type_key": "relay.Constant", 
      "attrs": {
        "_checked_type_": "28", 
        "data": "3", 
        "span": "27"
      }
    }, 
    {
      "type_key": "Span", 
      "attrs": {
        "column": "28", 
        "end_column": "47", 
        "end_line": "22", 
        "line": "22", 
        "source_name": "5"
      }
    }, 
    {
      "type_key": "relay.TensorType", 
      "attrs": {
        "dtype": "int8", 
        "shape": "29", 
        "span": "0"
      }
    }, 
    {
      "type_key": "Array", 
      "data": [30, 31, 32, 33]
    }, 
    {
      "type_key": "IntImm", 
      "attrs": {
        "dtype": "int32", 
        "span": "0", 
        "value": "32"
      }
    }, 
    {
      "type_key": "IntImm", 
      "attrs": {
        "dtype": "int32", 
        "span": "0", 
        "value": "32"
      }
    }, 
    {
      "type_key": "IntImm", 
      "attrs": {
        "dtype": "int32", 
        "span": "0", 
        "value": "1"
      }
    }, 
    {
      "type_key": "IntImm", 
      "attrs": {
        "dtype": "int32", 
        "span": "0", 
        "value": "1"
      }
    }, 
    {
      "type_key": "relay.Constant", 
      "attrs": {
        "_checked_type_": "36", 
        "data": "4", 
        "span": "35"
      }
    }, 
    {
      "type_key": "Span", 
      "attrs": {
        "column": "28", 
        "end_column": "47", 
        "end_line": "29", 
        "line": "29", 
        "source_name": "5"
      }
    }, 
    {
      "type_key": "relay.TensorType", 
      "attrs": {
        "dtype": "int32", 
        "shape": "37", 
        "span": "0"
      }
    }, 
    {
      "type_key": "Array", 
      "data": [38, 39, 40]
    }, 
    {
      "type_key": "IntImm", 
      "attrs": {
        "dtype": "int32", 
        "span": "0", 
        "value": "32"
      }
    }, 
    {
      "type_key": "IntImm", 
      "attrs": {
        "dtype": "int32", 
        "span": "0", 
        "value": "1"
      }
    }, 
    {
      "type_key": "IntImm", 
      "attrs": {
        "dtype": "int32", 
        "span": "0", 
        "value": "1"
      }
    }, 
    {
      "type_key": "relay.Constant", 
      "attrs": {
        "_checked_type_": "43", 
        "data": "5", 
        "span": "42"
      }
    }, 
    {
      "type_key": "Span", 
      "attrs": {
        "column": "22", 
        "end_column": "41", 
        "end_line": "30", 
        "line": "30", 
        "source_name": "5"
      }
    }, 
    {
      "type_key": "relay.TensorType", 
      "attrs": {
        "dtype": "int32", 
        "shape": "44", 
        "span": "0"
      }
    }, 
    {
      "type_key": "Array", 
      "data": [45, 46, 47]
    }, 
    {
      "type_key": "IntImm", 
      "attrs": {
        "dtype": "int32", 
        "span": "0", 
        "value": "32"
      }
    }, 
    {
      "type_key": "IntImm", 
      "attrs": {
        "dtype": "int32", 
        "span": "0", 
        "value": "1"
      }
    }, 
    {
      "type_key": "IntImm", 
      "attrs": {
        "dtype": "int32", 
        "span": "0", 
        "value": "1"
      }
    }, 
    {
      "type_key": "relay.Constant", 
      "attrs": {
        "_checked_type_": "50", 
        "data": "6", 
        "span": "49"
      }
    }, 
    {
      "type_key": "Span", 
      "attrs": {
        "column": "28", 
        "end_column": "47", 
        "end_line": "37", 
        "line": "37", 
        "source_name": "5"
      }
    }, 
    {
      "type_key": "relay.TensorType", 
      "attrs": {
        "dtype": "int8", 
        "shape": "51", 
        "span": "0"
      }
    }, 
    {
      "type_key": "Array", 
      "data": [30, 52, 53, 54]
    }, 
    {
      "type_key": "IntImm", 
      "attrs": {
        "dtype": "int32", 
        "span": "0", 
        "value": "1"
      }
    }, 
    {
      "type_key": "IntImm", 
      "attrs": {
        "dtype": "int32", 
        "span": "0", 
        "value": "3"
      }
    }, 
    {
      "type_key": "IntImm", 
      "attrs": {
        "dtype": "int32", 
        "span": "0", 
        "value": "3"
      }
    }, 
    {
      "type_key": "relay.Constant", 
      "attrs": {
        "_checked_type_": "57", 
        "data": "7", 
        "span": "56"
      }
    }, 
    {
      "type_key": "Span", 
      "attrs": {
        "column": "28", 
        "end_column": "47", 
        "end_line": "44", 
        "line": "44", 
        "source_name": "5"
      }
    }, 
    {
      "type_key": "relay.TensorType", 
      "attrs": {
        "dtype": "int32", 
        "shape": "58", 
        "span": "0"
      }
    }, 
    {
      "type_key": "Array", 
      "data": [59, 60, 61]
    }, 
    {
      "type_key": "IntImm", 
      "attrs": {
        "dtype": "int32", 
        "span": "0", 
        "value": "32"
      }
    }, 
    {
      "type_key": "IntImm", 
      "attrs": {
        "dtype": "int32", 
        "span": "0", 
        "value": "1"
      }
    }, 
    {
      "type_key": "IntImm", 
      "attrs": {
        "dtype": "int32", 
        "span": "0", 
        "value": "1"
      }
    }, 
    {
      "type_key": "relay.Constant", 
      "attrs": {
        "_checked_type_": "64", 
        "data": "8", 
        "span": "63"
      }
    }, 
    {
      "type_key": "Span", 
      "attrs": {
        "column": "22", 
        "end_column": "41", 
        "end_line": "46", 
        "line": "46", 
        "source_name": "5"
      }
    }, 
    {
      "type_key": "relay.TensorType", 
      "attrs": {
        "dtype": "int32", 
        "shape": "65", 
        "span": "0"
      }
    }, 
    {
      "type_key": "Array", 
      "data": [66, 67, 68]
    }, 
    {
      "type_key": "IntImm", 
      "attrs": {
        "dtype": "int32", 
        "span": "0", 
        "value": "32"
      }
    }, 
    {
      "type_key": "IntImm", 
      "attrs": {
        "dtype": "int32", 
        "span": "0", 
        "value": "1"
      }
    }, 
    {
      "type_key": "IntImm", 
      "attrs": {
        "dtype": "int32", 
        "span": "0", 
        "value": "1"
      }
    }, 
    {
      "type_key": "relay.Constant", 
      "attrs": {
        "_checked_type_": "71", 
        "data": "9", 
        "span": "70"
      }
    }, 
    {
      "type_key": "Span", 
      "attrs": {
        "column": "28", 
        "end_column": "47", 
        "end_line": "53", 
        "line": "53", 
        "source_name": "5"
      }
    }, 
    {
      "type_key": "relay.TensorType", 
      "attrs": {
        "dtype": "int8", 
        "shape": "72", 
        "span": "0"
      }
    }, 
    {
      "type_key": "Array", 
      "data": [73, 74, 75, 76]
    }, 
    {
      "type_key": "IntImm", 
      "attrs": {
        "dtype": "int32", 
        "span": "0", 
        "value": "16"
      }
    }, 
    {
      "type_key": "IntImm", 
      "attrs": {
        "dtype": "int32", 
        "span": "0", 
        "value": "32"
      }
    }, 
    {
      "type_key": "IntImm", 
      "attrs": {
        "dtype": "int32", 
        "span": "0", 
        "value": "1"
      }
    }, 
    {
      "type_key": "IntImm", 
      "attrs": {
        "dtype": "int32", 
        "span": "0", 
        "value": "1"
      }
    }, 
    {
      "type_key": "relay.Constant", 
      "attrs": {
        "_checked_type_": "79", 
        "data": "10", 
        "span": "78"
      }
    }, 
    {
      "type_key": "Span", 
      "attrs": {
        "column": "28", 
        "end_column": "48", 
        "end_line": "60", 
        "line": "60", 
        "source_name": "5"
      }
    }, 
    {
      "type_key": "relay.TensorType", 
      "attrs": {
        "dtype": "int32", 
        "shape": "80", 
        "span": "0"
      }
    }, 
    {
      "type_key": "Array", 
      "data": [81, 82, 83]
    }, 
    {
      "type_key": "IntImm", 
      "attrs": {
        "dtype": "int32", 
        "span": "0", 
        "value": "16"
      }
    }, 
    {
      "type_key": "IntImm", 
      "attrs": {
        "dtype": "int32", 
        "span": "0", 
        "value": "1"
      }
    }, 
    {
      "type_key": "IntImm", 
      "attrs": {
        "dtype": "int32", 
        "span": "0", 
        "value": "1"
      }
    }, 
    {
      "type_key": "relay.Constant", 
      "attrs": {
        "_checked_type_": "86", 
        "data": "11", 
        "span": "85"
      }
    }, 
    {
      "type_key": "Span", 
      "attrs": {
        "column": "22", 
        "end_column": "42", 
        "end_line": "61", 
        "line": "61", 
        "source_name": "5"
      }
    }, 
    {
      "type_key": "relay.TensorType", 
      "attrs": {
        "dtype": "int32", 
        "shape": "87", 
        "span": "0"
      }
    }, 
    {
      "type_key": "Array", 
      "data": [88, 89, 90]
    }, 
    {
      "type_key": "IntImm", 
      "attrs": {
        "dtype": "int32", 
        "span": "0", 
        "value": "16"
      }
    }, 
    {
      "type_key": "IntImm", 
      "attrs": {
        "dtype": "int32", 
        "span": "0", 
        "value": "1"
      }
    }, 
    {
      "type_key": "IntImm", 
      "attrs": {
        "dtype": "int32", 
        "span": "0", 
        "value": "1"
      }
    }, 
    {
      "type_key": "relay.Constant", 
      "attrs": {
        "_checked_type_": "93", 
        "data": "12", 
        "span": "92"
      }
    }, 
    {
      "type_key": "Span", 
      "attrs": {
        "column": "28", 
        "end_column": "48", 
        "end_line": "69", 
        "line": "69", 
        "source_name": "5"
      }
    }, 
    {
      "type_key": "relay.TensorType", 
      "attrs": {
        "dtype": "int8", 
        "shape": "94", 
        "span": "0"
      }
    }, 
    {
      "type_key": "Array", 
      "data": [95, 96, 97, 98]
    }, 
    {
      "type_key": "IntImm", 
      "attrs": {
        "dtype": "int32", 
        "span": "0", 
        "value": "16"
      }
    }, 
    {
      "type_key": "IntImm", 
      "attrs": {
        "dtype": "int32", 
        "span": "0", 
        "value": "32"
      }
    }, 
    {
      "type_key": "IntImm", 
      "attrs": {
        "dtype": "int32", 
        "span": "0", 
        "value": "1"
      }
    }, 
    {
      "type_key": "IntImm", 
      "attrs": {
        "dtype": "int32", 
        "span": "0", 
        "value": "1"
      }
    }, 
    {
      "type_key": "relay.Constant", 
      "attrs": {
        "_checked_type_": "101", 
        "data": "13", 
        "span": "100"
      }
    }, 
    {
      "type_key": "Span", 
      "attrs": {
        "column": "28", 
        "end_column": "48", 
        "end_line": "76", 
        "line": "76", 
        "source_name": "5"
      }
    }, 
    {
      "type_key": "relay.TensorType", 
      "attrs": {
        "dtype": "int32", 
        "shape": "102", 
        "span": "0"
      }
    }, 
    {
      "type_key": "Array", 
      "data": [103, 104, 105]
    }, 
    {
      "type_key": "IntImm", 
      "attrs": {
        "dtype": "int32", 
        "span": "0", 
        "value": "16"
      }
    }, 
    {
      "type_key": "IntImm", 
      "attrs": {
        "dtype": "int32", 
        "span": "0", 
        "value": "1"
      }
    }, 
    {
      "type_key": "IntImm", 
      "attrs": {
        "dtype": "int32", 
        "span": "0", 
        "value": "1"
      }
    }, 
    {
      "type_key": "relay.Constant", 
      "attrs": {
        "_checked_type_": "108", 
        "data": "14", 
        "span": "107"
      }
    }, 
    {
      "type_key": "Span", 
      "attrs": {
        "column": "22", 
        "end_column": "42", 
        "end_line": "77", 
        "line": "77", 
        "source_name": "5"
      }
    }, 
    {
      "type_key": "relay.TensorType", 
      "attrs": {
        "dtype": "int32", 
        "shape": "109", 
        "span": "0"
      }
    }, 
    {
      "type_key": "Array", 
      "data": [110, 111, 112]
    }, 
    {
      "type_key": "IntImm", 
      "attrs": {
        "dtype": "int32", 
        "span": "0", 
        "value": "16"
      }
    }, 
    {
      "type_key": "IntImm", 
      "attrs": {
        "dtype": "int32", 
        "span": "0", 
        "value": "1"
      }
    }, 
    {
      "type_key": "IntImm", 
      "attrs": {
        "dtype": "int32", 
        "span": "0", 
        "value": "1"
      }
    }, 
    {
      "type_key": "relay.Constant", 
      "attrs": {
        "_checked_type_": "115", 
        "data": "15", 
        "span": "114"
      }
    }, 
    {
      "type_key": "Span", 
      "attrs": {
        "column": "28", 
        "end_column": "48", 
        "end_line": "89", 
        "line": "89", 
        "source_name": "5"
      }
    }, 
    {
      "type_key": "relay.TensorType", 
      "attrs": {
        "dtype": "int8", 
        "shape": "116", 
        "span": "0"
      }
    }, 
    {
      "type_key": "Array", 
      "data": [117, 118, 119, 120]
    }, 
    {
      "type_key": "IntImm", 
      "attrs": {
        "dtype": "int32", 
        "span": "0", 
        "value": "96"
      }
    }, 
    {
      "type_key": "IntImm", 
      "attrs": {
        "dtype": "int32", 
        "span": "0", 
        "value": "16"
      }
    }, 
    {
      "type_key": "IntImm", 
      "attrs": {
        "dtype": "int32", 
        "span": "0", 
        "value": "1"
      }
    }, 
    {
      "type_key": "IntImm", 
      "attrs": {
        "dtype": "int32", 
        "span": "0", 
        "value": "1"
      }
    }, 
    {
      "type_key": "relay.Constant", 
      "attrs": {
        "_checked_type_": "123", 
        "data": "16", 
        "span": "122"
      }
    }, 
    {
      "type_key": "Span", 
      "attrs": {
        "column": "28", 
        "end_column": "48", 
        "end_line": "96", 
        "line": "96", 
        "source_name": "5"
      }
    }, 
    {
      "type_key": "relay.TensorType", 
      "attrs": {
        "dtype": "int32", 
        "shape": "124", 
        "span": "0"
      }
    }, 
    {
      "type_key": "Array", 
      "data": [125, 126, 127]
    }, 
    {
      "type_key": "IntImm", 
      "attrs": {
        "dtype": "int32", 
        "span": "0", 
        "value": "96"
      }
    }, 
    {
      "type_key": "IntImm", 
      "attrs": {
        "dtype": "int32", 
        "span": "0", 
        "value": "1"
      }
    }, 
    {
      "type_key": "IntImm", 
      "attrs": {
        "dtype": "int32", 
        "span": "0", 
        "value": "1"
      }
    }, 
    {
      "type_key": "relay.Constant", 
      "attrs": {
        "_checked_type_": "130", 
        "data": "17", 
        "span": "129"
      }
    }, 
    {
      "type_key": "Span", 
      "attrs": {
        "column": "22", 
        "end_column": "42", 
        "end_line": "97", 
        "line": "97", 
        "source_name": "5"
      }
    }, 
    {
      "type_key": "relay.TensorType", 
      "attrs": {
        "dtype": "int32", 
        "shape": "131", 
        "span": "0"
      }
    }, 
    {
      "type_key": "Array", 
      "data": [132, 133, 134]
    }, 
    {
      "type_key": "IntImm", 
      "attrs": {
        "dtype": "int32", 
        "span": "0", 
        "value": "96"
      }
    }, 
    {
      "type_key": "IntImm", 
      "attrs": {
        "dtype": "int32", 
        "span": "0", 
        "value": "1"
      }
    }, 
    {
      "type_key": "IntImm", 
      "attrs": {
        "dtype": "int32", 
        "span": "0", 
        "value": "1"
      }
    }, 
    {
      "type_key": "relay.Constant", 
      "attrs": {
        "_checked_type_": "137", 
        "data": "18", 
        "span": "136"
      }
    }, 
    {
      "type_key": "Span", 
      "attrs": {
        "column": "30", 
        "end_column": "50", 
        "end_line": "104", 
        "line": "104", 
        "source_name": "5"
      }
    }, 
    {
      "type_key": "relay.TensorType", 
      "attrs": {
        "dtype": "int8", 
        "shape": "138", 
        "span": "0"
      }
    }, 
    {
      "type_key": "Array", 
      "data": [117, 139, 140, 141]
    }, 
    {
      "type_key": "IntImm", 
      "attrs": {
        "dtype": "int32", 
        "span": "0", 
        "value": "1"
      }
    }, 
    {
      "type_key": "IntImm", 
      "attrs": {
        "dtype": "int32", 
        "span": "0", 
        "value": "3"
      }
    }, 
    {
      "type_key": "IntImm", 
      "attrs": {
        "dtype": "int32", 
        "span": "0", 
        "value": "3"
      }
    }, 
    {
      "type_key": "relay.Constant", 
      "attrs": {
        "_checked_type_": "144", 
        "data": "19", 
        "span": "143"
      }
    }, 
    {
      "type_key": "Span", 
      "attrs": {
        "column": "30", 
        "end_column": "50", 
        "end_line": "111", 
        "line": "111", 
        "source_name": "5"
      }
    }, 
    {
      "type_key": "relay.TensorType", 
      "attrs": {
        "dtype": "int32", 
        "shape": "145", 
        "span": "0"
      }
    }, 
    {
      "type_key": "Array", 
      "data": [146, 147, 148]
    }, 
    {
      "type_key": "IntImm", 
      "attrs": {
        "dtype": "int32", 
        "span": "0", 
        "value": "96"
      }
    }, 
    {
      "type_key": "IntImm", 
      "attrs": {
        "dtype": "int32", 
        "span": "0", 
        "value": "1"
      }
    }, 
    {
      "type_key": "IntImm", 
      "attrs": {
        "dtype": "int32", 
        "span": "0", 
        "value": "1"
      }
    }, 
    {
      "type_key": "relay.Constant", 
      "attrs": {
        "_checked_type_": "151", 
        "data": "20", 
        "span": "150"
      }
    }, 
    {
      "type_key": "Span", 
      "attrs": {
        "column": "24", 
        "end_column": "44", 
        "end_line": "113", 
        "line": "113", 
        "source_name": "5"
      }
    }, 
    {
      "type_key": "relay.TensorType", 
      "attrs": {
        "dtype": "int32", 
        "shape": "152", 
        "span": "0"
      }
    }, 
    {
      "type_key": "Array", 
      "data": [153, 154, 155]
    }, 
    {
      "type_key": "IntImm", 
      "attrs": {
        "dtype": "int32", 
        "span": "0", 
        "value": "96"
      }
    }, 
    {
      "type_key": "IntImm", 
      "attrs": {
        "dtype": "int32", 
        "span": "0", 
        "value": "1"
      }
    }, 
    {
      "type_key": "IntImm", 
      "attrs": {
        "dtype": "int32", 
        "span": "0", 
        "value": "1"
      }
    }, 
    {
      "type_key": "relay.Constant", 
      "attrs": {
        "_checked_type_": "158", 
        "data": "21", 
        "span": "157"
      }
    }, 
    {
      "type_key": "Span", 
      "attrs": {
        "column": "30", 
        "end_column": "50", 
        "end_line": "120", 
        "line": "120", 
        "source_name": "5"
      }
    }, 
    {
      "type_key": "relay.TensorType", 
      "attrs": {
        "dtype": "int8", 
        "shape": "159", 
        "span": "0"
      }
    }, 
    {
      "type_key": "Array", 
      "data": [160, 161, 162, 163]
    }, 
    {
      "type_key": "IntImm", 
      "attrs": {
        "dtype": "int32", 
        "span": "0", 
        "value": "24"
      }
    }, 
    {
      "type_key": "IntImm", 
      "attrs": {
        "dtype": "int32", 
        "span": "0", 
        "value": "96"
      }
    }, 
    {
      "type_key": "IntImm", 
      "attrs": {
        "dtype": "int32", 
        "span": "0", 
        "value": "1"
      }
    }, 
    {
      "type_key": "IntImm", 
      "attrs": {
        "dtype": "int32", 
        "span": "0", 
        "value": "1"
      }
    }, 
    {
      "type_key": "relay.Constant", 
      "attrs": {
        "_checked_type_": "166", 
        "data": "22", 
        "span": "165"
      }
    }, 
    {
      "type_key": "Span", 
      "attrs": {
        "column": "30", 
        "end_column": "50", 
        "end_line": "127", 
        "line": "127", 
        "source_name": "5"
      }
    }, 
    {
      "type_key": "relay.TensorType", 
      "attrs": {
        "dtype": "int32", 
        "shape": "167", 
        "span": "0"
      }
    }, 
    {
      "type_key": "Array", 
      "data": [168, 169, 170]
    }, 
    {
      "type_key": "IntImm", 
      "attrs": {
        "dtype": "int32", 
        "span": "0", 
        "value": "24"
      }
    }, 
    {
      "type_key": "IntImm", 
      "attrs": {
        "dtype": "int32", 
        "span": "0", 
        "value": "1"
      }
    }, 
    {
      "type_key": "IntImm", 
      "attrs": {
        "dtype": "int32", 
        "span": "0", 
        "value": "1"
      }
    }, 
    {
      "type_key": "relay.Constant", 
      "attrs": {
        "_checked_type_": "173", 
        "data": "23", 
        "span": "172"
      }
    }, 
    {
      "type_key": "Span", 
      "attrs": {
        "column": "24", 
        "end_column": "44", 
        "end_line": "128", 
        "line": "128", 
        "source_name": "5"
      }
    }, 
    {
      "type_key": "relay.TensorType", 
      "attrs": {
        "dtype": "int32", 
        "shape": "174", 
        "span": "0"
      }
    }, 
    {
      "type_key": "Array", 
      "data": [175, 176, 177]
    }, 
    {
      "type_key": "IntImm", 
      "attrs": {
        "dtype": "int32", 
        "span": "0", 
        "value": "24"
      }
    }, 
    {
      "type_key": "IntImm", 
      "attrs": {
        "dtype": "int32", 
        "span": "0", 
        "value": "1"
      }
    }, 
    {
      "type_key": "IntImm", 
      "attrs": {
        "dtype": "int32", 
        "span": "0", 
        "value": "1"
      }
    }, 
    {
      "type_key": "relay.Constant", 
      "attrs": {
        "_checked_type_": "180", 
        "data": "24", 
        "span": "179"
      }
    }, 
    {
      "type_key": "Span", 
      "attrs": {
        "column": "30", 
        "end_column": "50", 
        "end_line": "136", 
        "line": "136", 
        "source_name": "5"
      }
    }, 
    {
      "type_key": "relay.TensorType", 
      "attrs": {
        "dtype": "int8", 
        "shape": "181", 
        "span": "0"
      }
    }, 
    {
      "type_key": "Array", 
      "data": [182, 183, 184, 185]
    }, 
    {
      "type_key": "IntImm", 
      "attrs": {
        "dtype": "int32", 
        "span": "0", 
        "value": "24"
      }
    }, 
    {
      "type_key": "IntImm", 
      "attrs": {
        "dtype": "int32", 
        "span": "0", 
        "value": "16"
      }
    }, 
    {
      "type_key": "IntImm", 
      "attrs": {
        "dtype": "int32", 
        "span": "0", 
        "value": "1"
      }
    }, 
    {
      "type_key": "IntImm", 
      "attrs": {
        "dtype": "int32", 
        "span": "0", 
        "value": "1"
      }
    }, 
    {
      "type_key": "relay.Constant", 
      "attrs": {
        "_checked_type_": "188", 
        "data": "25", 
        "span": "187"
      }
    }, 
    {
      "type_key": "Span", 
      "attrs": {
        "column": "30", 
        "end_column": "50", 
        "end_line": "143", 
        "line": "143", 
        "source_name": "5"
      }
    }, 
    {
      "type_key": "relay.TensorType", 
      "attrs": {
        "dtype": "int32", 
        "shape": "189", 
        "span": "0"
      }
    }, 
    {
      "type_key": "Array", 
      "data": [190, 191, 192]
    }, 
    {
      "type_key": "IntImm", 
      "attrs": {
        "dtype": "int32", 
        "span": "0", 
        "value": "24"
      }
    }, 
    {
      "type_key": "IntImm", 
      "attrs": {
        "dtype": "int32", 
        "span": "0", 
        "value": "1"
      }
    }, 
    {
      "type_key": "IntImm", 
      "attrs": {
        "dtype": "int32", 
        "span": "0", 
        "value": "1"
      }
    }, 
    {
      "type_key": "relay.Constant", 
      "attrs": {
        "_checked_type_": "195", 
        "data": "26", 
        "span": "194"
      }
    }, 
    {
      "type_key": "Span", 
      "attrs": {
        "column": "24", 
        "end_column": "44", 
        "end_line": "145", 
        "line": "145", 
        "source_name": "5"
      }
    }, 
    {
      "type_key": "relay.TensorType", 
      "attrs": {
        "dtype": "int32", 
        "shape": "196", 
        "span": "0"
      }
    }, 
    {
      "type_key": "Array", 
      "data": [197, 198, 199]
    }, 
    {
      "type_key": "IntImm", 
      "attrs": {
        "dtype": "int32", 
        "span": "0", 
        "value": "24"
      }
    }, 
    {
      "type_key": "IntImm", 
      "attrs": {
        "dtype": "int32", 
        "span": "0", 
        "value": "1"
      }
    }, 
    {
      "type_key": "IntImm", 
      "attrs": {
        "dtype": "int32", 
        "span": "0", 
        "value": "1"
      }
    }, 
    {
      "type_key": "relay.Constant", 
      "attrs": {
        "_checked_type_": "202", 
        "data": "27", 
        "span": "201"
      }
    }, 
    {
      "type_key": "Span", 
      "attrs": {
        "column": "30", 
        "end_column": "50", 
        "end_line": "157", 
        "line": "157", 
        "source_name": "5"
      }
    }, 
    {
      "type_key": "relay.TensorType", 
      "attrs": {
        "dtype": "int8", 
        "shape": "203", 
        "span": "0"
      }
    }, 
    {
      "type_key": "Array", 
      "data": [204, 205, 206, 207]
    }, 
    {
      "type_key": "IntImm", 
      "attrs": {
        "dtype": "int32", 
        "span": "0", 
        "value": "144"
      }
    }, 
    {
      "type_key": "IntImm", 
      "attrs": {
        "dtype": "int32", 
        "span": "0", 
        "value": "24"
      }
    }, 
    {
      "type_key": "IntImm", 
      "attrs": {
        "dtype": "int32", 
        "span": "0", 
        "value": "1"
      }
    }, 
    {
      "type_key": "IntImm", 
      "attrs": {
        "dtype": "int32", 
        "span": "0", 
        "value": "1"
      }
    }, 
    {
      "type_key": "relay.Constant", 
      "attrs": {
        "_checked_type_": "210", 
        "data": "28", 
        "span": "209"
      }
    }, 
    {
      "type_key": "Span", 
      "attrs": {
        "column": "30", 
        "end_column": "50", 
        "end_line": "164", 
        "line": "164", 
        "source_name": "5"
      }
    }, 
    {
      "type_key": "relay.TensorType", 
      "attrs": {
        "dtype": "int32", 
        "shape": "211", 
        "span": "0"
      }
    }, 
    {
      "type_key": "Array", 
      "data": [212, 213, 214]
    }, 
    {
      "type_key": "IntImm", 
      "attrs": {
        "dtype": "int32", 
        "span": "0", 
        "value": "144"
      }
    }, 
    {
      "type_key": "IntImm", 
      "attrs": {
        "dtype": "int32", 
        "span": "0", 
        "value": "1"
      }
    }, 
    {
      "type_key": "IntImm", 
      "attrs": {
        "dtype": "int32", 
        "span": "0", 
        "value": "1"
      }
    }, 
    {
      "type_key": "relay.Constant", 
      "attrs": {
        "_checked_type_": "217", 
        "data": "29", 
        "span": "216"
      }
    }, 
    {
      "type_key": "Span", 
      "attrs": {
        "column": "24", 
        "end_column": "44", 
        "end_line": "165", 
        "line": "165", 
        "source_name": "5"
      }
    }, 
    {
      "type_key": "relay.TensorType", 
      "attrs": {
        "dtype": "int32", 
        "shape": "218", 
        "span": "0"
      }
    }, 
    {
      "type_key": "Array", 
      "data": [219, 220, 221]
    }, 
    {
      "type_key": "IntImm", 
      "attrs": {
        "dtype": "int32", 
        "span": "0", 
        "value": "144"
      }
    }, 
    {
      "type_key": "IntImm", 
      "attrs": {
        "dtype": "int32", 
        "span": "0", 
        "value": "1"
      }
    }, 
    {
      "type_key": "IntImm", 
      "attrs": {
        "dtype": "int32", 
        "span": "0", 
        "value": "1"
      }
    }, 
    {
      "type_key": "relay.Constant", 
      "attrs": {
        "_checked_type_": "224", 
        "data": "30", 
        "span": "223"
      }
    }, 
    {
      "type_key": "Span", 
      "attrs": {
        "column": "30", 
        "end_column": "50", 
        "end_line": "172", 
        "line": "172", 
        "source_name": "5"
      }
    }, 
    {
      "type_key": "relay.TensorType", 
      "attrs": {
        "dtype": "int8", 
        "shape": "225", 
        "span": "0"
      }
    }, 
    {
      "type_key": "Array", 
      "data": [204, 226, 227, 228]
    }, 
    {
      "type_key": "IntImm", 
      "attrs": {
        "dtype": "int32", 
        "span": "0", 
        "value": "1"
      }
    }, 
    {
      "type_key": "IntImm", 
      "attrs": {
        "dtype": "int32", 
        "span": "0", 
        "value": "3"
      }
    }, 
    {
      "type_key": "IntImm", 
      "attrs": {
        "dtype": "int32", 
        "span": "0", 
        "value": "3"
      }
    }, 
    {
      "type_key": "relay.Constant", 
      "attrs": {
        "_checked_type_": "231", 
        "data": "31", 
        "span": "230"
      }
    }, 
    {
      "type_key": "Span", 
      "attrs": {
        "column": "30", 
        "end_column": "50", 
        "end_line": "179", 
        "line": "179", 
        "source_name": "5"
      }
    }, 
    {
      "type_key": "relay.TensorType", 
      "attrs": {
        "dtype": "int32", 
        "shape": "232", 
        "span": "0"
      }
    }, 
    {
      "type_key": "Array", 
      "data": [233, 234, 235]
    }, 
    {
      "type_key": "IntImm", 
      "attrs": {
        "dtype": "int32", 
        "span": "0", 
        "value": "144"
      }
    }, 
    {
      "type_key": "IntImm", 
      "attrs": {
        "dtype": "int32", 
        "span": "0", 
        "value": "1"
      }
    }, 
    {
      "type_key": "IntImm", 
      "attrs": {
        "dtype": "int32", 
        "span": "0", 
        "value": "1"
      }
    }, 
    {
      "type_key": "relay.Constant", 
      "attrs": {
        "_checked_type_": "238", 
        "data": "32", 
        "span": "237"
      }
    }, 
    {
      "type_key": "Span", 
      "attrs": {
        "column": "24", 
        "end_column": "44", 
        "end_line": "181", 
        "line": "181", 
        "source_name": "5"
      }
    }, 
    {
      "type_key": "relay.TensorType", 
      "attrs": {
        "dtype": "int32", 
        "shape": "239", 
        "span": "0"
      }
    }, 
    {
      "type_key": "Array", 
      "data": [240, 241, 242]
    }, 
    {
      "type_key": "IntImm", 
      "attrs": {
        "dtype": "int32", 
        "span": "0", 
        "value": "144"
      }
    }, 
    {
      "type_key": "IntImm", 
      "attrs": {
        "dtype": "int32", 
        "span": "0", 
        "value": "1"
      }
    }, 
    {
      "type_key": "IntImm", 
      "attrs": {
        "dtype": "int32", 
        "span": "0", 
        "value": "1"
      }
    }, 
    {
      "type_key": "relay.Constant", 
      "attrs": {
        "_checked_type_": "245", 
        "data": "33", 
        "span": "244"
      }
    }, 
    {
      "type_key": "Span", 
      "attrs": {
        "column": "30", 
        "end_column": "50", 
        "end_line": "188", 
        "line": "188", 
        "source_name": "5"
      }
    }, 
    {
      "type_key": "relay.TensorType", 
      "attrs": {
        "dtype": "int8", 
        "shape": "246", 
        "span": "0"
      }
    }, 
    {
      "type_key": "Array", 
      "data": [247, 248, 249, 250]
    }, 
    {
      "type_key": "IntImm", 
      "attrs": {
        "dtype": "int32", 
        "span": "0", 
        "value": "24"
      }
    }, 
    {
      "type_key": "IntImm", 
      "attrs": {
        "dtype": "int32", 
        "span": "0", 
        "value": "144"
      }
    }, 
    {
      "type_key": "IntImm", 
      "attrs": {
        "dtype": "int32", 
        "span": "0", 
        "value": "1"
      }
    }, 
    {
      "type_key": "IntImm", 
      "attrs": {
        "dtype": "int32", 
        "span": "0", 
        "value": "1"
      }
    }, 
    {
      "type_key": "relay.Constant", 
      "attrs": {
        "_checked_type_": "253", 
        "data": "34", 
        "span": "252"
      }
    }, 
    {
      "type_key": "Span", 
      "attrs": {
        "column": "30", 
        "end_column": "50", 
        "end_line": "195", 
        "line": "195", 
        "source_name": "5"
      }
    }, 
    {
      "type_key": "relay.TensorType", 
      "attrs": {
        "dtype": "int32", 
        "shape": "254", 
        "span": "0"
      }
    }, 
    {
      "type_key": "Array", 
      "data": [255, 256, 257]
    }, 
    {
      "type_key": "IntImm", 
      "attrs": {
        "dtype": "int32", 
        "span": "0", 
        "value": "24"
      }
    }, 
    {
      "type_key": "IntImm", 
      "attrs": {
        "dtype": "int32", 
        "span": "0", 
        "value": "1"
      }
    }, 
    {
      "type_key": "IntImm", 
      "attrs": {
        "dtype": "int32", 
        "span": "0", 
        "value": "1"
      }
    }, 
    {
      "type_key": "relay.Constant", 
      "attrs": {
        "_checked_type_": "260", 
        "data": "35", 
        "span": "259"
      }
    }, 
    {
      "type_key": "Span", 
      "attrs": {
        "column": "24", 
        "end_column": "44", 
        "end_line": "196", 
        "line": "196", 
        "source_name": "5"
      }
    }, 
    {
      "type_key": "relay.TensorType", 
      "attrs": {
        "dtype": "int32", 
        "shape": "261", 
        "span": "0"
      }
    }, 
    {
      "type_key": "Array", 
      "data": [262, 263, 264]
    }, 
    {
      "type_key": "IntImm", 
      "attrs": {
        "dtype": "int32", 
        "span": "0", 
        "value": "24"
      }
    }, 
    {
      "type_key": "IntImm", 
      "attrs": {
        "dtype": "int32", 
        "span": "0", 
        "value": "1"
      }
    }, 
    {
      "type_key": "IntImm", 
      "attrs": {
        "dtype": "int32", 
        "span": "0", 
        "value": "1"
      }
    }, 
    {
      "type_key": "relay.Constant", 
      "attrs": {
        "_checked_type_": "267", 
        "data": "36", 
        "span": "266"
      }
    }, 
    {
      "type_key": "Span", 
      "attrs": {
        "column": "30", 
        "end_column": "50", 
        "end_line": "209", 
        "line": "209", 
        "source_name": "5"
      }
    }, 
    {
      "type_key": "relay.TensorType", 
      "attrs": {
        "dtype": "int8", 
        "shape": "268", 
        "span": "0"
      }
    }, 
    {
      "type_key": "Array", 
      "data": [269, 270, 271, 272]
    }, 
    {
      "type_key": "IntImm", 
      "attrs": {
        "dtype": "int32", 
        "span": "0", 
        "value": "144"
      }
    }, 
    {
      "type_key": "IntImm", 
      "attrs": {
        "dtype": "int32", 
        "span": "0", 
        "value": "24"
      }
    }, 
    {
      "type_key": "IntImm", 
      "attrs": {
        "dtype": "int32", 
        "span": "0", 
        "value": "1"
      }
    }, 
    {
      "type_key": "IntImm", 
      "attrs": {
        "dtype": "int32", 
        "span": "0", 
        "value": "1"
      }
    }, 
    {
      "type_key": "relay.Constant", 
      "attrs": {
        "_checked_type_": "275", 
        "data": "37", 
        "span": "274"
      }
    }, 
    {
      "type_key": "Span", 
      "attrs": {
        "column": "30", 
        "end_column": "50", 
        "end_line": "216", 
        "line": "216", 
        "source_name": "5"
      }
    }, 
    {
      "type_key": "relay.TensorType", 
      "attrs": {
        "dtype": "int32", 
        "shape": "276", 
        "span": "0"
      }
    }, 
    {
      "type_key": "Array", 
      "data": [277, 278, 279]
    }, 
    {
      "type_key": "IntImm", 
      "attrs": {
        "dtype": "int32", 
        "span": "0", 
        "value": "144"
      }
    }, 
    {
      "type_key": "IntImm", 
      "attrs": {
        "dtype": "int32", 
        "span": "0", 
        "value": "1"
      }
    }, 
    {
      "type_key": "IntImm", 
      "attrs": {
        "dtype": "int32", 
        "span": "0", 
        "value": "1"
      }
    }, 
    {
      "type_key": "relay.Constant", 
      "attrs": {
        "_checked_type_": "282", 
        "data": "38", 
        "span": "281"
      }
    }, 
    {
      "type_key": "Span", 
      "attrs": {
        "column": "24", 
        "end_column": "44", 
        "end_line": "217", 
        "line": "217", 
        "source_name": "5"
      }
    }, 
    {
      "type_key": "relay.TensorType", 
      "attrs": {
        "dtype": "int32", 
        "shape": "283", 
        "span": "0"
      }
    }, 
    {
      "type_key": "Array", 
      "data": [284, 285, 286]
    }, 
    {
      "type_key": "IntImm", 
      "attrs": {
        "dtype": "int32", 
        "span": "0", 
        "value": "144"
      }
    }, 
    {
      "type_key": "IntImm", 
      "attrs": {
        "dtype": "int32", 
        "span": "0", 
        "value": "1"
      }
    }, 
    {
      "type_key": "IntImm", 
      "attrs": {
        "dtype": "int32", 
        "span": "0", 
        "value": "1"
      }
    }, 
    {
      "type_key": "relay.Constant", 
      "attrs": {
        "_checked_type_": "289", 
        "data": "39", 
        "span": "288"
      }
    }, 
    {
      "type_key": "Span", 
      "attrs": {
        "column": "30", 
        "end_column": "50", 
        "end_line": "224", 
        "line": "224", 
        "source_name": "5"
      }
    }, 
    {
      "type_key": "relay.TensorType", 
      "attrs": {
        "dtype": "int8", 
        "shape": "290", 
        "span": "0"
      }
    }, 
    {
      "type_key": "Array", 
      "data": [269, 291, 292, 293]
    }, 
    {
      "type_key": "IntImm", 
      "attrs": {
        "dtype": "int32", 
        "span": "0", 
        "value": "1"
      }
    }, 
    {
      "type_key": "IntImm", 
      "attrs": {
        "dtype": "int32", 
        "span": "0", 
        "value": "3"
      }
    }, 
    {
      "type_key": "IntImm", 
      "attrs": {
        "dtype": "int32", 
        "span": "0", 
        "value": "3"
      }
    }, 
    {
      "type_key": "relay.Constant", 
      "attrs": {
        "_checked_type_": "296", 
        "data": "40", 
        "span": "295"
      }
    }, 
    {
      "type_key": "Span", 
      "attrs": {
        "column": "30", 
        "end_column": "50", 
        "end_line": "231", 
        "line": "231", 
        "source_name": "5"
      }
    }, 
    {
      "type_key": "relay.TensorType", 
      "attrs": {
        "dtype": "int32", 
        "shape": "297", 
        "span": "0"
      }
    }, 
    {
      "type_key": "Array", 
      "data": [298, 299, 300]
    }, 
    {
      "type_key": "IntImm", 
      "attrs": {
        "dtype": "int32", 
        "span": "0", 
        "value": "144"
      }
    }, 
    {
      "type_key": "IntImm", 
      "attrs": {
        "dtype": "int32", 
        "span": "0", 
        "value": "1"
      }
    }, 
    {
      "type_key": "IntImm", 
      "attrs": {
        "dtype": "int32", 
        "span": "0", 
        "value": "1"
      }
    }, 
    {
      "type_key": "relay.Constant", 
      "attrs": {
        "_checked_type_": "303", 
        "data": "41", 
        "span": "302"
      }
    }, 
    {
      "type_key": "Span", 
      "attrs": {
        "column": "24", 
        "end_column": "44", 
        "end_line": "233", 
        "line": "233", 
        "source_name": "5"
      }
    }, 
    {
      "type_key": "relay.TensorType", 
      "attrs": {
        "dtype": "int32", 
        "shape": "304", 
        "span": "0"
      }
    }, 
    {
      "type_key": "Array", 
      "data": [305, 306, 307]
    }, 
    {
      "type_key": "IntImm", 
      "attrs": {
        "dtype": "int32", 
        "span": "0", 
        "value": "144"
      }
    }, 
    {
      "type_key": "IntImm", 
      "attrs": {
        "dtype": "int32", 
        "span": "0", 
        "value": "1"
      }
    }, 
    {
      "type_key": "IntImm", 
      "attrs": {
        "dtype": "int32", 
        "span": "0", 
        "value": "1"
      }
    }, 
    {
      "type_key": "relay.Constant", 
      "attrs": {
        "_checked_type_": "310", 
        "data": "42", 
        "span": "309"
      }
    }, 
    {
      "type_key": "Span", 
      "attrs": {
        "column": "30", 
        "end_column": "50", 
        "end_line": "240", 
        "line": "240", 
        "source_name": "5"
      }
    }, 
    {
      "type_key": "relay.TensorType", 
      "attrs": {
        "dtype": "int8", 
        "shape": "311", 
        "span": "0"
      }
    }, 
    {
      "type_key": "Array", 
      "data": [312, 313, 314, 315]
    }, 
    {
      "type_key": "IntImm", 
      "attrs": {
        "dtype": "int32", 
        "span": "0", 
        "value": "32"
      }
    }, 
    {
      "type_key": "IntImm", 
      "attrs": {
        "dtype": "int32", 
        "span": "0", 
        "value": "144"
      }
    }, 
    {
      "type_key": "IntImm", 
      "attrs": {
        "dtype": "int32", 
        "span": "0", 
        "value": "1"
      }
    }, 
    {
      "type_key": "IntImm", 
      "attrs": {
        "dtype": "int32", 
        "span": "0", 
        "value": "1"
      }
    }, 
    {
      "type_key": "relay.Constant", 
      "attrs": {
        "_checked_type_": "318", 
        "data": "43", 
        "span": "317"
      }
    }, 
    {
      "type_key": "Span", 
      "attrs": {
        "column": "30", 
        "end_column": "50", 
        "end_line": "247", 
        "line": "247", 
        "source_name": "5"
      }
    }, 
    {
      "type_key": "relay.TensorType", 
      "attrs": {
        "dtype": "int32", 
        "shape": "319", 
        "span": "0"
      }
    }, 
    {
      "type_key": "Array", 
      "data": [320, 321, 322]
    }, 
    {
      "type_key": "IntImm", 
      "attrs": {
        "dtype": "int32", 
        "span": "0", 
        "value": "32"
      }
    }, 
    {
      "type_key": "IntImm", 
      "attrs": {
        "dtype": "int32", 
        "span": "0", 
        "value": "1"
      }
    }, 
    {
      "type_key": "IntImm", 
      "attrs": {
        "dtype": "int32", 
        "span": "0", 
        "value": "1"
      }
    }, 
    {
      "type_key": "relay.Constant", 
      "attrs": {
        "_checked_type_": "325", 
        "data": "44", 
        "span": "324"
      }
    }, 
    {
      "type_key": "Span", 
      "attrs": {
        "column": "24", 
        "end_column": "44", 
        "end_line": "248", 
        "line": "248", 
        "source_name": "5"
      }
    }, 
    {
      "type_key": "relay.TensorType", 
      "attrs": {
        "dtype": "int32", 
        "shape": "326", 
        "span": "0"
      }
    }, 
    {
      "type_key": "Array", 
      "data": [327, 328, 329]
    }, 
    {
      "type_key": "IntImm", 
      "attrs": {
        "dtype": "int32", 
        "span": "0", 
        "value": "32"
      }
    }, 
    {
      "type_key": "IntImm", 
      "attrs": {
        "dtype": "int32", 
        "span": "0", 
        "value": "1"
      }
    }, 
    {
      "type_key": "IntImm", 
      "attrs": {
        "dtype": "int32", 
        "span": "0", 
        "value": "1"
      }
    }, 
    {
      "type_key": "relay.Constant", 
      "attrs": {
        "_checked_type_": "332", 
        "data": "45", 
        "span": "331"
      }
    }, 
    {
      "type_key": "Span", 
      "attrs": {
        "column": "30", 
        "end_column": "50", 
        "end_line": "254", 
        "line": "254", 
        "source_name": "5"
      }
    }, 
    {
      "type_key": "relay.TensorType", 
      "attrs": {
        "dtype": "int8", 
        "shape": "333", 
        "span": "0"
      }
    }, 
    {
      "type_key": "Array", 
      "data": [334, 335, 336, 337]
    }, 
    {
      "type_key": "IntImm", 
      "attrs": {
        "dtype": "int32", 
        "span": "0", 
        "value": "192"
      }
    }, 
    {
      "type_key": "IntImm", 
      "attrs": {
        "dtype": "int32", 
        "span": "0", 
        "value": "32"
      }
    }, 
    {
      "type_key": "IntImm", 
      "attrs": {
        "dtype": "int32", 
        "span": "0", 
        "value": "1"
      }
    }, 
    {
      "type_key": "IntImm", 
      "attrs": {
        "dtype": "int32", 
        "span": "0", 
        "value": "1"
      }
    }, 
    {
      "type_key": "relay.Constant", 
      "attrs": {
        "_checked_type_": "340", 
        "data": "46", 
        "span": "339"
      }
    }, 
    {
      "type_key": "Span", 
      "attrs": {
        "column": "30", 
        "end_column": "50", 
        "end_line": "261", 
        "line": "261", 
        "source_name": "5"
      }
    }, 
    {
      "type_key": "relay.TensorType", 
      "attrs": {
        "dtype": "int32", 
        "shape": "341", 
        "span": "0"
      }
    }, 
    {
      "type_key": "Array", 
      "data": [342, 343, 344]
    }, 
    {
      "type_key": "IntImm", 
      "attrs": {
        "dtype": "int32", 
        "span": "0", 
        "value": "192"
      }
    }, 
    {
      "type_key": "IntImm", 
      "attrs": {
        "dtype": "int32", 
        "span": "0", 
        "value": "1"
      }
    }, 
    {
      "type_key": "IntImm", 
      "attrs": {
        "dtype": "int32", 
        "span": "0", 
        "value": "1"
      }
    }, 
    {
      "type_key": "relay.Constant", 
      "attrs": {
        "_checked_type_": "347", 
        "data": "47", 
        "span": "346"
      }
    }, 
    {
      "type_key": "Span", 
      "attrs": {
        "column": "24", 
        "end_column": "44", 
        "end_line": "262", 
        "line": "262", 
        "source_name": "5"
      }
    }, 
    {
      "type_key": "relay.TensorType", 
      "attrs": {
        "dtype": "int32", 
        "shape": "348", 
        "span": "0"
      }
    }, 
    {
      "type_key": "Array", 
      "data": [349, 350, 351]
    }, 
    {
      "type_key": "IntImm", 
      "attrs": {
        "dtype": "int32", 
        "span": "0", 
        "value": "192"
      }
    }, 
    {
      "type_key": "IntImm", 
      "attrs": {
        "dtype": "int32", 
        "span": "0", 
        "value": "1"
      }
    }, 
    {
      "type_key": "IntImm", 
      "attrs": {
        "dtype": "int32", 
        "span": "0", 
        "value": "1"
      }
    }, 
    {
      "type_key": "relay.Constant", 
      "attrs": {
        "_checked_type_": "354", 
        "data": "48", 
        "span": "353"
      }
    }, 
    {
      "type_key": "Span", 
      "attrs": {
        "column": "30", 
        "end_column": "50", 
        "end_line": "269", 
        "line": "269", 
        "source_name": "5"
      }
    }, 
    {
      "type_key": "relay.TensorType", 
      "attrs": {
        "dtype": "int8", 
        "shape": "355", 
        "span": "0"
      }
    }, 
    {
      "type_key": "Array", 
      "data": [334, 356, 357, 358]
    }, 
    {
      "type_key": "IntImm", 
      "attrs": {
        "dtype": "int32", 
        "span": "0", 
        "value": "1"
      }
    }, 
    {
      "type_key": "IntImm", 
      "attrs": {
        "dtype": "int32", 
        "span": "0", 
        "value": "3"
      }
    }, 
    {
      "type_key": "IntImm", 
      "attrs": {
        "dtype": "int32", 
        "span": "0", 
        "value": "3"
      }
    }, 
    {
      "type_key": "relay.Constant", 
      "attrs": {
        "_checked_type_": "361", 
        "data": "49", 
        "span": "360"
      }
    }, 
    {
      "type_key": "Span", 
      "attrs": {
        "column": "30", 
        "end_column": "50", 
        "end_line": "276", 
        "line": "276", 
        "source_name": "5"
      }
    }, 
    {
      "type_key": "relay.TensorType", 
      "attrs": {
        "dtype": "int32", 
        "shape": "362", 
        "span": "0"
      }
    }, 
    {
      "type_key": "Array", 
      "data": [363, 364, 365]
    }, 
    {
      "type_key": "IntImm", 
      "attrs": {
        "dtype": "int32", 
        "span": "0", 
        "value": "192"
      }
    }, 
    {
      "type_key": "IntImm", 
      "attrs": {
        "dtype": "int32", 
        "span": "0", 
        "value": "1"
      }
    }, 
    {
      "type_key": "IntImm", 
      "attrs": {
        "dtype": "int32", 
        "span": "0", 
        "value": "1"
      }
    }, 
    {
      "type_key": "relay.Constant", 
      "attrs": {
        "_checked_type_": "368", 
        "data": "50", 
        "span": "367"
      }
    }, 
    {
      "type_key": "Span", 
      "attrs": {
        "column": "24", 
        "end_column": "44", 
        "end_line": "278", 
        "line": "278", 
        "source_name": "5"
      }
    }, 
    {
      "type_key": "relay.TensorType", 
      "attrs": {
        "dtype": "int32", 
        "shape": "369", 
        "span": "0"
      }
    }, 
    {
      "type_key": "Array", 
      "data": [370, 371, 372]
    }, 
    {
      "type_key": "IntImm", 
      "attrs": {
        "dtype": "int32", 
        "span": "0", 
        "value": "192"
      }
    }, 
    {
      "type_key": "IntImm", 
      "attrs": {
        "dtype": "int32", 
        "span": "0", 
        "value": "1"
      }
    }, 
    {
      "type_key": "IntImm", 
      "attrs": {
        "dtype": "int32", 
        "span": "0", 
        "value": "1"
      }
    }, 
    {
      "type_key": "relay.Constant", 
      "attrs": {
        "_checked_type_": "375", 
        "data": "51", 
        "span": "374"
      }
    }, 
    {
      "type_key": "Span", 
      "attrs": {
        "column": "30", 
        "end_column": "50", 
        "end_line": "285", 
        "line": "285", 
        "source_name": "5"
      }
    }, 
    {
      "type_key": "relay.TensorType", 
      "attrs": {
        "dtype": "int8", 
        "shape": "376", 
        "span": "0"
      }
    }, 
    {
      "type_key": "Array", 
      "data": [377, 378, 379, 380]
    }, 
    {
      "type_key": "IntImm", 
      "attrs": {
        "dtype": "int32", 
        "span": "0", 
        "value": "32"
      }
    }, 
    {
      "type_key": "IntImm", 
      "attrs": {
        "dtype": "int32", 
        "span": "0", 
        "value": "192"
      }
    }, 
    {
      "type_key": "IntImm", 
      "attrs": {
        "dtype": "int32", 
        "span": "0", 
        "value": "1"
      }
    }, 
    {
      "type_key": "IntImm", 
      "attrs": {
        "dtype": "int32", 
        "span": "0", 
        "value": "1"
      }
    }, 
    {
      "type_key": "relay.Constant", 
      "attrs": {
        "_checked_type_": "383", 
        "data": "52", 
        "span": "382"
      }
    }, 
    {
      "type_key": "Span", 
      "attrs": {
        "column": "30", 
        "end_column": "50", 
        "end_line": "292", 
        "line": "292", 
        "source_name": "5"
      }
    }, 
    {
      "type_key": "relay.TensorType", 
      "attrs": {
        "dtype": "int32", 
        "shape": "384", 
        "span": "0"
      }
    }, 
    {
      "type_key": "Array", 
      "data": [385, 386, 387]
    }, 
    {
      "type_key": "IntImm", 
      "attrs": {
        "dtype": "int32", 
        "span": "0", 
        "value": "32"
      }
    }, 
…
        "dtype": "int32", 
        "span": "0", 
        "value": "96"
      }
    }, 
    {
      "type_key": "IntImm", 
      "attrs": {
        "dtype": "int32", 
        "span": "0", 
        "value": "576"
      }
    }, 
    {
      "type_key": "IntImm", 
      "attrs": {
        "dtype": "int32", 
        "span": "0", 
        "value": "1"
      }
    }, 
    {
      "type_key": "IntImm", 
      "attrs": {
        "dtype": "int32", 
        "span": "0", 
        "value": "1"
      }
    }, 
    {
      "type_key": "relay.Constant", 
      "attrs": {
        "_checked_type_": "925", 
        "data": "127", 
        "span": "924"
      }
    }, 
    {
      "type_key": "Span", 
      "attrs": {
        "column": "30", 
        "end_column": "51", 
        "end_line": "722", 
        "line": "722", 
        "source_name": "5"
      }
    }, 
    {
      "type_key": "relay.TensorType", 
      "attrs": {
        "dtype": "int32", 
        "shape": "926", 
        "span": "0"
      }
    }, 
    {
      "type_key": "Array", 
      "data": [927, 928, 929]
    }, 
    {
      "type_key": "IntImm", 
      "attrs": {
        "dtype": "int32", 
        "span": "0", 
        "value": "96"
      }
    }, 
    {
      "type_key": "IntImm", 
      "attrs": {
        "dtype": "int32", 
        "span": "0", 
        "value": "1"
      }
    }, 
    {
      "type_key": "IntImm", 
      "attrs": {
        "dtype": "int32", 
        "span": "0", 
        "value": "1"
      }
    }, 
    {
      "type_key": "relay.Constant", 
      "attrs": {
        "_checked_type_": "932", 
        "data": "128", 
        "span": "931"
      }
    }, 
    {
      "type_key": "Span", 
      "attrs": {
        "column": "24", 
        "end_column": "45", 
        "end_line": "723", 
        "line": "723", 
        "source_name": "5"
      }
    }, 
    {
      "type_key": "relay.TensorType", 
      "attrs": {
        "dtype": "int32", 
        "shape": "933", 
        "span": "0"
      }
    }, 
    {
      "type_key": "Array", 
      "data": [934, 935, 936]
    }, 
    {
      "type_key": "IntImm", 
      "attrs": {
        "dtype": "int32", 
        "span": "0", 
        "value": "96"
      }
    }, 
    {
      "type_key": "IntImm", 
      "attrs": {
        "dtype": "int32", 
        "span": "0", 
        "value": "1"
      }
    }, 
    {
      "type_key": "IntImm", 
      "attrs": {
        "dtype": "int32", 
        "span": "0", 
        "value": "1"
      }
    }, 
    {
      "type_key": "relay.Constant", 
      "attrs": {
        "_checked_type_": "939", 
        "data": "129", 
        "span": "938"
      }
    }, 
    {
      "type_key": "Span", 
      "attrs": {
        "column": "30", 
        "end_column": "51", 
        "end_line": "736", 
        "line": "736", 
        "source_name": "5"
      }
    }, 
    {
      "type_key": "relay.TensorType", 
      "attrs": {
        "dtype": "int8", 
        "shape": "940", 
        "span": "0"
      }
    }, 
    {
      "type_key": "Array", 
      "data": [941, 942, 943, 944]
    }, 
    {
      "type_key": "IntImm", 
      "attrs": {
        "dtype": "int32", 
        "span": "0", 
        "value": "576"
      }
    }, 
    {
      "type_key": "IntImm", 
      "attrs": {
        "dtype": "int32", 
        "span": "0", 
        "value": "96"
      }
    }, 
    {
      "type_key": "IntImm", 
      "attrs": {
        "dtype": "int32", 
        "span": "0", 
        "value": "1"
      }
    }, 
    {
      "type_key": "IntImm", 
      "attrs": {
        "dtype": "int32", 
        "span": "0", 
        "value": "1"
      }
    }, 
    {
      "type_key": "relay.Constant", 
      "attrs": {
        "_checked_type_": "947", 
        "data": "130", 
        "span": "946"
      }
    }, 
    {
      "type_key": "Span", 
      "attrs": {
        "column": "30", 
        "end_column": "51", 
        "end_line": "743", 
        "line": "743", 
        "source_name": "5"
      }
    }, 
    {
      "type_key": "relay.TensorType", 
      "attrs": {
        "dtype": "int32", 
        "shape": "948", 
        "span": "0"
      }
    }, 
    {
      "type_key": "Array", 
      "data": [949, 950, 951]
    }, 
    {
      "type_key": "IntImm", 
      "attrs": {
        "dtype": "int32", 
        "span": "0", 
        "value": "576"
      }
    }, 
    {
      "type_key": "IntImm", 
      "attrs": {
        "dtype": "int32", 
        "span": "0", 
        "value": "1"
      }
    }, 
    {
      "type_key": "IntImm", 
      "attrs": {
        "dtype": "int32", 
        "span": "0", 
        "value": "1"
      }
    }, 
    {
      "type_key": "relay.Constant", 
      "attrs": {
        "_checked_type_": "954", 
        "data": "131", 
        "span": "953"
      }
    }, 
    {
      "type_key": "Span", 
      "attrs": {
        "column": "24", 
        "end_column": "45", 
        "end_line": "744", 
        "line": "744", 
        "source_name": "5"
      }
    }, 
    {
      "type_key": "relay.TensorType", 
      "attrs": {
        "dtype": "int32", 
        "shape": "955", 
        "span": "0"
      }
    }, 
    {
      "type_key": "Array", 
      "data": [956, 957, 958]
    }, 
    {
      "type_key": "IntImm", 
      "attrs": {
        "dtype": "int32", 
        "span": "0", 
        "value": "576"
      }
    }, 
    {
      "type_key": "IntImm", 
      "attrs": {
        "dtype": "int32", 
        "span": "0", 
        "value": "1"
      }
    }, 
    {
      "type_key": "IntImm", 
      "attrs": {
        "dtype": "int32", 
        "span": "0", 
        "value": "1"
      }
    }, 
    {
      "type_key": "relay.Constant", 
      "attrs": {
        "_checked_type_": "961", 
        "data": "132", 
        "span": "960"
      }
    }, 
    {
      "type_key": "Span", 
      "attrs": {
        "column": "30", 
        "end_column": "51", 
        "end_line": "751", 
        "line": "751", 
        "source_name": "5"
      }
    }, 
    {
      "type_key": "relay.TensorType", 
      "attrs": {
        "dtype": "int8", 
        "shape": "962", 
        "span": "0"
      }
    }, 
    {
      "type_key": "Array", 
      "data": [941, 963, 964, 965]
    }, 
    {
      "type_key": "IntImm", 
      "attrs": {
        "dtype": "int32", 
        "span": "0", 
        "value": "1"
      }
    }, 
    {
      "type_key": "IntImm", 
      "attrs": {
        "dtype": "int32", 
        "span": "0", 
        "value": "3"
      }
    }, 
    {
      "type_key": "IntImm", 
      "attrs": {
        "dtype": "int32", 
        "span": "0", 
        "value": "3"
      }
    }, 
    {
      "type_key": "relay.Constant", 
      "attrs": {
        "_checked_type_": "968", 
        "data": "133", 
        "span": "967"
      }
    }, 
    {
      "type_key": "Span", 
      "attrs": {
        "column": "30", 
        "end_column": "51", 
        "end_line": "758", 
        "line": "758", 
        "source_name": "5"
      }
    }, 
    {
      "type_key": "relay.TensorType", 
      "attrs": {
        "dtype": "int32", 
        "shape": "969", 
        "span": "0"
      }
    }, 
    {
      "type_key": "Array", 
      "data": [970, 971, 972]
    }, 
    {
      "type_key": "IntImm", 
      "attrs": {
        "dtype": "int32", 
        "span": "0", 
        "value": "576"
      }
    }, 
    {
      "type_key": "IntImm", 
      "attrs": {
        "dtype": "int32", 
        "span": "0", 
        "value": "1"
      }
    }, 
    {
      "type_key": "IntImm", 
      "attrs": {
        "dtype": "int32", 
        "span": "0", 
        "value": "1"
      }
    }, 
    {
      "type_key": "relay.Constant", 
      "attrs": {
        "_checked_type_": "975", 
        "data": "134", 
        "span": "974"
      }
    }, 
    {
      "type_key": "Span", 
      "attrs": {
        "column": "24", 
        "end_column": "45", 
        "end_line": "759", 
        "line": "759", 
        "source_name": "5"
      }
    }, 
    {
      "type_key": "relay.TensorType", 
      "attrs": {
        "dtype": "int32", 
        "shape": "976", 
        "span": "0"
      }
    }, 
    {
      "type_key": "Array", 
      "data": [977, 978, 979]
    }, 
    {
      "type_key": "IntImm", 
      "attrs": {
        "dtype": "int32", 
        "span": "0", 
        "value": "576"
      }
    }, 
    {
      "type_key": "IntImm", 
      "attrs": {
        "dtype": "int32", 
        "span": "0", 
        "value": "1"
      }
    }, 
    {
      "type_key": "IntImm", 
      "attrs": {
        "dtype": "int32", 
        "span": "0", 
        "value": "1"
      }
    }, 
    {
      "type_key": "relay.Constant", 
      "attrs": {
        "_checked_type_": "982", 
        "data": "135", 
        "span": "981"
      }
    }, 
    {
      "type_key": "Span", 
      "attrs": {
        "column": "30", 
        "end_column": "51", 
        "end_line": "766", 
        "line": "766", 
        "source_name": "5"
      }
    }, 
    {
      "type_key": "relay.TensorType", 
      "attrs": {
        "dtype": "int8", 
        "shape": "983", 
        "span": "0"
      }
    }, 
    {
      "type_key": "Array", 
      "data": [984, 985, 986, 987]
    }, 
    {
      "type_key": "IntImm", 
      "attrs": {
        "dtype": "int32", 
        "span": "0", 
        "value": "160"
      }
    }, 
    {
      "type_key": "IntImm", 
      "attrs": {
        "dtype": "int32", 
        "span": "0", 
        "value": "576"
      }
    }, 
    {
      "type_key": "IntImm", 
      "attrs": {
        "dtype": "int32", 
        "span": "0", 
        "value": "1"
      }
    }, 
    {
      "type_key": "IntImm", 
      "attrs": {
        "dtype": "int32", 
        "span": "0", 
        "value": "1"
      }
    }, 
    {
      "type_key": "relay.Constant", 
      "attrs": {
        "_checked_type_": "990", 
        "data": "136", 
        "span": "989"
      }
    }, 
    {
      "type_key": "Span", 
      "attrs": {
        "column": "30", 
        "end_column": "51", 
        "end_line": "773", 
        "line": "773", 
        "source_name": "5"
      }
    }, 
    {
      "type_key": "relay.TensorType", 
      "attrs": {
        "dtype": "int32", 
        "shape": "991", 
        "span": "0"
      }
    }, 
    {
      "type_key": "Array", 
      "data": [992, 993, 994]
    }, 
    {
      "type_key": "IntImm", 
      "attrs": {
        "dtype": "int32", 
        "span": "0", 
        "value": "160"
      }
    }, 
    {
      "type_key": "IntImm", 
      "attrs": {
        "dtype": "int32", 
        "span": "0", 
        "value": "1"
      }
    }, 
    {
      "type_key": "IntImm", 
      "attrs": {
        "dtype": "int32", 
        "span": "0", 
        "value": "1"
      }
    }, 
    {
      "type_key": "relay.Constant", 
      "attrs": {
        "_checked_type_": "997", 
        "data": "137", 
        "span": "996"
      }
    }, 
    {
      "type_key": "Span", 
      "attrs": {
        "column": "24", 
        "end_column": "45", 
        "end_line": "774", 
        "line": "774", 
        "source_name": "5"
      }
    }, 
    {
      "type_key": "relay.TensorType", 
      "attrs": {
        "dtype": "int32", 
        "shape": "998", 
        "span": "0"
      }
    }, 
    {
      "type_key": "Array", 
      "data": [999, 1000, 1001]
    }, 
    {
      "type_key": "IntImm", 
      "attrs": {
        "dtype": "int32", 
        "span": "0", 
        "value": "160"
      }
    }, 
    {
      "type_key": "IntImm", 
      "attrs": {
        "dtype": "int32", 
        "span": "0", 
        "value": "1"
      }
    }, 
    {
      "type_key": "IntImm", 
      "attrs": {
        "dtype": "int32", 
        "span": "0", 
        "value": "1"
      }
    }, 
    {
      "type_key": "relay.Constant", 
      "attrs": {
        "_checked_type_": "1004", 
        "data": "138", 
        "span": "1003"
      }
    }, 
    {
      "type_key": "Span", 
      "attrs": {
        "column": "30", 
        "end_column": "51", 
        "end_line": "780", 
        "line": "780", 
        "source_name": "5"
      }
    }, 
    {
      "type_key": "relay.TensorType", 
      "attrs": {
        "dtype": "int8", 
        "shape": "1005", 
        "span": "0"
      }
    }, 
    {
      "type_key": "Array", 
      "data": [1006, 1007, 1008, 1009]
    }, 
    {
      "type_key": "IntImm", 
      "attrs": {
        "dtype": "int32", 
        "span": "0", 
        "value": "960"
      }
    }, 
    {
      "type_key": "IntImm", 
      "attrs": {
        "dtype": "int32", 
        "span": "0", 
        "value": "160"
      }
    }, 
    {
      "type_key": "IntImm", 
      "attrs": {
        "dtype": "int32", 
        "span": "0", 
        "value": "1"
      }
    }, 
    {
      "type_key": "IntImm", 
      "attrs": {
        "dtype": "int32", 
        "span": "0", 
        "value": "1"
      }
    }, 
    {
      "type_key": "relay.Constant", 
      "attrs": {
        "_checked_type_": "1012", 
        "data": "139", 
        "span": "1011"
      }
    }, 
    {
      "type_key": "Span", 
      "attrs": {
        "column": "30", 
        "end_column": "51", 
        "end_line": "787", 
        "line": "787", 
        "source_name": "5"
      }
    }, 
    {
      "type_key": "relay.TensorType", 
      "attrs": {
        "dtype": "int32", 
        "shape": "1013", 
        "span": "0"
      }
    }, 
    {
      "type_key": "Array", 
      "data": [1014, 1015, 1016]
    }, 
    {
      "type_key": "IntImm", 
      "attrs": {
        "dtype": "int32", 
        "span": "0", 
        "value": "960"
      }
    }, 
    {
      "type_key": "IntImm", 
      "attrs": {
        "dtype": "int32", 
        "span": "0", 
        "value": "1"
      }
    }, 
    {
      "type_key": "IntImm", 
      "attrs": {
        "dtype": "int32", 
        "span": "0", 
        "value": "1"
      }
    }, 
    {
      "type_key": "relay.Constant", 
      "attrs": {
        "_checked_type_": "1019", 
        "data": "140", 
        "span": "1018"
      }
    }, 
    {
      "type_key": "Span", 
      "attrs": {
        "column": "24", 
        "end_column": "45", 
        "end_line": "788", 
        "line": "788", 
        "source_name": "5"
      }
    }, 
    {
      "type_key": "relay.TensorType", 
      "attrs": {
        "dtype": "int32", 
        "shape": "1020", 
        "span": "0"
      }
    }, 
    {
      "type_key": "Array", 
      "data": [1021, 1022, 1023]
    }, 
    {
      "type_key": "IntImm", 
      "attrs": {
        "dtype": "int32", 
        "span": "0", 
        "value": "960"
      }
    }, 
    {
      "type_key": "IntImm", 
      "attrs": {
        "dtype": "int32", 
        "span": "0", 
        "value": "1"
      }
    }, 
    {
      "type_key": "IntImm", 
      "attrs": {
        "dtype": "int32", 
        "span": "0", 
        "value": "1"
      }
    }, 
    {
      "type_key": "relay.Constant", 
      "attrs": {
        "_checked_type_": "1026", 
        "data": "141", 
        "span": "1025"
      }
    }, 
    {
      "type_key": "Span", 
      "attrs": {
        "column": "30", 
        "end_column": "51", 
        "end_line": "795", 
        "line": "795", 
        "source_name": "5"
      }
    }, 
    {
      "type_key": "relay.TensorType", 
      "attrs": {
        "dtype": "int8", 
        "shape": "1027", 
        "span": "0"
      }
    }, 
    {
      "type_key": "Array", 
      "data": [1006, 1028, 1029, 1030]
    }, 
    {
      "type_key": "IntImm", 
      "attrs": {
        "dtype": "int32", 
        "span": "0", 
        "value": "1"
      }
    }, 
    {
      "type_key": "IntImm", 
      "attrs": {
        "dtype": "int32", 
        "span": "0", 
        "value": "3"
      }
    }, 
    {
      "type_key": "IntImm", 
      "attrs": {
        "dtype": "int32", 
        "span": "0", 
        "value": "3"
      }
    }, 
    {
      "type_key": "relay.Constant", 
      "attrs": {
        "_checked_type_": "1033", 
        "data": "142", 
        "span": "1032"
      }
    }, 
    {
      "type_key": "Span", 
      "attrs": {
        "column": "30", 
        "end_column": "51", 
        "end_line": "802", 
        "line": "802", 
        "source_name": "5"
      }
    }, 
    {
      "type_key": "relay.TensorType", 
      "attrs": {
        "dtype": "int32", 
        "shape": "1034", 
        "span": "0"
      }
    }, 
    {
      "type_key": "Array", 
      "data": [1035, 1036, 1037]
    }, 
    {
      "type_key": "IntImm", 
      "attrs": {
        "dtype": "int32", 
        "span": "0", 
        "value": "960"
      }
    }, 
    {
      "type_key": "IntImm", 
      "attrs": {
        "dtype": "int32", 
        "span": "0", 
        "value": "1"
      }
    }, 
    {
      "type_key": "IntImm", 
      "attrs": {
        "dtype": "int32", 
        "span": "0", 
        "value": "1"
      }
    }, 
    {
      "type_key": "relay.Constant", 
      "attrs": {
        "_checked_type_": "1040", 
        "data": "143", 
        "span": "1039"
      }
    }, 
    {
      "type_key": "Span", 
      "attrs": {
        "column": "24", 
        "end_column": "45", 
        "end_line": "804", 
        "line": "804", 
        "source_name": "5"
      }
    }, 
    {
      "type_key": "relay.TensorType", 
      "attrs": {
        "dtype": "int32", 
        "shape": "1041", 
        "span": "0"
      }
    }, 
    {
      "type_key": "Array", 
      "data": [1042, 1043, 1044]
    }, 
    {
      "type_key": "IntImm", 
      "attrs": {
        "dtype": "int32", 
        "span": "0", 
        "value": "960"
      }
    }, 
    {
      "type_key": "IntImm", 
      "attrs": {
        "dtype": "int32", 
        "span": "0", 
        "value": "1"
      }
    }, 
    {
      "type_key": "IntImm", 
      "attrs": {
        "dtype": "int32", 
        "span": "0", 
        "value": "1"
      }
    }, 
    {
      "type_key": "relay.Constant", 
      "attrs": {
        "_checked_type_": "1047", 
        "data": "144", 
        "span": "1046"
      }
    }, 
    {
      "type_key": "Span", 
      "attrs": {
        "column": "30", 
        "end_column": "51", 
        "end_line": "811", 
        "line": "811", 
        "source_name": "5"
      }
    }, 
    {
      "type_key": "relay.TensorType", 
      "attrs": {
        "dtype": "int8", 
        "shape": "1048", 
        "span": "0"
      }
    }, 
    {
      "type_key": "Array", 
      "data": [1049, 1050, 1051, 1052]
    }, 
    {
      "type_key": "IntImm", 
      "attrs": {
        "dtype": "int32", 
        "span": "0", 
        "value": "160"
      }
    }, 
    {
      "type_key": "IntImm", 
      "attrs": {
        "dtype": "int32", 
        "span": "0", 
        "value": "960"
      }
    }, 
    {
      "type_key": "IntImm", 
      "attrs": {
        "dtype": "int32", 
        "span": "0", 
        "value": "1"
      }
    }, 
    {
      "type_key": "IntImm", 
      "attrs": {
        "dtype": "int32", 
        "span": "0", 
        "value": "1"
      }
    }, 
    {
      "type_key": "relay.Constant", 
      "attrs": {
        "_checked_type_": "1055", 
        "data": "145", 
        "span": "1054"
      }
    }, 
    {
      "type_key": "Span", 
      "attrs": {
        "column": "30", 
        "end_column": "51", 
        "end_line": "818", 
        "line": "818", 
        "source_name": "5"
      }
    }, 
    {
      "type_key": "relay.TensorType", 
      "attrs": {
        "dtype": "int32", 
        "shape": "1056", 
        "span": "0"
      }
    }, 
    {
      "type_key": "Array", 
      "data": [1057, 1058, 1059]
    }, 
    {
      "type_key": "IntImm", 
      "attrs": {
        "dtype": "int32", 
        "span": "0", 
        "value": "160"
      }
    }, 
    {
      "type_key": "IntImm", 
      "attrs": {
        "dtype": "int32", 
        "span": "0", 
        "value": "1"
      }
    }, 
    {
      "type_key": "IntImm", 
      "attrs": {
        "dtype": "int32", 
        "span": "0", 
        "value": "1"
      }
    }, 
    {
      "type_key": "relay.Constant", 
      "attrs": {
        "_checked_type_": "1062", 
        "data": "146", 
        "span": "1061"
      }
    }, 
    {
      "type_key": "Span", 
      "attrs": {
        "column": "24", 
        "end_column": "45", 
        "end_line": "819", 
        "line": "819", 
        "source_name": "5"
      }
    }, 
    {
      "type_key": "relay.TensorType", 
      "attrs": {
        "dtype": "int32", 
        "shape": "1063", 
        "span": "0"
      }
    }, 
    {
      "type_key": "Array", 
      "data": [1064, 1065, 1066]
    }, 
    {
      "type_key": "IntImm", 
      "attrs": {
        "dtype": "int32", 
        "span": "0", 
        "value": "160"
      }
    }, 
    {
      "type_key": "IntImm", 
      "attrs": {
        "dtype": "int32", 
        "span": "0", 
        "value": "1"
      }
    }, 
    {
      "type_key": "IntImm", 
      "attrs": {
        "dtype": "int32", 
        "span": "0", 
        "value": "1"
      }
    }, 
    {
      "type_key": "relay.Constant", 
      "attrs": {
        "_checked_type_": "1069", 
        "data": "147", 
        "span": "1068"
      }
    }, 
    {
      "type_key": "Span", 
      "attrs": {
        "column": "30", 
        "end_column": "51", 
        "end_line": "833", 
        "line": "833", 
        "source_name": "5"
      }
    }, 
    {
      "type_key": "relay.TensorType", 
      "attrs": {
        "dtype": "int8", 
        "shape": "1070", 
        "span": "0"
      }
    }, 
    {
      "type_key": "Array", 
      "data": [1071, 1072, 1073, 1074]
    }, 
    {
      "type_key": "IntImm", 
      "attrs": {
        "dtype": "int32", 
        "span": "0", 
        "value": "960"
      }
    }, 
    {
      "type_key": "IntImm", 
      "attrs": {
        "dtype": "int32", 
        "span": "0", 
        "value": "160"
      }
    }, 
    {
      "type_key": "IntImm", 
      "attrs": {
        "dtype": "int32", 
        "span": "0", 
        "value": "1"
      }
    }, 
    {
      "type_key": "IntImm", 
      "attrs": {
        "dtype": "int32", 
        "span": "0", 
        "value": "1"
      }
    }, 
    {
      "type_key": "relay.Constant", 
      "attrs": {
        "_checked_type_": "1077", 
        "data": "148", 
        "span": "1076"
      }
    }, 
    {
      "type_key": "Span", 
      "attrs": {
        "column": "30", 
        "end_column": "51", 
        "end_line": "840", 
        "line": "840", 
        "source_name": "5"
      }
    }, 
    {
      "type_key": "relay.TensorType", 
      "attrs": {
        "dtype": "int32", 
        "shape": "1078", 
        "span": "0"
      }
    }, 
    {
      "type_key": "Array", 
      "data": [1079, 1080, 1081]
    }, 
    {
      "type_key": "IntImm", 
      "attrs": {
        "dtype": "int32", 
        "span": "0", 
        "value": "960"
      }
    }, 
    {
      "type_key": "IntImm", 
      "attrs": {
        "dtype": "int32", 
        "span": "0", 
        "value": "1"
      }
    }, 
    {
      "type_key": "IntImm", 
      "attrs": {
        "dtype": "int32", 
        "span": "0", 
        "value": "1"
      }
    }, 
    {
      "type_key": "relay.Constant", 
      "attrs": {
        "_checked_type_": "1084", 
        "data": "149", 
        "span": "1083"
      }
    }, 
    {
      "type_key": "Span", 
      "attrs": {
        "column": "24", 
        "end_column": "45", 
        "end_line": "841", 
        "line": "841", 
        "source_name": "5"
      }
    }, 
    {
      "type_key": "relay.TensorType", 
      "attrs": {
        "dtype": "int32", 
        "shape": "1085", 
        "span": "0"
      }
    }, 
    {
      "type_key": "Array", 
      "data": [1086, 1087, 1088]
    }, 
    {
      "type_key": "IntImm", 
      "attrs": {
        "dtype": "int32", 
        "span": "0", 
        "value": "960"
      }
    }, 
    {
      "type_key": "IntImm", 
      "attrs": {
        "dtype": "int32", 
        "span": "0", 
        "value": "1"
      }
    }, 
    {
      "type_key": "IntImm", 
      "attrs": {
        "dtype": "int32", 
        "span": "0", 
        "value": "1"
      }
    }, 
    {
      "type_key": "relay.Constant", 
      "attrs": {
        "_checked_type_": "1091", 
        "data": "150", 
        "span": "1090"
      }
    }, 
    {
      "type_key": "Span", 
      "attrs": {
        "column": "30", 
        "end_column": "51", 
        "end_line": "848", 
        "line": "848", 
        "source_name": "5"
      }
    }, 
    {
      "type_key": "relay.TensorType", 
      "attrs": {
        "dtype": "int8", 
        "shape": "1092", 
        "span": "0"
      }
    }, 
    {
      "type_key": "Array", 
      "data": [1071, 1093, 1094, 1095]
    }, 
    {
      "type_key": "IntImm", 
      "attrs": {
        "dtype": "int32", 
        "span": "0", 
        "value": "1"
      }
    }, 
    {
      "type_key": "IntImm", 
      "attrs": {
        "dtype": "int32", 
        "span": "0", 
        "value": "3"
      }
    }, 
    {
      "type_key": "IntImm", 
      "attrs": {
        "dtype": "int32", 
        "span": "0", 
        "value": "3"
      }
    }, 
    {
      "type_key": "relay.Constant", 
      "attrs": {
        "_checked_type_": "1098", 
        "data": "151", 
        "span": "1097"
      }
    }, 
    {
      "type_key": "Span", 
      "attrs": {
        "column": "30", 
        "end_column": "51", 
        "end_line": "855", 
        "line": "855", 
        "source_name": "5"
      }
    }, 
    {
      "type_key": "relay.TensorType", 
      "attrs": {
        "dtype": "int32", 
        "shape": "1099", 
        "span": "0"
      }
    }, 
    {
      "type_key": "Array", 
      "data": [1100, 1101, 1102]
    }, 
    {
      "type_key": "IntImm", 
      "attrs": {
        "dtype": "int32", 
        "span": "0", 
        "value": "960"
      }
    }, 
    {
      "type_key": "IntImm", 
      "attrs": {
        "dtype": "int32", 
        "span": "0", 
        "value": "1"
      }
    }, 
    {
      "type_key": "IntImm", 
      "attrs": {
        "dtype": "int32", 
        "span": "0", 
        "value": "1"
      }
    }, 
    {
      "type_key": "relay.Constant", 
      "attrs": {
        "_checked_type_": "1105", 
        "data": "152", 
        "span": "1104"
      }
    }, 
    {
      "type_key": "Span", 
      "attrs": {
        "column": "24", 
        "end_column": "45", 
        "end_line": "857", 
        "line": "857", 
        "source_name": "5"
      }
    }, 
    {
      "type_key": "relay.TensorType", 
      "attrs": {
        "dtype": "int32", 
        "shape": "1106", 
        "span": "0"
      }
    }, 
    {
      "type_key": "Array", 
      "data": [1107, 1108, 1109]
    }, 
    {
      "type_key": "IntImm", 
      "attrs": {
        "dtype": "int32", 
        "span": "0", 
        "value": "960"
      }
    }, 
    {
      "type_key": "IntImm", 
      "attrs": {
        "dtype": "int32", 
        "span": "0", 
        "value": "1"
      }
    }, 
    {
      "type_key": "IntImm", 
      "attrs": {
        "dtype": "int32", 
        "span": "0", 
        "value": "1"
      }
    }, 
    {
      "type_key": "relay.Constant", 
      "attrs": {
        "_checked_type_": "1112", 
        "data": "153", 
        "span": "1111"
      }
    }, 
    {
      "type_key": "Span", 
      "attrs": {
        "column": "30", 
        "end_column": "51", 
        "end_line": "864", 
        "line": "864", 
        "source_name": "5"
      }
    }, 
    {
      "type_key": "relay.TensorType", 
      "attrs": {
        "dtype": "int8", 
        "shape": "1113", 
        "span": "0"
      }
    }, 
    {
      "type_key": "Array", 
      "data": [1114, 1115, 1116, 1117]
    }, 
    {
      "type_key": "IntImm", 
      "attrs": {
        "dtype": "int32", 
        "span": "0", 
        "value": "160"
      }
    }, 
    {
      "type_key": "IntImm", 
      "attrs": {
        "dtype": "int32", 
        "span": "0", 
        "value": "960"
      }
    }, 
    {
      "type_key": "IntImm", 
      "attrs": {
        "dtype": "int32", 
        "span": "0", 
        "value": "1"
      }
    }, 
    {
      "type_key": "IntImm", 
      "attrs": {
        "dtype": "int32", 
        "span": "0", 
        "value": "1"
      }
    }, 
    {
      "type_key": "relay.Constant", 
      "attrs": {
        "_checked_type_": "1120", 
        "data": "154", 
        "span": "1119"
      }
    }, 
    {
      "type_key": "Span", 
      "attrs": {
        "column": "30", 
        "end_column": "51", 
        "end_line": "871", 
        "line": "871", 
        "source_name": "5"
      }
    }, 
    {
      "type_key": "relay.TensorType", 
      "attrs": {
        "dtype": "int32", 
        "shape": "1121", 
        "span": "0"
      }
    }, 
    {
      "type_key": "Array", 
      "data": [1122, 1123, 1124]
    }, 
    {
      "type_key": "IntImm", 
      "attrs": {
        "dtype": "int32", 
        "span": "0", 
        "value": "160"
      }
    }, 
    {
      "type_key": "IntImm", 
      "attrs": {
        "dtype": "int32", 
        "span": "0", 
        "value": "1"
      }
    }, 
    {
      "type_key": "IntImm", 
      "attrs": {
        "dtype": "int32", 
        "span": "0", 
        "value": "1"
      }
    }, 
    {
      "type_key": "relay.Constant", 
      "attrs": {
        "_checked_type_": "1127", 
        "data": "155", 
        "span": "1126"
      }
    }, 
    {
      "type_key": "Span", 
      "attrs": {
        "column": "24", 
        "end_column": "45", 
        "end_line": "873", 
        "line": "873", 
        "source_name": "5"
      }
    }, 
    {
      "type_key": "relay.TensorType", 
      "attrs": {
        "dtype": "int32", 
        "shape": "1128", 
        "span": "0"
      }
    }, 
    {
      "type_key": "Array", 
      "data": [1129, 1130, 1131]
    }, 
    {
      "type_key": "IntImm", 
      "attrs": {
        "dtype": "int32", 
        "span": "0", 
        "value": "160"
      }
    }, 
    {
      "type_key": "IntImm", 
      "attrs": {
        "dtype": "int32", 
        "span": "0", 
        "value": "1"
      }
    }, 
    {
      "type_key": "IntImm", 
      "attrs": {
        "dtype": "int32", 
        "span": "0", 
        "value": "1"
      }
    }, 
    {
      "type_key": "relay.Constant", 
      "attrs": {
        "_checked_type_": "1134", 
        "data": "156", 
        "span": "1133"
      }
    }, 
    {
      "type_key": "Span", 
      "attrs": {
        "column": "30", 
        "end_column": "51", 
        "end_line": "887", 
        "line": "887", 
        "source_name": "5"
      }
    }, 
    {
      "type_key": "relay.TensorType", 
      "attrs": {
        "dtype": "int8", 
        "shape": "1135", 
        "span": "0"
      }
    }, 
    {
      "type_key": "Array", 
      "data": [1136, 1137, 1138, 1139]
    }, 
    {
      "type_key": "IntImm", 
      "attrs": {
        "dtype": "int32", 
        "span": "0", 
        "value": "960"
      }
    }, 
    {
      "type_key": "IntImm", 
      "attrs": {
        "dtype": "int32", 
        "span": "0", 
        "value": "160"
      }
    }, 
    {
      "type_key": "IntImm", 
      "attrs": {
        "dtype": "int32", 
        "span": "0", 
        "value": "1"
      }
    }, 
    {
      "type_key": "IntImm", 
      "attrs": {
        "dtype": "int32", 
        "span": "0", 
        "value": "1"
      }
    }, 
    {
      "type_key": "relay.Constant", 
      "attrs": {
        "_checked_type_": "1142", 
        "data": "157", 
        "span": "1141"
      }
    }, 
    {
      "type_key": "Span", 
      "attrs": {
        "column": "30", 
        "end_column": "51", 
        "end_line": "894", 
        "line": "894", 
        "source_name": "5"
      }
    }, 
    {
      "type_key": "relay.TensorType", 
      "attrs": {
        "dtype": "int32", 
        "shape": "1143", 
        "span": "0"
      }
    }, 
    {
      "type_key": "Array", 
      "data": [1144, 1145, 1146]
    }, 
    {
      "type_key": "IntImm", 
      "attrs": {
        "dtype": "int32", 
        "span": "0", 
        "value": "960"
      }
    }, 
    {
      "type_key": "IntImm", 
      "attrs": {
        "dtype": "int32", 
        "span": "0", 
        "value": "1"
      }
    }, 
    {
      "type_key": "IntImm", 
      "attrs": {
        "dtype": "int32", 
        "span": "0", 
        "value": "1"
      }
    }, 
    {
      "type_key": "relay.Constant", 
      "attrs": {
        "_checked_type_": "1149", 
        "data": "158", 
        "span": "1148"
      }
    }, 
    {
      "type_key": "Span", 
      "attrs": {
        "column": "24", 
        "end_column": "45", 
        "end_line": "895", 
        "line": "895", 
        "source_name": "5"
      }
    }, 
    {
      "type_key": "relay.TensorType", 
      "attrs": {
        "dtype": "int32", 
        "shape": "1150", 
        "span": "0"
      }
    }, 
    {
      "type_key": "Array", 
      "data": [1151, 1152, 1153]
    }, 
    {
      "type_key": "IntImm", 
      "attrs": {
        "dtype": "int32", 
        "span": "0", 
        "value": "960"
      }
    }, 
    {
      "type_key": "IntImm", 
      "attrs": {
        "dtype": "int32", 
        "span": "0", 
        "value": "1"
      }
    }, 
    {
      "type_key": "IntImm", 
      "attrs": {
        "dtype": "int32", 
        "span": "0", 
        "value": "1"
      }
    }, 
    {
      "type_key": "relay.Constant", 
      "attrs": {
        "_checked_type_": "1156", 
        "data": "159", 
        "span": "1155"
      }
    }, 
    {
      "type_key": "Span", 
      "attrs": {
        "column": "30", 
        "end_column": "51", 
        "end_line": "902", 
        "line": "902", 
        "source_name": "5"
      }
    }, 
    {
      "type_key": "relay.TensorType", 
      "attrs": {
        "dtype": "int8", 
        "shape": "1157", 
        "span": "0"
      }
    }, 
    {
      "type_key": "Array", 
      "data": [1136, 1158, 1159, 1160]
    }, 
    {
      "type_key": "IntImm", 
      "attrs": {
        "dtype": "int32", 
        "span": "0", 
        "value": "1"
      }
    }, 
    {
      "type_key": "IntImm", 
      "attrs": {
        "dtype": "int32", 
        "span": "0", 
        "value": "3"
      }
    }, 
    {
      "type_key": "IntImm", 
      "attrs": {
        "dtype": "int32", 
        "span": "0", 
        "value": "3"
      }
    }, 
    {
      "type_key": "relay.Constant", 
      "attrs": {
        "_checked_type_": "1163", 
        "data": "160", 
        "span": "1162"
      }
    }, 
    {
      "type_key": "Span", 
      "attrs": {
        "column": "30", 
        "end_column": "51", 
        "end_line": "909", 
        "line": "909", 
        "source_name": "5"
      }
    }, 
    {
      "type_key": "relay.TensorType", 
      "attrs": {
        "dtype": "int32", 
        "shape": "1164", 
        "span": "0"
      }
    }, 
    {
      "type_key": "Array", 
      "data": [1165, 1166, 1167]
    }, 
    {
      "type_key": "IntImm", 
      "attrs": {
        "dtype": "int32", 
        "span": "0", 
        "value": "960"
      }
    }, 
    {
      "type_key": "IntImm", 
      "attrs": {
        "dtype": "int32", 
        "span": "0", 
        "value": "1"
      }
    }, 
    {
      "type_key": "IntImm", 
      "attrs": {
        "dtype": "int32", 
        "span": "0", 
        "value": "1"
      }
    }, 
    {
      "type_key": "relay.Constant", 
      "attrs": {
        "_checked_type_": "1170", 
        "data": "161", 
        "span": "1169"
      }
    }, 
    {
      "type_key": "Span", 
      "attrs": {
        "column": "24", 
        "end_column": "45", 
        "end_line": "911", 
        "line": "911", 
        "source_name": "5"
      }
    }, 
    {
      "type_key": "relay.TensorType", 
      "attrs": {
        "dtype": "int32", 
        "shape": "1171", 
        "span": "0"
      }
    }, 
    {
      "type_key": "Array", 
      "data": [1172, 1173, 1174]
    }, 
    {
      "type_key": "IntImm", 
      "attrs": {
        "dtype": "int32", 
        "span": "0", 
        "value": "960"
      }
    }, 
    {
      "type_key": "IntImm", 
      "attrs": {
        "dtype": "int32", 
        "span": "0", 
        "value": "1"
      }
    }, 
    {
      "type_key": "IntImm", 
      "attrs": {
        "dtype": "int32", 
        "span": "0", 
        "value": "1"
      }
    }, 
    {
      "type_key": "relay.Constant", 
      "attrs": {
        "_checked_type_": "1177", 
        "data": "162", 
        "span": "1176"
      }
    }, 
    {
      "type_key": "Span", 
      "attrs": {
        "column": "30", 
        "end_column": "51", 
        "end_line": "918", 
        "line": "918", 
        "source_name": "5"
      }
    }, 
    {
      "type_key": "relay.TensorType", 
      "attrs": {
        "dtype": "int8", 
        "shape": "1178", 
        "span": "0"
      }
    }, 
    {
      "type_key": "Array", 
      "data": [1179, 1180, 1181, 1182]
    }, 
    {
      "type_key": "IntImm", 
      "attrs": {
        "dtype": "int32", 
        "span": "0", 
        "value": "320"
      }
    }, 
    {
      "type_key": "IntImm", 
      "attrs": {
        "dtype": "int32", 
        "span": "0", 
        "value": "960"
      }
    }, 
    {
      "type_key": "IntImm", 
      "attrs": {
        "dtype": "int32", 
        "span": "0", 
        "value": "1"
      }
    }, 
    {
      "type_key": "IntImm", 
      "attrs": {
        "dtype": "int32", 
        "span": "0", 
        "value": "1"
      }
    }, 
    {
      "type_key": "relay.Constant", 
      "attrs": {
        "_checked_type_": "1185", 
        "data": "163", 
        "span": "1184"
      }
    }, 
    {
      "type_key": "Span", 
      "attrs": {
        "column": "30", 
        "end_column": "51", 
        "end_line": "925", 
        "line": "925", 
        "source_name": "5"
      }
    }, 
    {
      "type_key": "relay.TensorType", 
      "attrs": {
        "dtype": "int32", 
        "shape": "1186", 
        "span": "0"
      }
    }, 
    {
      "type_key": "Array", 
      "data": [1187, 1188, 1189]
    }, 
    {
      "type_key": "IntImm", 
      "attrs": {
        "dtype": "int32", 
        "span": "0", 
        "value": "320"
      }
    }, 
    {
      "type_key": "IntImm", 
      "attrs": {
        "dtype": "int32", 
        "span": "0", 
        "value": "1"
      }
    }, 
    {
      "type_key": "IntImm", 
      "attrs": {
        "dtype": "int32", 
        "span": "0", 
        "value": "1"
      }
    }, 
    {
      "type_key": "relay.Constant", 
      "attrs": {
        "_checked_type_": "1192", 
        "data": "164", 
        "span": "1191"
      }
    }, 
    {
      "type_key": "Span", 
      "attrs": {
        "column": "24", 
        "end_column": "45", 
        "end_line": "927", 
        "line": "927", 
        "source_name": "5"
      }
    }, 
    {
      "type_key": "relay.TensorType", 
      "attrs": {
        "dtype": "int32", 
        "shape": "1193", 
        "span": "0"
      }
    }, 
    {
      "type_key": "Array", 
      "data": [1194, 1195, 1196]
    }, 
    {
      "type_key": "IntImm", 
      "attrs": {
        "dtype": "int32", 
        "span": "0", 
        "value": "320"
      }
    }, 
    {
      "type_key": "IntImm", 
      "attrs": {
        "dtype": "int32", 
        "span": "0", 
        "value": "1"
      }
    }, 
    {
      "type_key": "IntImm", 
      "attrs": {
        "dtype": "int32", 
        "span": "0", 
        "value": "1"
      }
    }, 
    {
      "type_key": "relay.Constant", 
      "attrs": {
        "_checked_type_": "1199", 
        "data": "165", 
        "span": "1198"
      }
    }, 
    {
      "type_key": "Span", 
      "attrs": {
        "column": "30", 
        "end_column": "51", 
        "end_line": "935", 
        "line": "935", 
        "source_name": "5"
      }
    }, 
    {
      "type_key": "relay.TensorType", 
      "attrs": {
        "dtype": "int8", 
        "shape": "1200", 
        "span": "0"
      }
    }, 
    {
      "type_key": "Array", 
      "data": [1201, 1202, 1203, 1204]
    }, 
    {
      "type_key": "IntImm", 
      "attrs": {
        "dtype": "int32", 
        "span": "0", 
        "value": "320"
      }
    }, 
    {
      "type_key": "IntImm", 
      "attrs": {
        "dtype": "int32", 
        "span": "0", 
        "value": "160"
      }
    }, 
    {
      "type_key": "IntImm", 
      "attrs": {
        "dtype": "int32", 
        "span": "0", 
        "value": "1"
      }
    }, 
    {
      "type_key": "IntImm", 
      "attrs": {
        "dtype": "int32", 
        "span": "0", 
        "value": "1"
      }
    }, 
    {
      "type_key": "relay.Constant", 
      "attrs": {
        "_checked_type_": "1207", 
        "data": "166", 
        "span": "1206"
      }
    }, 
    {
      "type_key": "Span", 
      "attrs": {
        "column": "30", 
        "end_column": "51", 
        "end_line": "942", 
        "line": "942", 
        "source_name": "5"
      }
    }, 
    {
      "type_key": "relay.TensorType", 
      "attrs": {
        "dtype": "int32", 
        "shape": "1208", 
        "span": "0"
      }
    }, 
    {
      "type_key": "Array", 
      "data": [1209, 1210, 1211]
    }, 
    {
      "type_key": "IntImm", 
      "attrs": {
        "dtype": "int32", 
        "span": "0", 
        "value": "320"
      }
    }, 
    {
      "type_key": "IntImm", 
      "attrs": {
        "dtype": "int32", 
        "span": "0", 
        "value": "1"
      }
    }, 
    {
      "type_key": "IntImm", 
      "attrs": {
        "dtype": "int32", 
        "span": "0", 
        "value": "1"
      }
    }, 
    {
      "type_key": "relay.Constant", 
      "attrs": {
        "_checked_type_": "1214", 
        "data": "167", 
        "span": "1213"
      }
    }, 
    {
      "type_key": "Span", 
      "attrs": {
        "column": "24", 
        "end_column": "45", 
        "end_line": "944", 
        "line": "944", 
        "source_name": "5"
      }
    }, 
    {
      "type_key": "relay.TensorType", 
      "attrs": {
        "dtype": "int32", 
        "shape": "1215", 
        "span": "0"
      }
    }, 
    {
      "type_key": "Array", 
      "data": [1216, 1217, 1218]
    }, 
    {
      "type_key": "IntImm", 
      "attrs": {
        "dtype": "int32", 
        "span": "0", 
        "value": "320"
      }
    }, 
    {
      "type_key": "IntImm", 
      "attrs": {
        "dtype": "int32", 
        "span": "0", 
        "value": "1"
      }
    }, 
    {
      "type_key": "IntImm", 
      "attrs": {
        "dtype": "int32", 
        "span": "0", 
        "value": "1"
      }
    }, 
    {
      "type_key": "relay.Constant", 
      "attrs": {
        "_checked_type_": "1221", 
        "data": "168", 
        "span": "1220"
      }
    }, 
    {
      "type_key": "Span", 
      "attrs": {
        "column": "30", 
        "end_column": "51", 
        "end_line": "955", 
        "line": "955", 
        "source_name": "5"
      }
    }, 
    {
      "type_key": "relay.TensorType", 
      "attrs": {
        "dtype": "int8", 
        "shape": "1222", 
        "span": "0"
      }
    }, 
    {
      "type_key": "Array", 
      "data": [1223, 1224, 1225, 1226]
    }, 
    {
      "type_key": "IntImm", 
      "attrs": {
        "dtype": "int32", 
        "span": "0", 
        "value": "1280"
      }
    }, 
    {
      "type_key": "IntImm", 
      "attrs": {
        "dtype": "int32", 
        "span": "0", 
        "value": "320"
      }
    }, 
    {
      "type_key": "IntImm", 
      "attrs": {
        "dtype": "int32", 
        "span": "0", 
        "value": "1"
      }
    }, 
    {
      "type_key": "IntImm", 
      "attrs": {
        "dtype": "int32", 
        "span": "0", 
        "value": "1"
      }
    }, 
    {
      "type_key": "relay.Constant", 
      "attrs": {
        "_checked_type_": "1229", 
        "data": "169", 
        "span": "1228"
      }
    }, 
    {
      "type_key": "Span", 
      "attrs": {
        "column": "30", 
        "end_column": "51", 
        "end_line": "962", 
        "line": "962", 
        "source_name": "5"
      }
    }, 
    {
      "type_key": "relay.TensorType", 
      "attrs": {
        "dtype": "int32", 
        "shape": "1230", 
        "span": "0"
      }
    }, 
    {
      "type_key": "Array", 
      "data": [1231, 1232, 1233]
    }, 
    {
      "type_key": "IntImm", 
      "attrs": {
        "dtype": "int32", 
        "span": "0", 
        "value": "1280"
      }
    }, 
    {
      "type_key": "IntImm", 
      "attrs": {
        "dtype": "int32", 
        "span": "0", 
        "value": "1"
      }
    }, 
    {
      "type_key": "IntImm", 
      "attrs": {
        "dtype": "int32", 
        "span": "0", 
        "value": "1"
      }
    }, 
    {
      "type_key": "relay.Constant", 
      "attrs": {
        "_checked_type_": "1236", 
        "data": "170", 
        "span": "1235"
      }
    }, 
    {
      "type_key": "Span", 
      "attrs": {
        "column": "24", 
        "end_column": "45", 
        "end_line": "964", 
        "line": "964", 
        "source_name": "5"
      }
    }, 
    {
      "type_key": "relay.TensorType", 
      "attrs": {
        "dtype": "int32", 
        "shape": "1237", 
        "span": "0"
      }
    }, 
    {
      "type_key": "Array", 
      "data": [1238, 1239, 1240]
    }, 
    {
      "type_key": "IntImm", 
      "attrs": {
        "dtype": "int32", 
        "span": "0", 
        "value": "1280"
      }
    }, 
    {
      "type_key": "IntImm", 
      "attrs": {
        "dtype": "int32", 
        "span": "0", 
        "value": "1"
      }
    }, 
    {
      "type_key": "IntImm", 
      "attrs": {
        "dtype": "int32", 
        "span": "0", 
        "value": "1"
      }
    }, 
    {
      "type_key": "relay.Constant", 
      "attrs": {
        "_checked_type_": "1243", 
        "data": "171", 
        "span": "1242"
      }
    }, 
    {
      "type_key": "Span", 
      "attrs": {
        "column": "29", 
        "end_column": "50", 
        "end_line": "975", 
        "line": "975", 
        "source_name": "5"
      }
    }, 
    {
      "type_key": "relay.TensorType", 
      "attrs": {
        "dtype": "int8", 
        "shape": "1244", 
        "span": "0"
      }
    }, 
    {
      "type_key": "Array", 
      "data": [1245, 1246]
    }, 
    {
      "type_key": "IntImm", 
      "attrs": {
        "dtype": "int32", 
        "span": "0", 
        "value": "10"
      }
    }, 
    {
      "type_key": "IntImm", 
      "attrs": {
        "dtype": "int32", 
        "span": "0", 
        "value": "1280"
      }
    }, 
    {
      "type_key": "relay.Constant", 
      "attrs": {
        "_checked_type_": "1249", 
        "data": "172", 
        "span": "1248"
      }
    }, 
    {
      "type_key": "Span", 
      "attrs": {
        "column": "24", 
        "end_column": "45", 
        "end_line": "976", 
        "line": "976", 
        "source_name": "5"
      }
    }, 
    {
      "type_key": "relay.TensorType", 
      "attrs": {
        "dtype": "int32", 
        "shape": "1250", 
        "span": "0"
      }
    }, 
    {
      "type_key": "Array", 
      "data": [1251]
    }, 
    {
      "type_key": "IntImm", 
      "attrs": {
        "dtype": "int32", 
        "span": "0", 
        "value": "10"
      }
    }
  ], 
  "b64ndarrays": [
    "…", 
    "…", 
    "…", 
    "…", 
    "…", 
    "…", 
    "…", 
    "…", 
    "…", 
    "…", 
    "P6G0lvBAXt0AAAAAAAAAAAEAAAAAAAAAAwAAAAAgAQAQAAAAAAAAAAEAAAAAAAAAAQAAAAAAAABAAAAAAAAAAAAAAABXAAAAAQAAAHIAAAAAAAAAAAAAAAEAAAAUAAAACwAAABkAAAA4AAAAAAAAAAAAAABzAAAAIwAAAAAAAAA=", 
    "P6G0lvBAXt0AAAAAAAAAAAEAAAAAAAAAAwAAAAAgAQAQAAAAAAAAAAEAAAAAAAAAAQAAAAAAAABAAAAAAAAAAAAAAAAcAAAAAAAAADAAAAAAAAAAAAAAAAAAAAABAAAAAQAAAP7///8GAAAAAAAAAAAAAACk////+P///wAAAAA=", 
    "…", 
    "P6G0lvBAXt0AAAAAAAAAAAEAAAAAAAAAAwAAAAAgAQAQAAAAAAAAAAEAAAAAAAAAAQAAAAAAAABAAAAAAAAAACwAAAAwAAAAMQAAABkAAAAxAAAAKQAAACwAAAAuAAAANAAAACoAAAA3AAAALwAAACgAAAA0AAAASgAAACkAAAA=", 
    "P6G0lvBAXt0AAAAAAAAAAAEAAAAAAAAAAwAAAAAgAQAQAAAAAAAAAAEAAAAAAAAAAQAAAAAAAABAAAAAAAAAAMH///9DAAAAWgAAAP3///8lAAAAEAAAAAsAAAAdAAAA0f///9L///8FAAAA1////woAAAD1////XAAAAAQAAAA=", 
    "…", 
    "…", 
    "…", 
    "…", 
    "…", 
    "…", 
    "…", 
    "…", 
    "…", 
    "…", 
    "…", 
    "…", 
    "…", 
    "…", 
    "…", 
    "…", 
    "…", 
    "…", 
    "…", 
    "…", 
    "…", 
    "…", 
    "…", 
    "…", 
    "…", 
    "…", 
    "…", 
    "…", 
    "…", 
    "…", 
    "…", 
    "…", 
    "…", 
    "…", 
    "…", 
    "…", 
    "…", 
    "…", 
    "…", 
    "…", 
    "…", 
    "…", 
    "…", 
    "…", 
    "…", 
    "…", 
    "…", 
    "…", 
    "…", 
    "…", 
    "…", 
    "…", 
    "…", 
    "…", 
    "…", 
    "…", 
    "…", 
    "…", 
    "…", 
    "…", 
    "…", 
    "…", 
    "…", 
    "…", 
    "…", 
    "…", 
    "…", 
    "…", 
    "…", 
    "…", 
    "…", 
    "…", 
    "…", 
    "…", 
    "…", 
    "…", 
    "…", 
    "…", 
    "…", 
    "…", 
    "…", 
    "…", 
    "…", 
    "…", 
    "…", 
    "…", 
    "…", 
    "…", 
    "…", 
    "…", 
    "…", 
    "…", 
    "…", 
    "…", 
    "…", 
    "…", 
    "…", 
    "…", 
    "…", 
    "…", 
    "…", 
    "…", 
    "…", 
    "…", 
    "…", 
    "…", 
    "…", 
    "…", 
    "…", 
    "…", 
    "…", 
    "…", 
    "…", 
    "…", 
    "…", 
    "…", 
    "…", 
    "…", 
    "…", 
    "…", 
    "…", 
    "…", 
    "…", 
    "…", 
    "…", 
    "…", 
    "…", 
    "…", 
    "…", 
    "…", 
    "…", 
    "…", 
    "…", 
    "…", 
    "…", 
    "…", 
    "…", 
    "…", 
    "…", 
    "…", 
    "…", 
    "…", 
    "…", 
    "…", 
    "…", 
    "…", 
    "…", 
    "…", 
    "…", 
    "…", 
    "…", 
    "…", 
    "…", 
    "…", 
    "…", 
    "…", 
    "…", 
    "P6G0lvBAXt0AAAAAAAAAAAEAAAAAAAAAAQAAAAAgAQAKAAAAAAAAACgAAAAAAAAA+v////r///8sAAAAqgAAADYAAACe////1P////r////M////yv///w=="
  ], 
  "attrs": {"tvm_version": "0.8.dev0"}
}