#[version = "0.0.5"]

def @main(%input_tensor_0: Tensor[(1, 3, 224, 224), float32] /* ty=Tensor[(1, 3, 224, 224), float32] span=from_string:8:18 */, %resnet_model_conv2d_44_kernel_read__251__cf__251_0: Tensor[(512, 1024, 1, 1), float32] /* ty=Tensor[(512, 1024, 1, 1), float32] span=from_string:154:26 */, %resnet_model_conv2d_43_Conv2D_bn_offset_0: Tensor[(2048), float32] /* ty=Tensor[(2048), float32] span=from_string:163:28 */, %resnet_model_conv2d_43_kernel_read__250__cf__250_0: Tensor[(2048, 1024, 1, 1), float32] /* ty=Tensor[(2048, 1024, 1, 1), float32] span=from_string:161:26 */, %resnet_model_conv2d_42_Conv2D_bn_offset_0: Tensor[(1024), float32] /* ty=Tensor[(1024), float32] span=from_string:151:28 */, %resnet_model_conv2d_42_kernel_read__249__cf__249_0: Tensor[(1024, 256, 1, 1), float32] /* ty=Tensor[(1024, 256, 1, 1), float32] span=from_string:150:26 */, %resnet_model_conv2d_41_Conv2D_bn_offset_0: Tensor[(256), float32] /* ty=Tensor[(256), float32] span=from_string:148:28 */, %resnet_model_conv2d_41_kernel_read__248__cf__248_0: Tensor[(256, 256, 3, 3), float32] /* ty=Tensor[(256, 256, 3, 3), float32] span=from_string:147:26 */, %resnet_model_conv2d_40_Conv2D_bn_offset_0: Tensor[(256), float32] /* ty=Tensor[(256), float32] span=from_string:145:28 */, %resnet_model_conv2d_40_kernel_read__247__cf__247_0: Tensor[(256, 1024, 1, 1), float32] /* ty=Tensor[(256, 1024, 1, 1), float32] span=from_string:144:26 */, %resnet_model_conv2d_39_Conv2D_bn_offset_0: Tensor[(1024), float32] /* ty=Tensor[(1024), float32] span=from_string:141:28 */, %resnet_model_conv2d_39_kernel_read__245__cf__245_0: Tensor[(1024, 256, 1, 1), float32] /* ty=Tensor[(1024, 256, 1, 1), float32] span=from_string:140:26 */, %resnet_model_conv2d_38_Conv2D_bn_offset_0: Tensor[(256), float32] /* ty=Tensor[(256), float32] span=from_string:138:28 */, %resnet_model_conv2d_38_kernel_read__244__cf__244_0: Tensor[(256, 256, 3, 3), float32] /* ty=Tensor[(256, 256, 3, 3), float32] span=from_string:137:26 */, %resnet_model_conv2d_37_Conv2D_bn_offset_0: Tensor[(256), float32] /* ty=Tensor[(256), float32] span=from_string:135:28 */, %resnet_model_conv2d_37_kernel_read__243__cf__243_0: Tensor[(256, 1024, 1, 1), float32] /* ty=Tensor[(256, 1024, 1, 1), float32] span=from_string:134:26 */, %resnet_model_conv2d_36_Conv2D_bn_offset_0: Tensor[(1024), float32] /* ty=Tensor[(1024), float32] span=from_string:131:28 */, %resnet_model_conv2d_36_kernel_read__242__cf__242_0: Tensor[(1024, 256, 1, 1), float32] /* ty=Tensor[(1024, 256, 1, 1), float32] span=from_string:130:26 */, %resnet_model_conv2d_35_Conv2D_bn_offset_0: Tensor[(256), float32] /* ty=Tensor[(256), float32] span=from_string:128:28 */, %resnet_model_conv2d_35_kernel_read__241__cf__241_0: Tensor[(256, 256, 3, 3), float32] /* ty=Tensor[(256, 256, 3, 3), float32] span=from_string:127:26 */, %resnet_model_conv2d_34_Conv2D_bn_offset_0: Tensor[(256), float32] /* ty=Tensor[(256), float32] span=from_string:125:28 */, %resnet_model_conv2d_34_kernel_read__240__cf__240_0: Tensor[(256, 1024, 1, 1), float32] /* ty=Tensor[(256, 1024, 1, 1), float32] span=from_string:124:26 */, %resnet_model_dense_kernel_read__266__cf__266_0: Tensor[(2048, 1001), float32] /* ty=Tensor[(2048, 1001), float32] span=from_string:189:20 */, %resnet_model_conv2d_33_Conv2D_bn_offset_0: Tensor[(1024), float32] /* ty=Tensor[(1024), float32] span=from_string:121:28 */, %resnet_model_dense_bias_read__265__cf__265_0: Tensor[(1001), float32] /* ty=Tensor[(1001), float32] span=from_string:191:20 */, %resnet_model_conv2d_kernel_read__212__cf__212_0: Tensor[(64, 3, 7, 7), float32] /* ty=Tensor[(64, 3, 7, 7), float32] span=from_string:8:37 */, %resnet_model_conv2d_33_kernel_read__239__cf__239_0: Tensor[(1024, 256, 1, 1), float32] /* ty=Tensor[(1024, 256, 1, 1), float32] span=from_string:120:26 */, %resnet_model_conv2d_21_Conv2D_bn_offset_0: Tensor[(128), float32] /* ty=Tensor[(128), float32] span=from_string:83:26 */, %resnet_model_conv2d_21_kernel_read__226__cf__226_0: Tensor[(128, 512, 1, 1), float32] /* ty=Tensor[(128, 512, 1, 1), float32] span=from_string:82:24 */, %resnet_model_conv2d_20_Conv2D_bn_offset_0: Tensor[(512), float32] /* ty=Tensor[(512), float32] span=from_string:79:26 */, %resnet_model_conv2d_20_kernel_read__225__cf__225_0: Tensor[(512, 128, 1, 1), float32] /* ty=Tensor[(512, 128, 1, 1), float32] span=from_string:78:24 */, %resnet_model_conv2d_19_Conv2D_bn_offset_0: Tensor[(128), float32] /* ty=Tensor[(128), float32] span=from_string:76:26 */, %resnet_model_conv2d_19_kernel_read__223__cf__223_0: Tensor[(128, 128, 3, 3), float32] /* ty=Tensor[(128, 128, 3, 3), float32] span=from_string:75:24 */, %resnet_model_conv2d_18_Conv2D_bn_offset_0: Tensor[(128), float32] /* ty=Tensor[(128), float32] span=from_string:73:26 */, %resnet_model_conv2d_18_kernel_read__222__cf__222_0: Tensor[(128, 512, 1, 1), float32] /* ty=Tensor[(128, 512, 1, 1), float32] span=from_string:72:24 */, %resnet_model_conv2d_17_Conv2D_bn_offset_0: Tensor[(512), float32] /* ty=Tensor[(512), float32] span=from_string:69:26 */, %resnet_model_conv2d_17_kernel_read__221__cf__221_0: Tensor[(512, 128, 1, 1), float32] /* ty=Tensor[(512, 128, 1, 1), float32] span=from_string:68:24 */, %resnet_model_conv2d_16_Conv2D_bn_offset_0: Tensor[(128), float32] /* ty=Tensor[(128), float32] span=from_string:66:26 */, %resnet_model_conv2d_16_kernel_read__220__cf__220_0: Tensor[(128, 128, 3, 3), float32] /* ty=Tensor[(128, 128, 3, 3), float32] span=from_string:65:24 */, %resnet_model_conv2d_15_Conv2D_bn_offset_0: Tensor[(128), float32] /* ty=Tensor[(128), float32] span=from_string:63:26 */, %resnet_model_conv2d_15_kernel_read__219__cf__219_0: Tensor[(128, 512, 1, 1), float32] /* ty=Tensor[(128, 512, 1, 1), float32] span=from_string:62:24 */, %resnet_model_conv2d_14_Conv2D_bn_offset_0: Tensor[(512), float32] /* ty=Tensor[(512), float32] span=from_string:58:26 */, %resnet_model_conv2d_14_kernel_read__218__cf__218_0: Tensor[(512, 128, 1, 1), float32] /* ty=Tensor[(512, 128, 1, 1), float32] span=from_string:56:24 */, %resnet_model_conv2d_13_Conv2D_bn_offset_0: Tensor[(128), float32] /* ty=Tensor[(128), float32] span=from_string:54:26 */, %resnet_model_conv2d_13_kernel_read__217__cf__217_0: Tensor[(128, 128, 3, 3), float32] /* ty=Tensor[(128, 128, 3, 3), float32] span=from_string:53:24 */, %resnet_model_conv2d_12_Conv2D_bn_offset_0: Tensor[(128), float32] /* ty=Tensor[(128), float32] span=from_string:51:26 */, %resnet_model_conv2d_12_kernel_read__216__cf__216_0: Tensor[(128, 256, 1, 1), float32] /* ty=Tensor[(128, 256, 1, 1), float32] span=from_string:50:24 */, %resnet_model_conv2d_11_Conv2D_bn_offset_0: Tensor[(512), float32] /* ty=Tensor[(512), float32] span=from_string:59:26 */, %reshape__269__270: Tensor[(4), int64] /* ty=Tensor[(4), int64] */, %resnet_model_conv2d_11_kernel_read__215__cf__215_0: Tensor[(512, 256, 1, 1), float32] /* ty=Tensor[(512, 256, 1, 1), float32] span=from_string:57:24 */, %resnet_model_conv2d_32_Conv2D_bn_offset_0: Tensor[(256), float32] /* ty=Tensor[(256), float32] span=from_string:118:28 */, %resnet_model_conv2d_32_kernel_read__238__cf__238_0: Tensor[(256, 256, 3, 3), float32] /* ty=Tensor[(256, 256, 3, 3), float32] span=from_string:117:26 */, %resnet_model_conv2d_31_Conv2D_bn_offset_0: Tensor[(256), float32] /* ty=Tensor[(256), float32] span=from_string:115:28 */, %resnet_model_conv2d_31_kernel_read__237__cf__237_0: Tensor[(256, 1024, 1, 1), float32] /* ty=Tensor[(256, 1024, 1, 1), float32] span=from_string:114:26 */, %resnet_model_conv2d_30_Conv2D_bn_offset_0: Tensor[(1024), float32] /* ty=Tensor[(1024), float32] span=from_string:111:28 */, %resnet_model_conv2d_30_kernel_read__236__cf__236_0: Tensor[(1024, 256, 1, 1), float32] /* ty=Tensor[(1024, 256, 1, 1), float32] span=from_string:110:26 */, %resnet_model_conv2d_29_Conv2D_bn_offset_0: Tensor[(256), float32] /* ty=Tensor[(256), float32] span=from_string:108:28 */, %resnet_model_conv2d_29_kernel_read__234__cf__234_0: Tensor[(256, 256, 3, 3), float32] /* ty=Tensor[(256, 256, 3, 3), float32] span=from_string:107:26 */, %resnet_model_conv2d_28_Conv2D_bn_offset_0: Tensor[(256), float32] /* ty=Tensor[(256), float32] span=from_string:105:28 */, %resnet_model_conv2d_28_kernel_read__233__cf__233_0: Tensor[(256, 1024, 1, 1), float32] /* ty=Tensor[(256, 1024, 1, 1), float32] span=from_string:104:25 */, %resnet_model_conv2d_27_Conv2D_bn_offset_0: Tensor[(1024), float32] /* ty=Tensor[(1024), float32] span=from_string:100:26 */, %resnet_model_conv2d_27_kernel_read__232__cf__232_0: Tensor[(1024, 256, 1, 1), float32] /* ty=Tensor[(1024, 256, 1, 1), float32] span=from_string:98:24 */, %resnet_model_conv2d_26_Conv2D_bn_offset_0: Tensor[(256), float32] /* ty=Tensor[(256), float32] span=from_string:96:26 */, %resnet_model_conv2d_26_kernel_read__231__cf__231_0: Tensor[(256, 256, 3, 3), float32] /* ty=Tensor[(256, 256, 3, 3), float32] span=from_string:95:24 */, %resnet_model_conv2d_25_Conv2D_bn_offset_0: Tensor[(256), float32] /* ty=Tensor[(256), float32] span=from_string:93:26 */, %resnet_model_conv2d_25_kernel_read__230__cf__230_0: Tensor[(256, 512, 1, 1), float32] /* ty=Tensor[(256, 512, 1, 1), float32] span=from_string:92:24 */, %resnet_model_conv2d_24_Conv2D_bn_offset_0: Tensor[(1024), float32] /* ty=Tensor[(1024), float32] span=from_string:101:26 */, %resnet_model_conv2d_24_kernel_read__229__cf__229_0: Tensor[(1024, 512, 1, 1), float32] /* ty=Tensor[(1024, 512, 1, 1), float32] span=from_string:99:24 */, %resnet_model_conv2d_23_Conv2D_bn_offset_0: Tensor[(512), float32] /* ty=Tensor[(512), float32] span=from_string:89:26 */, %resnet_model_conv2d_23_kernel_read__228__cf__228_0: Tensor[(512, 128, 1, 1), float32] /* ty=Tensor[(512, 128, 1, 1), float32] span=from_string:88:24 */, %resnet_model_conv2d_22_Conv2D_bn_offset_0: Tensor[(128), float32] /* ty=Tensor[(128), float32] span=from_string:86:26 */, %resnet_model_conv2d_22_kernel_read__227__cf__227_0: Tensor[(128, 128, 3, 3), float32] /* ty=Tensor[(128, 128, 3, 3), float32] span=from_string:85:24 */, %resnet_model_batch_normalization_moving_variance_read__3__cf__3_0: Tensor[(64), float32] /* ty=Tensor[(64), float32] span=from_string:4:12 */, %resnet_model_conv2d_10_Conv2D_bn_offset_0: Tensor[(256), float32] /* ty=Tensor[(256), float32] span=from_string:47:26 */, %resnet_model_batch_normalization_moving_mean_read__2__cf__2_0: Tensor[(64), float32] /* ty=Tensor[(64), float32] span=from_string:10:17 */, %resnet_model_conv2d_10_kernel_read__214__cf__214_0: Tensor[(256, 64, 1, 1), float32] /* ty=Tensor[(256, 64, 1, 1), float32] span=from_string:46:24 */, %resnet_model_batch_normalization_gamma_read__1__cf__1_0: Tensor[(64), float32] /* ty=Tensor[(64), float32] span=from_string:7:22 */, %resnet_model_conv2d_9_Conv2D_bn_offset_0: Tensor[(64), float32] /* ty=Tensor[(64), float32] span=from_string:44:26 */, %resnet_model_batch_normalization_beta_read__0__cf__0_0: Tensor[(64), float32] /* ty=Tensor[(64), float32] span=from_string:12:16 */, %resnet_model_conv2d_9_kernel_read__264__cf__264_0: Tensor[(64, 64, 3, 3), float32] /* ty=Tensor[(64, 64, 3, 3), float32] span=from_string:43:24 */, %resnet_model_conv2d_8_Conv2D_bn_offset_0: Tensor[(64), float32] /* ty=Tensor[(64), float32] span=from_string:41:26 */, %resnet_model_conv2d_8_kernel_read__263__cf__263_0: Tensor[(64, 256, 1, 1), float32] /* ty=Tensor[(64, 256, 1, 1), float32] span=from_string:40:24 */, %resnet_model_conv2d_7_Conv2D_bn_offset_0: Tensor[(256), float32] /* ty=Tensor[(256), float32] span=from_string:37:26 */, %resnet_model_conv2d_52_Conv2D_bn_offset_0: Tensor[(2048), float32] /* ty=Tensor[(2048), float32] span=from_string:183:28 */, %resnet_model_conv2d_7_kernel_read__262__cf__262_0: Tensor[(256, 64, 1, 1), float32] /* ty=Tensor[(256, 64, 1, 1), float32] span=from_string:36:24 */, %resnet_model_conv2d_52_kernel_read__260__cf__260_0: Tensor[(2048, 512, 1, 1), float32] /* ty=Tensor[(2048, 512, 1, 1), float32] span=from_string:182:26 */, %resnet_model_conv2d_6_Conv2D_bn_offset_0: Tensor[(64), float32] /* ty=Tensor[(64), float32] span=from_string:34:26 */, %resnet_model_conv2d_51_Conv2D_bn_offset_0: Tensor[(512), float32] /* ty=Tensor[(512), float32] span=from_string:180:28 */, %resnet_model_conv2d_6_kernel_read__261__cf__261_0: Tensor[(64, 64, 3, 3), float32] /* ty=Tensor[(64, 64, 3, 3), float32] span=from_string:33:24 */, %resnet_model_conv2d_51_kernel_read__259__cf__259_0: Tensor[(512, 512, 3, 3), float32] /* ty=Tensor[(512, 512, 3, 3), float32] span=from_string:179:26 */, %resnet_model_conv2d_5_Conv2D_bn_offset_0: Tensor[(64), float32] /* ty=Tensor[(64), float32] span=from_string:31:26 */, %resnet_model_conv2d_50_Conv2D_bn_offset_0: Tensor[(512), float32] /* ty=Tensor[(512), float32] span=from_string:177:28 */, %resnet_model_conv2d_5_kernel_read__257__cf__257_0: Tensor[(64, 256, 1, 1), float32] /* ty=Tensor[(64, 256, 1, 1), float32] span=from_string:30:24 */, %resnet_model_conv2d_50_kernel_read__258__cf__258_0: Tensor[(512, 2048, 1, 1), float32] /* ty=Tensor[(512, 2048, 1, 1), float32] span=from_string:176:26 */, %resnet_model_conv2d_4_Conv2D_bn_offset_0: Tensor[(256), float32] /* ty=Tensor[(256), float32] span=from_string:26:26 */, %resnet_model_conv2d_49_Conv2D_bn_offset_0: Tensor[(2048), float32] /* ty=Tensor[(2048), float32] span=from_string:173:28 */, %resnet_model_conv2d_4_kernel_read__246__cf__246_0: Tensor[(256, 64, 1, 1), float32] /* ty=Tensor[(256, 64, 1, 1), float32] span=from_string:24:24 */, %resnet_model_conv2d_49_kernel_read__256__cf__256_0: Tensor[(2048, 512, 1, 1), float32] /* ty=Tensor[(2048, 512, 1, 1), float32] span=from_string:172:26 */, %resnet_model_conv2d_3_Conv2D_bn_offset_0: Tensor[(64), float32] /* ty=Tensor[(64), float32] span=from_string:22:26 */, %resnet_model_conv2d_48_Conv2D_bn_offset_0: Tensor[(512), float32] /* ty=Tensor[(512), float32] span=from_string:170:28 */, %resnet_model_conv2d_3_kernel_read__235__cf__235_0: Tensor[(64, 64, 3, 3), float32] /* ty=Tensor[(64, 64, 3, 3), float32] span=from_string:21:24 */, %resnet_model_conv2d_48_kernel_read__255__cf__255_0: Tensor[(512, 512, 3, 3), float32] /* ty=Tensor[(512, 512, 3, 3), float32] span=from_string:169:26 */, %resnet_model_conv2d_2_Conv2D_bn_offset_0: Tensor[(64), float32] /* ty=Tensor[(64), float32] span=from_string:19:26 */, %resnet_model_conv2d_47_Conv2D_bn_offset_0: Tensor[(512), float32] /* ty=Tensor[(512), float32] span=from_string:167:28 */, %resnet_model_conv2d_2_kernel_read__224__cf__224_0: Tensor[(64, 64, 1, 1), float32] /* ty=Tensor[(64, 64, 1, 1), float32] span=from_string:18:24 */, %resnet_model_conv2d_47_kernel_read__254__cf__254_0: Tensor[(512, 2048, 1, 1), float32] /* ty=Tensor[(512, 2048, 1, 1), float32] span=from_string:166:26 */, %resnet_model_conv2d_1_Conv2D_bn_offset_0: Tensor[(256), float32] /* ty=Tensor[(256), float32] span=from_string:27:26 */, %resnet_model_conv2d_46_Conv2D_bn_offset_0: Tensor[(2048), float32] /* ty=Tensor[(2048), float32] span=from_string:162:28 */, %resnet_model_conv2d_1_kernel_read__213__cf__213_0: Tensor[(256, 64, 1, 1), float32] /* ty=Tensor[(256, 64, 1, 1), float32] span=from_string:25:24 */, %resnet_model_conv2d_46_kernel_read__253__cf__253_0: Tensor[(2048, 512, 1, 1), float32] /* ty=Tensor[(2048, 512, 1, 1), float32] span=from_string:160:26 */, %resnet_model_conv2d_45_Conv2D_bn_offset_0: Tensor[(512), float32] /* ty=Tensor[(512), float32] span=from_string:158:28 */, %resnet_model_conv2d_45_kernel_read__252__cf__252_0: Tensor[(512, 512, 3, 3), float32] /* ty=Tensor[(512, 512, 3, 3), float32] span=from_string:157:26 */, %resnet_model_conv2d_44_Conv2D_bn_offset_0: Tensor[(512), float32] /* ty=Tensor[(512), float32] span=from_string:155:28 */) -> (Tensor[(1), int64], Tensor[(1, 1001), float32]) {
  %0 = add(%resnet_model_batch_normalization_moving_variance_read__3__cf__3_0, 1.001e-05f /* ty=float32 span=from_string:4:90 */) /* ty=Tensor[(64), float32] span=from_string:5:13 */;
  %1 = sqrt(%0) /* ty=Tensor[(64), float32] span=from_string:6:36 */;
  %2 = divide(1f /* ty=float32 span=from_string:6:17 */, %1) /* ty=Tensor[(64), float32] span=from_string:7:18 */;
  %3 = multiply(%2, %resnet_model_batch_normalization_gamma_read__1__cf__1_0) /* ty=Tensor[(64), float32] span=from_string:11:22 */;
  %4 = nn.conv2d(%input_tensor_0, %resnet_model_conv2d_kernel_read__212__cf__212_0, strides=[2, 2], padding=[3, 3, 3, 3], channels=64, kernel_size=[7, 7]) /* ty=Tensor[(1, 64, 112, 112), float32] span=from_string:13:18 */;
  %5 = expand_dims(%3, axis=1, num_newaxis=2) /* ty=Tensor[(64, 1, 1), float32] span=from_string:13:22 */;
  %6 = negative(%resnet_model_batch_normalization_moving_mean_read__2__cf__2_0) /* ty=Tensor[(64), float32] span=from_string:11:18 */;
  %7 = multiply(%6, %3) /* ty=Tensor[(64), float32] span=from_string:12:12 */;
  %8 = add(%7, %resnet_model_batch_normalization_beta_read__0__cf__0_0) /* ty=Tensor[(64), float32] span=from_string:14:21 */;
  %9 = multiply(%4, %5) /* ty=Tensor[(1, 64, 112, 112), float32] span=from_string:15:13 */;
  %10 = expand_dims(%8, axis=1, num_newaxis=2) /* ty=Tensor[(64, 1, 1), float32] span=from_string:15:17 */;
  %11 = add(%9, %10) /* ty=Tensor[(1, 64, 112, 112), float32] span=from_string:16:17 */;
  %12 = nn.relu(%11) /* ty=Tensor[(1, 64, 112, 112), float32] span=from_string:17:24 */;
  %13 = nn.max_pool2d(%12, pool_size=[3, 3], strides=[2, 2], padding=[0, 0, 1, 1]) /* ty=Tensor[(1, 64, 56, 56), float32] span=from_string:25:19 */;
  %14 = nn.conv2d(%13, %resnet_model_conv2d_2_kernel_read__224__cf__224_0, padding=[0, 0, 0, 0], channels=64, kernel_size=[1, 1]) /* ty=Tensor[(1, 64, 56, 56), float32] span=from_string:19:21 */;
  %15 = nn.bias_add(%14, %resnet_model_conv2d_2_Conv2D_bn_offset_0) /* ty=Tensor[(1, 64, 56, 56), float32] span=from_string:20:17 */;
  %16 = nn.relu(%15) /* ty=Tensor[(1, 64, 56, 56), float32] span=from_string:21:19 */;
  %17 = nn.conv2d(%16, %resnet_model_conv2d_3_kernel_read__235__cf__235_0, padding=[1, 1, 1, 1], channels=64, kernel_size=[3, 3]) /* ty=Tensor[(1, 64, 56, 56), float32] span=from_string:22:21 */;
  %18 = nn.bias_add(%17, %resnet_model_conv2d_3_Conv2D_bn_offset_0) /* ty=Tensor[(1, 64, 56, 56), float32] span=from_string:23:17 */;
  %19 = nn.relu(%18) /* ty=Tensor[(1, 64, 56, 56), float32] span=from_string:24:19 */;
  %20 = nn.conv2d(%19, %resnet_model_conv2d_4_kernel_read__246__cf__246_0, padding=[0, 0, 0, 0], channels=256, kernel_size=[1, 1]) /* ty=Tensor[(1, 256, 56, 56), float32] span=from_string:26:21 */;
  %21 = nn.conv2d(%13, %resnet_model_conv2d_1_kernel_read__213__cf__213_0, padding=[0, 0, 0, 0], channels=256, kernel_size=[1, 1]) /* ty=Tensor[(1, 256, 56, 56), float32] span=from_string:27:21 */;
  %22 = nn.bias_add(%20, %resnet_model_conv2d_4_Conv2D_bn_offset_0) /* ty=Tensor[(1, 256, 56, 56), float32] span=from_string:28:13 */;
  %23 = nn.bias_add(%21, %resnet_model_conv2d_1_Conv2D_bn_offset_0) /* ty=Tensor[(1, 256, 56, 56), float32] span=from_string:28:18 */;
  %24 = add(%22, %23) /* ty=Tensor[(1, 256, 56, 56), float32] span=from_string:29:17 */;
  %25 = nn.relu(%24) /* ty=Tensor[(1, 256, 56, 56), float32] span=from_string:38:18 */;
  %26 = nn.conv2d(%25, %resnet_model_conv2d_5_kernel_read__257__cf__257_0, padding=[0, 0, 0, 0], channels=64, kernel_size=[1, 1]) /* ty=Tensor[(1, 64, 56, 56), float32] span=from_string:31:21 */;
  %27 = nn.bias_add(%26, %resnet_model_conv2d_5_Conv2D_bn_offset_0) /* ty=Tensor[(1, 64, 56, 56), float32] span=from_string:32:17 */;
  %28 = nn.relu(%27) /* ty=Tensor[(1, 64, 56, 56), float32] span=from_string:33:19 */;
  %29 = nn.conv2d(%28, %resnet_model_conv2d_6_kernel_read__261__cf__261_0, padding=[1, 1, 1, 1], channels=64, kernel_size=[3, 3]) /* ty=Tensor[(1, 64, 56, 56), float32] span=from_string:34:21 */;
  %30 = nn.bias_add(%29, %resnet_model_conv2d_6_Conv2D_bn_offset_0) /* ty=Tensor[(1, 64, 56, 56), float32] span=from_string:35:17 */;
  %31 = nn.relu(%30) /* ty=Tensor[(1, 64, 56, 56), float32] span=from_string:36:19 */;
  %32 = nn.conv2d(%31, %resnet_model_conv2d_7_kernel_read__262__cf__262_0, padding=[0, 0, 0, 0], channels=256, kernel_size=[1, 1]) /* ty=Tensor[(1, 256, 56, 56), float32] span=from_string:37:21 */;
  %33 = nn.bias_add(%32, %resnet_model_conv2d_7_Conv2D_bn_offset_0) /* ty=Tensor[(1, 256, 56, 56), float32] span=from_string:38:13 */;
  %34 = add(%33, %25) /* ty=Tensor[(1, 256, 56, 56), float32] span=from_string:39:17 */;
  %35 = nn.relu(%34) /* ty=Tensor[(1, 256, 56, 56), float32] span=from_string:48:18 */;
  %36 = nn.conv2d(%35, %resnet_model_conv2d_8_kernel_read__263__cf__263_0, padding=[0, 0, 0, 0], channels=64, kernel_size=[1, 1]) /* ty=Tensor[(1, 64, 56, 56), float32] span=from_string:41:21 */;
  %37 = nn.bias_add(%36, %resnet_model_conv2d_8_Conv2D_bn_offset_0) /* ty=Tensor[(1, 64, 56, 56), float32] span=from_string:42:17 */;
  %38 = nn.relu(%37) /* ty=Tensor[(1, 64, 56, 56), float32] span=from_string:43:19 */;
  %39 = nn.conv2d(%38, %resnet_model_conv2d_9_kernel_read__264__cf__264_0, padding=[1, 1, 1, 1], channels=64, kernel_size=[3, 3]) /* ty=Tensor[(1, 64, 56, 56), float32] span=from_string:44:21 */;
  %40 = nn.bias_add(%39, %resnet_model_conv2d_9_Conv2D_bn_offset_0) /* ty=Tensor[(1, 64, 56, 56), float32] span=from_string:45:17 */;
  %41 = nn.relu(%40) /* ty=Tensor[(1, 64, 56, 56), float32] span=from_string:46:19 */;
  %42 = nn.conv2d(%41, %resnet_model_conv2d_10_kernel_read__214__cf__214_0, padding=[0, 0, 0, 0], channels=256, kernel_size=[1, 1]) /* ty=Tensor[(1, 256, 56, 56), float32] span=from_string:47:21 */;
  %43 = nn.bias_add(%42, %resnet_model_conv2d_10_Conv2D_bn_offset_0) /* ty=Tensor[(1, 256, 56, 56), float32] span=from_string:48:13 */;
  %44 = add(%43, %35) /* ty=Tensor[(1, 256, 56, 56), float32] span=from_string:49:17 */;
  %45 = nn.relu(%44) /* ty=Tensor[(1, 256, 56, 56), float32] span=from_string:57:19 */;
  %46 = nn.conv2d(%45, %resnet_model_conv2d_12_kernel_read__216__cf__216_0, padding=[0, 0, 0, 0], channels=128, kernel_size=[1, 1]) /* ty=Tensor[(1, 128, 56, 56), float32] span=from_string:51:21 */;
  %47 = nn.bias_add(%46, %resnet_model_conv2d_12_Conv2D_bn_offset_0) /* ty=Tensor[(1, 128, 56, 56), float32] span=from_string:52:17 */;
  %48 = nn.relu(%47) /* ty=Tensor[(1, 128, 56, 56), float32] span=from_string:53:19 */;
  %49 = nn.conv2d(%48, %resnet_model_conv2d_13_kernel_read__217__cf__217_0, strides=[2, 2], padding=[1, 1, 1, 1], channels=128, kernel_size=[3, 3]) /* ty=Tensor[(1, 128, 28, 28), float32] span=from_string:54:21 */;
  %50 = nn.bias_add(%49, %resnet_model_conv2d_13_Conv2D_bn_offset_0) /* ty=Tensor[(1, 128, 28, 28), float32] span=from_string:55:17 */;
  %51 = nn.relu(%50) /* ty=Tensor[(1, 128, 28, 28), float32] span=from_string:56:19 */;
  %52 = nn.conv2d(%51, %resnet_model_conv2d_14_kernel_read__218__cf__218_0, padding=[0, 0, 0, 0], channels=512, kernel_size=[1, 1]) /* ty=Tensor[(1, 512, 28, 28), float32] span=from_string:58:21 */;
  %53 = nn.conv2d(%45, %resnet_model_conv2d_11_kernel_read__215__cf__215_0, strides=[2, 2], padding=[0, 0, 0, 0], channels=512, kernel_size=[1, 1]) /* ty=Tensor[(1, 512, 28, 28), float32] span=from_string:59:21 */;
  %54 = nn.bias_add(%52, %resnet_model_conv2d_14_Conv2D_bn_offset_0) /* ty=Tensor[(1, 512, 28, 28), float32] span=from_string:60:13 */;
  %55 = nn.bias_add(%53, %resnet_model_conv2d_11_Conv2D_bn_offset_0) /* ty=Tensor[(1, 512, 28, 28), float32] span=from_string:60:18 */;
  %56 = add(%54, %55) /* ty=Tensor[(1, 512, 28, 28), float32] span=from_string:61:17 */;
  %57 = nn.relu(%56) /* ty=Tensor[(1, 512, 28, 28), float32] span=from_string:70:18 */;
  %58 = nn.conv2d(%57, %resnet_model_conv2d_15_kernel_read__219__cf__219_0, padding=[0, 0, 0, 0], channels=128, kernel_size=[1, 1]) /* ty=Tensor[(1, 128, 28, 28), float32] span=from_string:63:21 */;
  %59 = nn.bias_add(%58, %resnet_model_conv2d_15_Conv2D_bn_offset_0) /* ty=Tensor[(1, 128, 28, 28), float32] span=from_string:64:17 */;
  %60 = nn.relu(%59) /* ty=Tensor[(1, 128, 28, 28), float32] span=from_string:65:19 */;
  %61 = nn.conv2d(%60, %resnet_model_conv2d_16_kernel_read__220__cf__220_0, padding=[1, 1, 1, 1], channels=128, kernel_size=[3, 3]) /* ty=Tensor[(1, 128, 28, 28), float32] span=from_string:66:21 */;
  %62 = nn.bias_add(%61, %resnet_model_conv2d_16_Conv2D_bn_offset_0) /* ty=Tensor[(1, 128, 28, 28), float32] span=from_string:67:17 */;
  %63 = nn.relu(%62) /* ty=Tensor[(1, 128, 28, 28), float32] span=from_string:68:19 */;
  %64 = nn.conv2d(%63, %resnet_model_conv2d_17_kernel_read__221__cf__221_0, padding=[0, 0, 0, 0], channels=512, kernel_size=[1, 1]) /* ty=Tensor[(1, 512, 28, 28), float32] span=from_string:69:21 */;
  %65 = nn.bias_add(%64, %resnet_model_conv2d_17_Conv2D_bn_offset_0) /* ty=Tensor[(1, 512, 28, 28), float32] span=from_string:70:13 */;
  %66 = add(%65, %57) /* ty=Tensor[(1, 512, 28, 28), float32] span=from_string:71:17 */;
  %67 = nn.relu(%66) /* ty=Tensor[(1, 512, 28, 28), float32] span=from_string:80:18 */;
  %68 = nn.conv2d(%67, %resnet_model_conv2d_18_kernel_read__222__cf__222_0, padding=[0, 0, 0, 0], channels=128, kernel_size=[1, 1]) /* ty=Tensor[(1, 128, 28, 28), float32] span=from_string:73:21 */;
  %69 = nn.bias_add(%68, %resnet_model_conv2d_18_Conv2D_bn_offset_0) /* ty=Tensor[(1, 128, 28, 28), float32] span=from_string:74:17 */;
  %70 = nn.relu(%69) /* ty=Tensor[(1, 128, 28, 28), float32] span=from_string:75:19 */;
  %71 = nn.conv2d(%70, %resnet_model_conv2d_19_kernel_read__223__cf__223_0, padding=[1, 1, 1, 1], channels=128, kernel_size=[3, 3]) /* ty=Tensor[(1, 128, 28, 28), float32] span=from_string:76:21 */;
  %72 = nn.bias_add(%71, %resnet_model_conv2d_19_Conv2D_bn_offset_0) /* ty=Tensor[(1, 128, 28, 28), float32] span=from_string:77:17 */;
  %73 = nn.relu(%72) /* ty=Tensor[(1, 128, 28, 28), float32] span=from_string:78:19 */;
  %74 = nn.conv2d(%73, %resnet_model_conv2d_20_kernel_read__225__cf__225_0, padding=[0, 0, 0, 0], channels=512, kernel_size=[1, 1]) /* ty=Tensor[(1, 512, 28, 28), float32] span=from_string:79:21 */;
  %75 = nn.bias_add(%74, %resnet_model_conv2d_20_Conv2D_bn_offset_0) /* ty=Tensor[(1, 512, 28, 28), float32] span=from_string:80:13 */;
  %76 = add(%75, %67) /* ty=Tensor[(1, 512, 28, 28), float32] span=from_string:81:17 */;
  %77 = nn.relu(%76) /* ty=Tensor[(1, 512, 28, 28), float32] span=from_string:90:18 */;
  %78 = nn.conv2d(%77, %resnet_model_conv2d_21_kernel_read__226__cf__226_0, padding=[0, 0, 0, 0], channels=128, kernel_size=[1, 1]) /* ty=Tensor[(1, 128, 28, 28), float32] span=from_string:83:21 */;
  %79 = nn.bias_add(%78, %resnet_model_conv2d_21_Conv2D_bn_offset_0) /* ty=Tensor[(1, 128, 28, 28), float32] span=from_string:84:17 */;
  %80 = nn.relu(%79) /* ty=Tensor[(1, 128, 28, 28), float32] span=from_string:85:19 */;
  %81 = nn.conv2d(%80, %resnet_model_conv2d_22_kernel_read__227__cf__227_0, padding=[1, 1, 1, 1], channels=128, kernel_size=[3, 3]) /* ty=Tensor[(1, 128, 28, 28), float32] span=from_string:86:21 */;
  %82 = nn.bias_add(%81, %resnet_model_conv2d_22_Conv2D_bn_offset_0) /* ty=Tensor[(1, 128, 28, 28), float32] span=from_string:87:17 */;
  %83 = nn.relu(%82) /* ty=Tensor[(1, 128, 28, 28), float32] span=from_string:88:19 */;
  %84 = nn.conv2d(%83, %resnet_model_conv2d_23_kernel_read__228__cf__228_0, padding=[0, 0, 0, 0], channels=512, kernel_size=[1, 1]) /* ty=Tensor[(1, 512, 28, 28), float32] span=from_string:89:21 */;
  %85 = nn.bias_add(%84, %resnet_model_conv2d_23_Conv2D_bn_offset_0) /* ty=Tensor[(1, 512, 28, 28), float32] span=from_string:90:13 */;
  %86 = add(%85, %77) /* ty=Tensor[(1, 512, 28, 28), float32] span=from_string:91:17 */;
  %87 = nn.relu(%86) /* ty=Tensor[(1, 512, 28, 28), float32] span=from_string:99:19 */;
  %88 = nn.conv2d(%87, %resnet_model_conv2d_25_kernel_read__230__cf__230_0, padding=[0, 0, 0, 0], channels=256, kernel_size=[1, 1]) /* ty=Tensor[(1, 256, 28, 28), float32] span=from_string:93:21 */;
  %89 = nn.bias_add(%88, %resnet_model_conv2d_25_Conv2D_bn_offset_0) /* ty=Tensor[(1, 256, 28, 28), float32] span=from_string:94:17 */;
  %90 = nn.relu(%89) /* ty=Tensor[(1, 256, 28, 28), float32] span=from_string:95:19 */;
  %91 = nn.conv2d(%90, %resnet_model_conv2d_26_kernel_read__231__cf__231_0, strides=[2, 2], padding=[1, 1, 1, 1], channels=256, kernel_size=[3, 3]) /* ty=Tensor[(1, 256, 14, 14), float32] span=from_string:96:21 */;
  %92 = nn.bias_add(%91, %resnet_model_conv2d_26_Conv2D_bn_offset_0) /* ty=Tensor[(1, 256, 14, 14), float32] span=from_string:97:17 */;
  %93 = nn.relu(%92) /* ty=Tensor[(1, 256, 14, 14), float32] span=from_string:98:19 */;
  %94 = nn.conv2d(%93, %resnet_model_conv2d_27_kernel_read__232__cf__232_0, padding=[0, 0, 0, 0], channels=1024, kernel_size=[1, 1]) /* ty=Tensor[(1, 1024, 14, 14), float32] span=from_string:100:21 */;
  %95 = nn.conv2d(%87, %resnet_model_conv2d_24_kernel_read__229__cf__229_0, strides=[2, 2], padding=[0, 0, 0, 0], channels=1024, kernel_size=[1, 1]) /* ty=Tensor[(1, 1024, 14, 14), float32] span=from_string:101:21 */;
  %96 = nn.bias_add(%94, %resnet_model_conv2d_27_Conv2D_bn_offset_0) /* ty=Tensor[(1, 1024, 14, 14), float32] span=from_string:102:13 */;
  %97 = nn.bias_add(%95, %resnet_model_conv2d_24_Conv2D_bn_offset_0) /* ty=Tensor[(1, 1024, 14, 14), float32] span=from_string:102:18 */;
  %98 = add(%96, %97) /* ty=Tensor[(1, 1024, 14, 14), float32] span=from_string:103:17 */;
  %99 = nn.relu(%98) /* ty=Tensor[(1, 1024, 14, 14), float32] span=from_string:112:20 */;
  %100 = nn.conv2d(%99, %resnet_model_conv2d_28_kernel_read__233__cf__233_0, padding=[0, 0, 0, 0], channels=256, kernel_size=[1, 1]) /* ty=Tensor[(1, 256, 14, 14), float32] span=from_string:105:22 */;
  %101 = nn.bias_add(%100, %resnet_model_conv2d_28_Conv2D_bn_offset_0) /* ty=Tensor[(1, 256, 14, 14), float32] span=from_string:106:18 */;
  %102 = nn.relu(%101) /* ty=Tensor[(1, 256, 14, 14), float32] span=from_string:107:20 */;
  %103 = nn.conv2d(%102, %resnet_model_conv2d_29_kernel_read__234__cf__234_0, padding=[1, 1, 1, 1], channels=256, kernel_size=[3, 3]) /* ty=Tensor[(1, 256, 14, 14), float32] span=from_string:108:22 */;
  %104 = nn.bias_add(%103, %resnet_model_conv2d_29_Conv2D_bn_offset_0) /* ty=Tensor[(1, 256, 14, 14), float32] span=from_string:109:18 */;
  %105 = nn.relu(%104) /* ty=Tensor[(1, 256, 14, 14), float32] span=from_string:110:20 */;
  %106 = nn.conv2d(%105, %resnet_model_conv2d_30_kernel_read__236__cf__236_0, padding=[0, 0, 0, 0], channels=1024, kernel_size=[1, 1]) /* ty=Tensor[(1, 1024, 14, 14), float32] span=from_string:111:22 */;
  %107 = nn.bias_add(%106, %resnet_model_conv2d_30_Conv2D_bn_offset_0) /* ty=Tensor[(1, 1024, 14, 14), float32] span=from_string:112:14 */;
  %108 = add(%107, %99) /* ty=Tensor[(1, 1024, 14, 14), float32] span=from_string:113:18 */;
  %109 = nn.relu(%108) /* ty=Tensor[(1, 1024, 14, 14), float32] span=from_string:122:20 */;
  %110 = nn.conv2d(%109, %resnet_model_conv2d_31_kernel_read__237__cf__237_0, padding=[0, 0, 0, 0], channels=256, kernel_size=[1, 1]) /* ty=Tensor[(1, 256, 14, 14), float32] span=from_string:115:22 */;
  %111 = nn.bias_add(%110, %resnet_model_conv2d_31_Conv2D_bn_offset_0) /* ty=Tensor[(1, 256, 14, 14), float32] span=from_string:116:18 */;
  %112 = nn.relu(%111) /* ty=Tensor[(1, 256, 14, 14), float32] span=from_string:117:20 */;
  %113 = nn.conv2d(%112, %resnet_model_conv2d_32_kernel_read__238__cf__238_0, padding=[1, 1, 1, 1], channels=256, kernel_size=[3, 3]) /* ty=Tensor[(1, 256, 14, 14), float32] span=from_string:118:22 */;
  %114 = nn.bias_add(%113, %resnet_model_conv2d_32_Conv2D_bn_offset_0) /* ty=Tensor[(1, 256, 14, 14), float32] span=from_string:119:18 */;
  %115 = nn.relu(%114) /* ty=Tensor[(1, 256, 14, 14), float32] span=from_string:120:20 */;
  %116 = nn.conv2d(%115, %resnet_model_conv2d_33_kernel_read__239__cf__239_0, padding=[0, 0, 0, 0], channels=1024, kernel_size=[1, 1]) /* ty=Tensor[(1, 1024, 14, 14), float32] span=from_string:121:22 */;
  %117 = nn.bias_add(%116, %resnet_model_conv2d_33_Conv2D_bn_offset_0) /* ty=Tensor[(1, 1024, 14, 14), float32] span=from_string:122:14 */;
  %118 = add(%117, %109) /* ty=Tensor[(1, 1024, 14, 14), float32] span=from_string:123:18 */;
  %119 = nn.relu(%118) /* ty=Tensor[(1, 1024, 14, 14), float32] span=from_string:132:20 */;
  %120 = nn.conv2d(%119, %resnet_model_conv2d_34_kernel_read__240__cf__240_0, padding=[0, 0, 0, 0], channels=256, kernel_size=[1, 1]) /* ty=Tensor[(1, 256, 14, 14), float32] span=from_string:125:22 */;
  %121 = nn.bias_add(%120, %resnet_model_conv2d_34_Conv2D_bn_offset_0) /* ty=Tensor[(1, 256, 14, 14), float32] span=from_string:126:18 */;
  %122 = nn.relu(%121) /* ty=Tensor[(1, 256, 14, 14), float32] span=from_string:127:20 */;
  %123 = nn.conv2d(%122, %resnet_model_conv2d_35_kernel_read__241__cf__241_0, padding=[1, 1, 1, 1], channels=256, kernel_size=[3, 3]) /* ty=Tensor[(1, 256, 14, 14), float32] span=from_string:128:22 */;
  %124 = nn.bias_add(%123, %resnet_model_conv2d_35_Conv2D_bn_offset_0) /* ty=Tensor[(1, 256, 14, 14), float32] span=from_string:129:18 */;
  %125 = nn.relu(%124) /* ty=Tensor[(1, 256, 14, 14), float32] span=from_string:130:20 */;
  %126 = nn.conv2d(%125, %resnet_model_conv2d_36_kernel_read__242__cf__242_0, padding=[0, 0, 0, 0], channels=1024, kernel_size=[1, 1]) /* ty=Tensor[(1, 1024, 14, 14), float32] span=from_string:131:22 */;
  %127 = nn.bias_add(%126, %resnet_model_conv2d_36_Conv2D_bn_offset_0) /* ty=Tensor[(1, 1024, 14, 14), float32] span=from_string:132:14 */;
  %128 = add(%127, %119) /* ty=Tensor[(1, 1024, 14, 14), float32] span=from_string:133:18 */;
  %129 = nn.relu(%128) /* ty=Tensor[(1, 1024, 14, 14), float32] span=from_string:142:20 */;
  %130 = nn.conv2d(%129, %resnet_model_conv2d_37_kernel_read__243__cf__243_0, padding=[0, 0, 0, 0], channels=256, kernel_size=[1, 1]) /* ty=Tensor[(1, 256, 14, 14), float32] span=from_string:135:22 */;
  %131 = nn.bias_add(%130, %resnet_model_conv2d_37_Conv2D_bn_offset_0) /* ty=Tensor[(1, 256, 14, 14), float32] span=from_string:136:18 */;
  %132 = nn.relu(%131) /* ty=Tensor[(1, 256, 14, 14), float32] span=from_string:137:20 */;
  %133 = nn.conv2d(%132, %resnet_model_conv2d_38_kernel_read__244__cf__244_0, padding=[1, 1, 1, 1], channels=256, kernel_size=[3, 3]) /* ty=Tensor[(1, 256, 14, 14), float32] span=from_string:138:22 */;
  %134 = nn.bias_add(%133, %resnet_model_conv2d_38_Conv2D_bn_offset_0) /* ty=Tensor[(1, 256, 14, 14), float32] span=from_string:139:18 */;
  %135 = nn.relu(%134) /* ty=Tensor[(1, 256, 14, 14), float32] span=from_string:140:20 */;
  %136 = nn.conv2d(%135, %resnet_model_conv2d_39_kernel_read__245__cf__245_0, padding=[0, 0, 0, 0], channels=1024, kernel_size=[1, 1]) /* ty=Tensor[(1, 1024, 14, 14), float32] span=from_string:141:22 */;
  %137 = nn.bias_add(%136, %resnet_model_conv2d_39_Conv2D_bn_offset_0) /* ty=Tensor[(1, 1024, 14, 14), float32] span=from_string:142:14 */;
  %138 = add(%137, %129) /* ty=Tensor[(1, 1024, 14, 14), float32] span=from_string:143:18 */;
  %139 = nn.relu(%138) /* ty=Tensor[(1, 1024, 14, 14), float32] span=from_string:152:20 */;
  %140 = nn.conv2d(%139, %resnet_model_conv2d_40_kernel_read__247__cf__247_0, padding=[0, 0, 0, 0], channels=256, kernel_size=[1, 1]) /* ty=Tensor[(1, 256, 14, 14), float32] span=from_string:145:22 */;
  %141 = nn.bias_add(%140, %resnet_model_conv2d_40_Conv2D_bn_offset_0) /* ty=Tensor[(1, 256, 14, 14), float32] span=from_string:146:18 */;
  %142 = nn.relu(%141) /* ty=Tensor[(1, 256, 14, 14), float32] span=from_string:147:20 */;
  %143 = nn.conv2d(%142, %resnet_model_conv2d_41_kernel_read__248__cf__248_0, padding=[1, 1, 1, 1], channels=256, kernel_size=[3, 3]) /* ty=Tensor[(1, 256, 14, 14), float32] span=from_string:148:22 */;
  %144 = nn.bias_add(%143, %resnet_model_conv2d_41_Conv2D_bn_offset_0) /* ty=Tensor[(1, 256, 14, 14), float32] span=from_string:149:18 */;
  %145 = nn.relu(%144) /* ty=Tensor[(1, 256, 14, 14), float32] span=from_string:150:20 */;
  %146 = nn.conv2d(%145, %resnet_model_conv2d_42_kernel_read__249__cf__249_0, padding=[0, 0, 0, 0], channels=1024, kernel_size=[1, 1]) /* ty=Tensor[(1, 1024, 14, 14), float32] span=from_string:151:22 */;
  %147 = nn.bias_add(%146, %resnet_model_conv2d_42_Conv2D_bn_offset_0) /* ty=Tensor[(1, 1024, 14, 14), float32] span=from_string:152:14 */;
  %148 = add(%147, %139) /* ty=Tensor[(1, 1024, 14, 14), float32] span=from_string:153:18 */;
  %149 = nn.relu(%148) /* ty=Tensor[(1, 1024, 14, 14), float32] span=from_string:161:20 */;
  %150 = nn.conv2d(%149, %resnet_model_conv2d_44_kernel_read__251__cf__251_0, padding=[0, 0, 0, 0], channels=512, kernel_size=[1, 1]) /* ty=Tensor[(1, 512, 14, 14), float32] span=from_string:155:22 */;
  %151 = nn.bias_add(%150, %resnet_model_conv2d_44_Conv2D_bn_offset_0) /* ty=Tensor[(1, 512, 14, 14), float32] span=from_string:156:18 */;
  %152 = nn.relu(%151) /* ty=Tensor[(1, 512, 14, 14), float32] span=from_string:157:20 */;
  %153 = nn.conv2d(%152, %resnet_model_conv2d_45_kernel_read__252__cf__252_0, strides=[2, 2], padding=[1, 1, 1, 1], channels=512, kernel_size=[3, 3]) /* ty=Tensor[(1, 512, 7, 7), float32] span=from_string:158:22 */;
  %154 = nn.bias_add(%153, %resnet_model_conv2d_45_Conv2D_bn_offset_0) /* ty=Tensor[(1, 512, 7, 7), float32] span=from_string:159:18 */;
  %155 = nn.relu(%154) /* ty=Tensor[(1, 512, 7, 7), float32] span=from_string:160:20 */;
  %156 = nn.conv2d(%155, %resnet_model_conv2d_46_kernel_read__253__cf__253_0, padding=[0, 0, 0, 0], channels=2048, kernel_size=[1, 1]) /* ty=Tensor[(1, 2048, 7, 7), float32] span=from_string:162:22 */;
  %157 = nn.conv2d(%149, %resnet_model_conv2d_43_kernel_read__250__cf__250_0, strides=[2, 2], padding=[0, 0, 0, 0], channels=2048, kernel_size=[1, 1]) /* ty=Tensor[(1, 2048, 7, 7), float32] span=from_string:163:22 */;
  %158 = nn.bias_add(%156, %resnet_model_conv2d_46_Conv2D_bn_offset_0) /* ty=Tensor[(1, 2048, 7, 7), float32] span=from_string:164:14 */;
  %159 = nn.bias_add(%157, %resnet_model_conv2d_43_Conv2D_bn_offset_0) /* ty=Tensor[(1, 2048, 7, 7), float32] span=from_string:164:20 */;
  %160 = add(%158, %159) /* ty=Tensor[(1, 2048, 7, 7), float32] span=from_string:165:18 */;
  %161 = nn.relu(%160) /* ty=Tensor[(1, 2048, 7, 7), float32] span=from_string:174:20 */;
  %162 = nn.conv2d(%161, %resnet_model_conv2d_47_kernel_read__254__cf__254_0, padding=[0, 0, 0, 0], channels=512, kernel_size=[1, 1]) /* ty=Tensor[(1, 512, 7, 7), float32] span=from_string:167:22 */;
  %163 = nn.bias_add(%162, %resnet_model_conv2d_47_Conv2D_bn_offset_0) /* ty=Tensor[(1, 512, 7, 7), float32] span=from_string:168:18 */;
  %164 = nn.relu(%163) /* ty=Tensor[(1, 512, 7, 7), float32] span=from_string:169:20 */;
  %165 = nn.conv2d(%164, %resnet_model_conv2d_48_kernel_read__255__cf__255_0, padding=[1, 1, 1, 1], channels=512, kernel_size=[3, 3]) /* ty=Tensor[(1, 512, 7, 7), float32] span=from_string:170:22 */;
  %166 = nn.bias_add(%165, %resnet_model_conv2d_48_Conv2D_bn_offset_0) /* ty=Tensor[(1, 512, 7, 7), float32] span=from_string:171:18 */;
  %167 = nn.relu(%166) /* ty=Tensor[(1, 512, 7, 7), float32] span=from_string:172:20 */;
  %168 = nn.conv2d(%167, %resnet_model_conv2d_49_kernel_read__256__cf__256_0, padding=[0, 0, 0, 0], channels=2048, kernel_size=[1, 1]) /* ty=Tensor[(1, 2048, 7, 7), float32] span=from_string:173:22 */;
  %169 = nn.bias_add(%168, %resnet_model_conv2d_49_Conv2D_bn_offset_0) /* ty=Tensor[(1, 2048, 7, 7), float32] span=from_string:174:14 */;
  %170 = add(%169, %161) /* ty=Tensor[(1, 2048, 7, 7), float32] span=from_string:175:18 */;
  %171 = nn.relu(%170) /* ty=Tensor[(1, 2048, 7, 7), float32] span=from_string:184:20 */;
  %172 = nn.conv2d(%171, %resnet_model_conv2d_50_kernel_read__258__cf__258_0, padding=[0, 0, 0, 0], channels=512, kernel_size=[1, 1]) /* ty=Tensor[(1, 512, 7, 7), float32] span=from_string:177:22 */;
  %173 = nn.bias_add(%172, %resnet_model_conv2d_50_Conv2D_bn_offset_0) /* ty=Tensor[(1, 512, 7, 7), float32] span=from_string:178:18 */;
  %174 = nn.relu(%173) /* ty=Tensor[(1, 512, 7, 7), float32] span=from_string:179:20 */;
  %175 = nn.conv2d(%174, %resnet_model_conv2d_51_kernel_read__259__cf__259_0, padding=[1, 1, 1, 1], channels=512, kernel_size=[3, 3]) /* ty=Tensor[(1, 512, 7, 7), float32] span=from_string:180:22 */;
  %176 = nn.bias_add(%175, %resnet_model_conv2d_51_Conv2D_bn_offset_0) /* ty=Tensor[(1, 512, 7, 7), float32] span=from_string:181:18 */;
  %177 = nn.relu(%176) /* ty=Tensor[(1, 512, 7, 7), float32] span=from_string:182:20 */;
  %178 = nn.conv2d(%177, %resnet_model_conv2d_52_kernel_read__260__cf__260_0, padding=[0, 0, 0, 0], channels=2048, kernel_size=[1, 1]) /* ty=Tensor[(1, 2048, 7, 7), float32] span=from_string:183:22 */;
  %179 = nn.bias_add(%178, %resnet_model_conv2d_52_Conv2D_bn_offset_0) /* ty=Tensor[(1, 2048, 7, 7), float32] span=from_string:184:14 */;
  %180 = add(%179, %171) /* ty=Tensor[(1, 2048, 7, 7), float32] span=from_string:185:18 */;
  %181 = nn.relu(%180) /* ty=Tensor[(1, 2048, 7, 7), float32] span=from_string:186:17 */;
  %182 = mean(%181, axis=[2, 3], keepdims=True) /* ty=Tensor[(1, 2048, 1, 1), float32] span=from_string:187:18 */;
  %183 = reshape(%182, newshape=[-1, 1, 1, 2048]) /* ty=Tensor[(1, 1, 1, 2048), float32] span=from_string:188:18 */;
  %184 = squeeze(%183, axis=[1, 2]) /* ty=Tensor[(1, 2048), float32] span=from_string:190:19 */;
  %185 = transpose(%resnet_model_dense_kernel_read__266__cf__266_0, axes=[1, 0]) /* ty=Tensor[(1001, 2048), float32] span=from_string:190:25 */;
  %186 = nn.dense(%184, %185, units=None, out_dtype="float32") /* ty=Tensor[(1, 1001), float32] span=from_string:191:14 */;
  %187 = add(%186, %resnet_model_dense_bias_read__265__cf__265_0) /* ty=Tensor[(1, 1001), float32] span=from_string:192:15 */;
  %188 = copy(%187) /* ty=Tensor[(1, 1001), float32] span=from_string:195:21 */;
  %189 = argmax(%188, axis=[1]) /* ty=Tensor[(1), int32] span=from_string:194:15 */;
  %190 = cast(%189, dtype="int64") /* ty=Tensor[(1), int64] span=from_string:196:15 */;
  %191 = nn.softmax(%188, axis=1) /* ty=Tensor[(1, 1001), float32] span=from_string:197:15 */;
  %192 = copy(%190) /* ty=Tensor[(1), int64] span=from_string:198:4 */;
  %193 = copy(%191) /* ty=Tensor[(1, 1001), float32] span=from_string:198:10 */;
  (%192, %193) /* ty=(Tensor[(1), int64], Tensor[(1, 1001), float32]) span=from_string:4:3 */
}