#[version = "0.0.5"]
def @main(%input_tensor:0: Tensor[(1, 3, 224, 224), float32], %resnet_model/conv2d_44/kernel/read/_251__cf__251:0: Tensor[(512, 1024, 1, 1), float32], %resnet_model/conv2d_43/Conv2D_bn_offset:0: Tensor[(2048), float32], %resnet_model/conv2d_43/kernel/read/_250__cf__250:0: Tensor[(2048, 1024, 1, 1), float32], %resnet_model/conv2d_42/Conv2D_bn_offset:0: Tensor[(1024), float32], %resnet_model/conv2d_42/kernel/read/_249__cf__249:0: Tensor[(1024, 256, 1, 1), float32], %resnet_model/conv2d_41/Conv2D_bn_offset:0: Tensor[(256), float32], %resnet_model/conv2d_41/kernel/read/_248__cf__248:0: Tensor[(256, 256, 3, 3), float32], %resnet_model/conv2d_40/Conv2D_bn_offset:0: Tensor[(256), float32], %resnet_model/conv2d_40/kernel/read/_247__cf__247:0: Tensor[(256, 1024, 1, 1), float32], %resnet_model/conv2d_39/Conv2D_bn_offset:0: Tensor[(1024), float32], %resnet_model/conv2d_39/kernel/read/_245__cf__245:0: Tensor[(1024, 256, 1, 1), float32], %resnet_model/conv2d_38/Conv2D_bn_offset:0: Tensor[(256), float32], %resnet_model/conv2d_38/kernel/read/_244__cf__244:0: Tensor[(256, 256, 3, 3), float32], %resnet_model/conv2d_37/Conv2D_bn_offset:0: Tensor[(256), float32], %resnet_model/conv2d_37/kernel/read/_243__cf__243:0: Tensor[(256, 1024, 1, 1), float32], %resnet_model/conv2d_36/Conv2D_bn_offset:0: Tensor[(1024), float32], %resnet_model/conv2d_36/kernel/read/_242__cf__242:0: Tensor[(1024, 256, 1, 1), float32], %resnet_model/conv2d_35/Conv2D_bn_offset:0: Tensor[(256), float32], %resnet_model/conv2d_35/kernel/read/_241__cf__241:0: Tensor[(256, 256, 3, 3), float32], %resnet_model/conv2d_34/Conv2D_bn_offset:0: Tensor[(256), float32], %resnet_model/conv2d_34/kernel/read/_240__cf__240:0: Tensor[(256, 1024, 1, 1), float32], %resnet_model/dense/kernel/read/_266__cf__266:0: Tensor[(2048, 1001), float32], %resnet_model/conv2d_33/Conv2D_bn_offset:0: Tensor[(1024), float32], %resnet_model/dense/bias/read/_265__cf__265:0: Tensor[(1001), float32], %resnet_model/conv2d/kernel/read/_212__cf__212:0: Tensor[(64, 3, 7, 7), float32], %resnet_model/conv2d_33/kernel/read/_239__cf__239:0: Tensor[(1024, 256, 1, 1), float32], %resnet_model/conv2d_21/Conv2D_bn_offset:0: Tensor[(128), float32], %resnet_model/conv2d_21/kernel/read/_226__cf__226:0: Tensor[(128, 512, 1, 1), float32], %resnet_model/conv2d_20/Conv2D_bn_offset:0: Tensor[(512), float32], %resnet_model/conv2d_20/kernel/read/_225__cf__225:0: Tensor[(512, 128, 1, 1), float32], %resnet_model/conv2d_19/Conv2D_bn_offset:0: Tensor[(128), float32], %resnet_model/conv2d_19/kernel/read/_223__cf__223:0: Tensor[(128, 128, 3, 3), float32], %resnet_model/conv2d_18/Conv2D_bn_offset:0: Tensor[(128), float32], %resnet_model/conv2d_18/kernel/read/_222__cf__222:0: Tensor[(128, 512, 1, 1), float32], %resnet_model/conv2d_17/Conv2D_bn_offset:0: Tensor[(512), float32], %resnet_model/conv2d_17/kernel/read/_221__cf__221:0: Tensor[(512, 128, 1, 1), float32], %resnet_model/conv2d_16/Conv2D_bn_offset:0: Tensor[(128), float32], %resnet_model/conv2d_16/kernel/read/_220__cf__220:0: Tensor[(128, 128, 3, 3), float32], %resnet_model/conv2d_15/Conv2D_bn_offset:0: Tensor[(128), float32], %resnet_model/conv2d_15/kernel/read/_219__cf__219:0: Tensor[(128, 512, 1, 1), float32], %resnet_model/conv2d_14/Conv2D_bn_offset:0: Tensor[(512), float32], %resnet_model/conv2d_14/kernel/read/_218__cf__218:0: Tensor[(512, 128, 1, 1), float32], %resnet_model/conv2d_13/Conv2D_bn_offset:0: Tensor[(128), float32], %resnet_model/conv2d_13/kernel/read/_217__cf__217:0: Tensor[(128, 128, 3, 3), float32], %resnet_model/conv2d_12/Conv2D_bn_offset:0: Tensor[(128), float32], %resnet_model/conv2d_12/kernel/read/_216__cf__216:0: Tensor[(128, 256, 1, 1), float32], %resnet_model/conv2d_11/Conv2D_bn_offset:0: Tensor[(512), float32], %reshape__269__270: Tensor[(4), int64], %resnet_model/conv2d_11/kernel/read/_215__cf__215:0: Tensor[(512, 256, 1, 1), float32], %resnet_model/conv2d_32/Conv2D_bn_offset:0: Tensor[(256), float32], %resnet_model/conv2d_32/kernel/read/_238__cf__238:0: Tensor[(256, 256, 3, 3), float32], %resnet_model/conv2d_31/Conv2D_bn_offset:0: Tensor[(256), float32], %resnet_model/conv2d_31/kernel/read/_237__cf__237:0: Tensor[(256, 1024, 1, 1), float32], %resnet_model/conv2d_30/Conv2D_bn_offset:0: Tensor[(1024), float32], %resnet_model/conv2d_30/kernel/read/_236__cf__236:0: Tensor[(1024, 256, 1, 1), float32], %resnet_model/conv2d_29/Conv2D_bn_offset:0: Tensor[(256), float32], %resnet_model/conv2d_29/kernel/read/_234__cf__234:0: Tensor[(256, 256, 3, 3), float32], %resnet_model/conv2d_28/Conv2D_bn_offset:0: Tensor[(256), float32], %resnet_model/conv2d_28/kernel/read/_233__cf__233:0: Tensor[(256, 1024, 1, 1), float32], %resnet_model/conv2d_27/Conv2D_bn_offset:0: Tensor[(1024), float32], %resnet_model/conv2d_27/kernel/read/_232__cf__232:0: Tensor[(1024, 256, 1, 1), float32], %resnet_model/conv2d_26/Conv2D_bn_offset:0: Tensor[(256), float32], %resnet_model/conv2d_26/kernel/read/_231__cf__231:0: Tensor[(256, 256, 3, 3), float32], %resnet_model/conv2d_25/Conv2D_bn_offset:0: Tensor[(256), float32], %resnet_model/conv2d_25/kernel/read/_230__cf__230:0: Tensor[(256, 512, 1, 1), float32], %resnet_model/conv2d_24/Conv2D_bn_offset:0: Tensor[(1024), float32], %resnet_model/conv2d_24/kernel/read/_229__cf__229:0: Tensor[(1024, 512, 1, 1), float32], %resnet_model/conv2d_23/Conv2D_bn_offset:0: Tensor[(512), float32], %resnet_model/conv2d_23/kernel/read/_228__cf__228:0: Tensor[(512, 128, 1, 1), float32], %resnet_model/conv2d_22/Conv2D_bn_offset:0: Tensor[(128), float32], %resnet_model/conv2d_22/kernel/read/_227__cf__227:0: Tensor[(128, 128, 3, 3), float32], %resnet_model/batch_normalization/moving_variance/read/_3__cf__3:0: Tensor[(64), float32], %resnet_model/conv2d_10/Conv2D_bn_offset:0: Tensor[(256), float32], %resnet_model/batch_normalization/moving_mean/read/_2__cf__2:0: Tensor[(64), float32], %resnet_model/conv2d_10/kernel/read/_214__cf__214:0: Tensor[(256, 64, 1, 1), float32], %resnet_model/batch_normalization/gamma/read/_1__cf__1:0: Tensor[(64), float32], %resnet_model/conv2d_9/Conv2D_bn_offset:0: Tensor[(64), float32], %resnet_model/batch_normalization/beta/read/_0__cf__0:0: Tensor[(64), float32], %resnet_model/conv2d_9/kernel/read/_264__cf__264:0: Tensor[(64, 64, 3, 3), float32], %resnet_model/conv2d_8/Conv2D_bn_offset:0: Tensor[(64), float32], %resnet_model/conv2d_8/kernel/read/_263__cf__263:0: Tensor[(64, 256, 1, 1), float32], %resnet_model/conv2d_7/Conv2D_bn_offset:0: Tensor[(256), float32], %resnet_model/conv2d_52/Conv2D_bn_offset:0: Tensor[(2048), float32], %resnet_model/conv2d_7/kernel/read/_262__cf__262:0: Tensor[(256, 64, 1, 1), float32], %resnet_model/conv2d_52/kernel/read/_260__cf__260:0: Tensor[(2048, 512, 1, 1), float32], %resnet_model/conv2d_6/Conv2D_bn_offset:0: Tensor[(64), float32], %resnet_model/conv2d_51/Conv2D_bn_offset:0: Tensor[(512), float32], %resnet_model/conv2d_6/kernel/read/_261__cf__261:0: Tensor[(64, 64, 3, 3), float32], %resnet_model/conv2d_51/kernel/read/_259__cf__259:0: Tensor[(512, 512, 3, 3), float32], %resnet_model/conv2d_5/Conv2D_bn_offset:0: Tensor[(64), float32], %resnet_model/conv2d_50/Conv2D_bn_offset:0: Tensor[(512), float32], %resnet_model/conv2d_5/kernel/read/_257__cf__257:0: Tensor[(64, 256, 1, 1), float32], %resnet_model/conv2d_50/kernel/read/_258__cf__258:0: Tensor[(512, 2048, 1, 1), float32], %resnet_model/conv2d_4/Conv2D_bn_offset:0: Tensor[(256), float32], %resnet_model/conv2d_49/Conv2D_bn_offset:0: Tensor[(2048), float32], %resnet_model/conv2d_4/kernel/read/_246__cf__246:0: Tensor[(256, 64, 1, 1), float32], %resnet_model/conv2d_49/kernel/read/_256__cf__256:0: Tensor[(2048, 512, 1, 1), float32], %resnet_model/conv2d_3/Conv2D_bn_offset:0: Tensor[(64), float32], %resnet_model/conv2d_48/Conv2D_bn_offset:0: Tensor[(512), float32], %resnet_model/conv2d_3/kernel/read/_235__cf__235:0: Tensor[(64, 64, 3, 3), float32], %resnet_model/conv2d_48/kernel/read/_255__cf__255:0: Tensor[(512, 512, 3, 3), float32], %resnet_model/conv2d_2/Conv2D_bn_offset:0: Tensor[(64), float32], %resnet_model/conv2d_47/Conv2D_bn_offset:0: Tensor[(512), float32], %resnet_model/conv2d_2/kernel/read/_224__cf__224:0: Tensor[(64, 64, 1, 1), float32], %resnet_model/conv2d_47/kernel/read/_254__cf__254:0: Tensor[(512, 2048, 1, 1), float32], %resnet_model/conv2d_1/Conv2D_bn_offset:0: Tensor[(256), float32], %resnet_model/conv2d_46/Conv2D_bn_offset:0: Tensor[(2048), float32], %resnet_model/conv2d_1/kernel/read/_213__cf__213:0: Tensor[(256, 64, 1, 1), float32], %resnet_model/conv2d_46/kernel/read/_253__cf__253:0: Tensor[(2048, 512, 1, 1), float32], %resnet_model/conv2d_45/Conv2D_bn_offset:0: Tensor[(512), float32], %resnet_model/conv2d_45/kernel/read/_252__cf__252:0: Tensor[(512, 512, 3, 3), float32], %resnet_model/conv2d_44/Conv2D_bn_offset:0: Tensor[(512), float32]) -> (Tensor[(1), int64], Tensor[(1, 1001), float32]) {
  %0 = add(%resnet_model/batch_normalization/moving_variance/read/_3__cf__3:0, 1.001e-05f /* ty=float32 */) /* ty=Tensor[(64), float32] */;
  %1 = sqrt(%0) /* ty=Tensor[(64), float32] */;
  %2 = divide(1f /* ty=float32 */, %1) /* ty=Tensor[(64), float32] */;
  %3 = multiply(%2, %resnet_model/batch_normalization/gamma/read/_1__cf__1:0) /* ty=Tensor[(64), float32] */;
  %4 = nn.conv2d(%input_tensor:0, %resnet_model/conv2d/kernel/read/_212__cf__212:0, strides=[2, 2], padding=[3, 3, 3, 3], channels=64, kernel_size=[7, 7]) /* ty=Tensor[(1, 64, 112, 112), float32] */;
  %5 = expand_dims(%3, axis=1, num_newaxis=2) /* ty=Tensor[(64, 1, 1), float32] */;
  %6 = negative(%resnet_model/batch_normalization/moving_mean/read/_2__cf__2:0) /* ty=Tensor[(64), float32] */;
  %7 = multiply(%6, %3) /* ty=Tensor[(64), float32] */;
  %8 = add(%7, %resnet_model/batch_normalization/beta/read/_0__cf__0:0) /* ty=Tensor[(64), float32] */;
  %9 = multiply(%4, %5) /* ty=Tensor[(1, 64, 112, 112), float32] */;
  %10 = expand_dims(%8, axis=1, num_newaxis=2) /* ty=Tensor[(64, 1, 1), float32] */;
  %11 = add(%9, %10) /* ty=Tensor[(1, 64, 112, 112), float32] */;
  %12 = nn.relu(%11) /* ty=Tensor[(1, 64, 112, 112), float32] */;
  %13 = nn.max_pool2d(%12, pool_size=[3, 3], strides=[2, 2], padding=[0, 0, 1, 1]) /* ty=Tensor[(1, 64, 56, 56), float32] */;
  %14 = nn.conv2d(%13, %resnet_model/conv2d_2/kernel/read/_224__cf__224:0, padding=[0, 0, 0, 0], channels=64, kernel_size=[1, 1]) /* ty=Tensor[(1, 64, 56, 56), float32] */;
  %15 = nn.bias_add(%14, %resnet_model/conv2d_2/Conv2D_bn_offset:0) /* ty=Tensor[(1, 64, 56, 56), float32] */;
  %16 = nn.relu(%15) /* ty=Tensor[(1, 64, 56, 56), float32] */;
  %17 = nn.conv2d(%16, %resnet_model/conv2d_3/kernel/read/_235__cf__235:0, padding=[1, 1, 1, 1], channels=64, kernel_size=[3, 3]) /* ty=Tensor[(1, 64, 56, 56), float32] */;
  %18 = nn.bias_add(%17, %resnet_model/conv2d_3/Conv2D_bn_offset:0) /* ty=Tensor[(1, 64, 56, 56), float32] */;
  %19 = nn.relu(%18) /* ty=Tensor[(1, 64, 56, 56), float32] */;
  %20 = nn.conv2d(%19, %resnet_model/conv2d_4/kernel/read/_246__cf__246:0, padding=[0, 0, 0, 0], channels=256, kernel_size=[1, 1]) /* ty=Tensor[(1, 256, 56, 56), float32] */;
  %21 = nn.conv2d(%13, %resnet_model/conv2d_1/kernel/read/_213__cf__213:0, padding=[0, 0, 0, 0], channels=256, kernel_size=[1, 1]) /* ty=Tensor[(1, 256, 56, 56), float32] */;
  %22 = nn.bias_add(%20, %resnet_model/conv2d_4/Conv2D_bn_offset:0) /* ty=Tensor[(1, 256, 56, 56), float32] */;
  %23 = nn.bias_add(%21, %resnet_model/conv2d_1/Conv2D_bn_offset:0) /* ty=Tensor[(1, 256, 56, 56), float32] */;
  %24 = add(%22, %23) /* ty=Tensor[(1, 256, 56, 56), float32] */;
  %25 = nn.relu(%24) /* ty=Tensor[(1, 256, 56, 56), float32] */;
  %26 = nn.conv2d(%25, %resnet_model/conv2d_5/kernel/read/_257__cf__257:0, padding=[0, 0, 0, 0], channels=64, kernel_size=[1, 1]) /* ty=Tensor[(1, 64, 56, 56), float32] */;
  %27 = nn.bias_add(%26, %resnet_model/conv2d_5/Conv2D_bn_offset:0) /* ty=Tensor[(1, 64, 56, 56), float32] */;
  %28 = nn.relu(%27) /* ty=Tensor[(1, 64, 56, 56), float32] */;
  %29 = nn.conv2d(%28, %resnet_model/conv2d_6/kernel/read/_261__cf__261:0, padding=[1, 1, 1, 1], channels=64, kernel_size=[3, 3]) /* ty=Tensor[(1, 64, 56, 56), float32] */;
  %30 = nn.bias_add(%29, %resnet_model/conv2d_6/Conv2D_bn_offset:0) /* ty=Tensor[(1, 64, 56, 56), float32] */;
  %31 = nn.relu(%30) /* ty=Tensor[(1, 64, 56, 56), float32] */;
  %32 = nn.conv2d(%31, %resnet_model/conv2d_7/kernel/read/_262__cf__262:0, padding=[0, 0, 0, 0], channels=256, kernel_size=[1, 1]) /* ty=Tensor[(1, 256, 56, 56), float32] */;
  %33 = nn.bias_add(%32, %resnet_model/conv2d_7/Conv2D_bn_offset:0) /* ty=Tensor[(1, 256, 56, 56), float32] */;
  %34 = add(%33, %25) /* ty=Tensor[(1, 256, 56, 56), float32] */;
  %35 = nn.relu(%34) /* ty=Tensor[(1, 256, 56, 56), float32] */;
  %36 = nn.conv2d(%35, %resnet_model/conv2d_8/kernel/read/_263__cf__263:0, padding=[0, 0, 0, 0], channels=64, kernel_size=[1, 1]) /* ty=Tensor[(1, 64, 56, 56), float32] */;
  %37 = nn.bias_add(%36, %resnet_model/conv2d_8/Conv2D_bn_offset:0) /* ty=Tensor[(1, 64, 56, 56), float32] */;
  %38 = nn.relu(%37) /* ty=Tensor[(1, 64, 56, 56), float32] */;
  %39 = nn.conv2d(%38, %resnet_model/conv2d_9/kernel/read/_264__cf__264:0, padding=[1, 1, 1, 1], channels=64, kernel_size=[3, 3]) /* ty=Tensor[(1, 64, 56, 56), float32] */;
  %40 = nn.bias_add(%39, %resnet_model/conv2d_9/Conv2D_bn_offset:0) /* ty=Tensor[(1, 64, 56, 56), float32] */;
  %41 = nn.relu(%40) /* ty=Tensor[(1, 64, 56, 56), float32] */;
  %42 = nn.conv2d(%41, %resnet_model/conv2d_10/kernel/read/_214__cf__214:0, padding=[0, 0, 0, 0], channels=256, kernel_size=[1, 1]) /* ty=Tensor[(1, 256, 56, 56), float32] */;
  %43 = nn.bias_add(%42, %resnet_model/conv2d_10/Conv2D_bn_offset:0) /* ty=Tensor[(1, 256, 56, 56), float32] */;
  %44 = add(%43, %35) /* ty=Tensor[(1, 256, 56, 56), float32] */;
  %45 = nn.relu(%44) /* ty=Tensor[(1, 256, 56, 56), float32] */;
  %46 = nn.conv2d(%45, %resnet_model/conv2d_12/kernel/read/_216__cf__216:0, padding=[0, 0, 0, 0], channels=128, kernel_size=[1, 1]) /* ty=Tensor[(1, 128, 56, 56), float32] */;
  %47 = nn.bias_add(%46, %resnet_model/conv2d_12/Conv2D_bn_offset:0) /* ty=Tensor[(1, 128, 56, 56), float32] */;
  %48 = nn.relu(%47) /* ty=Tensor[(1, 128, 56, 56), float32] */;
  %49 = nn.conv2d(%48, %resnet_model/conv2d_13/kernel/read/_217__cf__217:0, strides=[2, 2], padding=[1, 1, 1, 1], channels=128, kernel_size=[3, 3]) /* ty=Tensor[(1, 128, 28, 28), float32] */;
  %50 = nn.bias_add(%49, %resnet_model/conv2d_13/Conv2D_bn_offset:0) /* ty=Tensor[(1, 128, 28, 28), float32] */;
  %51 = nn.relu(%50) /* ty=Tensor[(1, 128, 28, 28), float32] */;
  %52 = nn.conv2d(%51, %resnet_model/conv2d_14/kernel/read/_218__cf__218:0, padding=[0, 0, 0, 0], channels=512, kernel_size=[1, 1]) /* ty=Tensor[(1, 512, 28, 28), float32] */;
  %53 = nn.conv2d(%45, %resnet_model/conv2d_11/kernel/read/_215__cf__215:0, strides=[2, 2], padding=[0, 0, 0, 0], channels=512, kernel_size=[1, 1]) /* ty=Tensor[(1, 512, 28, 28), float32] */;
  %54 = nn.bias_add(%52, %resnet_model/conv2d_14/Conv2D_bn_offset:0) /* ty=Tensor[(1, 512, 28, 28), float32] */;
  %55 = nn.bias_add(%53, %resnet_model/conv2d_11/Conv2D_bn_offset:0) /* ty=Tensor[(1, 512, 28, 28), float32] */;
  %56 = add(%54, %55) /* ty=Tensor[(1, 512, 28, 28), float32] */;
  %57 = nn.relu(%56) /* ty=Tensor[(1, 512, 28, 28), float32] */;
  %58 = nn.conv2d(%57, %resnet_model/conv2d_15/kernel/read/_219__cf__219:0, padding=[0, 0, 0, 0], channels=128, kernel_size=[1, 1]) /* ty=Tensor[(1, 128, 28, 28), float32] */;
  %59 = nn.bias_add(%58, %resnet_model/conv2d_15/Conv2D_bn_offset:0) /* ty=Tensor[(1, 128, 28, 28), float32] */;
  %60 = nn.relu(%59) /* ty=Tensor[(1, 128, 28, 28), float32] */;
  %61 = nn.conv2d(%60, %resnet_model/conv2d_16/kernel/read/_220__cf__220:0, padding=[1, 1, 1, 1], channels=128, kernel_size=[3, 3]) /* ty=Tensor[(1, 128, 28, 28), float32] */;
  %62 = nn.bias_add(%61, %resnet_model/conv2d_16/Conv2D_bn_offset:0) /* ty=Tensor[(1, 128, 28, 28), float32] */;
  %63 = nn.relu(%62) /* ty=Tensor[(1, 128, 28, 28), float32] */;
  %64 = nn.conv2d(%63, %resnet_model/conv2d_17/kernel/read/_221__cf__221:0, padding=[0, 0, 0, 0], channels=512, kernel_size=[1, 1]) /* ty=Tensor[(1, 512, 28, 28), float32] */;
  %65 = nn.bias_add(%64, %resnet_model/conv2d_17/Conv2D_bn_offset:0) /* ty=Tensor[(1, 512, 28, 28), float32] */;
  %66 = add(%65, %57) /* ty=Tensor[(1, 512, 28, 28), float32] */;
  %67 = nn.relu(%66) /* ty=Tensor[(1, 512, 28, 28), float32] */;
  %68 = nn.conv2d(%67, %resnet_model/conv2d_18/kernel/read/_222__cf__222:0, padding=[0, 0, 0, 0], channels=128, kernel_size=[1, 1]) /* ty=Tensor[(1, 128, 28, 28), float32] */;
  %69 = nn.bias_add(%68, %resnet_model/conv2d_18/Conv2D_bn_offset:0) /* ty=Tensor[(1, 128, 28, 28), float32] */;
  %70 = nn.relu(%69) /* ty=Tensor[(1, 128, 28, 28), float32] */;
  %71 = nn.conv2d(%70, %resnet_model/conv2d_19/kernel/read/_223__cf__223:0, padding=[1, 1, 1, 1], channels=128, kernel_size=[3, 3]) /* ty=Tensor[(1, 128, 28, 28), float32] */;
  %72 = nn.bias_add(%71, %resnet_model/conv2d_19/Conv2D_bn_offset:0) /* ty=Tensor[(1, 128, 28, 28), float32] */;
  %73 = nn.relu(%72) /* ty=Tensor[(1, 128, 28, 28), float32] */;
  %74 = nn.conv2d(%73, %resnet_model/conv2d_20/kernel/read/_225__cf__225:0, padding=[0, 0, 0, 0], channels=512, kernel_size=[1, 1]) /* ty=Tensor[(1, 512, 28, 28), float32] */;
  %75 = nn.bias_add(%74, %resnet_model/conv2d_20/Conv2D_bn_offset:0) /* ty=Tensor[(1, 512, 28, 28), float32] */;
  %76 = add(%75, %67) /* ty=Tensor[(1, 512, 28, 28), float32] */;
  %77 = nn.relu(%76) /* ty=Tensor[(1, 512, 28, 28), float32] */;
  %78 = nn.conv2d(%77, %resnet_model/conv2d_21/kernel/read/_226__cf__226:0, padding=[0, 0, 0, 0], channels=128, kernel_size=[1, 1]) /* ty=Tensor[(1, 128, 28, 28), float32] */;
  %79 = nn.bias_add(%78, %resnet_model/conv2d_21/Conv2D_bn_offset:0) /* ty=Tensor[(1, 128, 28, 28), float32] */;
  %80 = nn.relu(%79) /* ty=Tensor[(1, 128, 28, 28), float32] */;
  %81 = nn.conv2d(%80, %resnet_model/conv2d_22/kernel/read/_227__cf__227:0, padding=[1, 1, 1, 1], channels=128, kernel_size=[3, 3]) /* ty=Tensor[(1, 128, 28, 28), float32] */;
  %82 = nn.bias_add(%81, %resnet_model/conv2d_22/Conv2D_bn_offset:0) /* ty=Tensor[(1, 128, 28, 28), float32] */;
  %83 = nn.relu(%82) /* ty=Tensor[(1, 128, 28, 28), float32] */;
  %84 = nn.conv2d(%83, %resnet_model/conv2d_23/kernel/read/_228__cf__228:0, padding=[0, 0, 0, 0], channels=512, kernel_size=[1, 1]) /* ty=Tensor[(1, 512, 28, 28), float32] */;
  %85 = nn.bias_add(%84, %resnet_model/conv2d_23/Conv2D_bn_offset:0) /* ty=Tensor[(1, 512, 28, 28), float32] */;
  %86 = add(%85, %77) /* ty=Tensor[(1, 512, 28, 28), float32] */;
  %87 = nn.relu(%86) /* ty=Tensor[(1, 512, 28, 28), float32] */;
  %88 = nn.conv2d(%87, %resnet_model/conv2d_25/kernel/read/_230__cf__230:0, padding=[0, 0, 0, 0], channels=256, kernel_size=[1, 1]) /* ty=Tensor[(1, 256, 28, 28), float32] */;
  %89 = nn.bias_add(%88, %resnet_model/conv2d_25/Conv2D_bn_offset:0) /* ty=Tensor[(1, 256, 28, 28), float32] */;
  %90 = nn.relu(%89) /* ty=Tensor[(1, 256, 28, 28), float32] */;
  %91 = nn.conv2d(%90, %resnet_model/conv2d_26/kernel/read/_231__cf__231:0, strides=[2, 2], padding=[1, 1, 1, 1], channels=256, kernel_size=[3, 3]) /* ty=Tensor[(1, 256, 14, 14), float32] */;
  %92 = nn.bias_add(%91, %resnet_model/conv2d_26/Conv2D_bn_offset:0) /* ty=Tensor[(1, 256, 14, 14), float32] */;
  %93 = nn.relu(%92) /* ty=Tensor[(1, 256, 14, 14), float32] */;
  %94 = nn.conv2d(%93, %resnet_model/conv2d_27/kernel/read/_232__cf__232:0, padding=[0, 0, 0, 0], channels=1024, kernel_size=[1, 1]) /* ty=Tensor[(1, 1024, 14, 14), float32] */;
  %95 = nn.conv2d(%87, %resnet_model/conv2d_24/kernel/read/_229__cf__229:0, strides=[2, 2], padding=[0, 0, 0, 0], channels=1024, kernel_size=[1, 1]) /* ty=Tensor[(1, 1024, 14, 14), float32] */;
  %96 = nn.bias_add(%94, %resnet_model/conv2d_27/Conv2D_bn_offset:0) /* ty=Tensor[(1, 1024, 14, 14), float32] */;
  %97 = nn.bias_add(%95, %resnet_model/conv2d_24/Conv2D_bn_offset:0) /* ty=Tensor[(1, 1024, 14, 14), float32] */;
  %98 = add(%96, %97) /* ty=Tensor[(1, 1024, 14, 14), float32] */;
  %99 = nn.relu(%98) /* ty=Tensor[(1, 1024, 14, 14), float32] */;
  %100 = nn.conv2d(%99, %resnet_model/conv2d_28/kernel/read/_233__cf__233:0, padding=[0, 0, 0, 0], channels=256, kernel_size=[1, 1]) /* ty=Tensor[(1, 256, 14, 14), float32] */;
  %101 = nn.bias_add(%100, %resnet_model/conv2d_28/Conv2D_bn_offset:0) /* ty=Tensor[(1, 256, 14, 14), float32] */;
  %102 = nn.relu(%101) /* ty=Tensor[(1, 256, 14, 14), float32] */;
  %103 = nn.conv2d(%102, %resnet_model/conv2d_29/kernel/read/_234__cf__234:0, padding=[1, 1, 1, 1], channels=256, kernel_size=[3, 3]) /* ty=Tensor[(1, 256, 14, 14), float32] */;
  %104 = nn.bias_add(%103, %resnet_model/conv2d_29/Conv2D_bn_offset:0) /* ty=Tensor[(1, 256, 14, 14), float32] */;
  %105 = nn.relu(%104) /* ty=Tensor[(1, 256, 14, 14), float32] */;
  %106 = nn.conv2d(%105, %resnet_model/conv2d_30/kernel/read/_236__cf__236:0, padding=[0, 0, 0, 0], channels=1024, kernel_size=[1, 1]) /* ty=Tensor[(1, 1024, 14, 14), float32] */;
  %107 = nn.bias_add(%106, %resnet_model/conv2d_30/Conv2D_bn_offset:0) /* ty=Tensor[(1, 1024, 14, 14), float32] */;
  %108 = add(%107, %99) /* ty=Tensor[(1, 1024, 14, 14), float32] */;
  %109 = nn.relu(%108) /* ty=Tensor[(1, 1024, 14, 14), float32] */;
  %110 = nn.conv2d(%109, %resnet_model/conv2d_31/kernel/read/_237__cf__237:0, padding=[0, 0, 0, 0], channels=256, kernel_size=[1, 1]) /* ty=Tensor[(1, 256, 14, 14), float32] */;
  %111 = nn.bias_add(%110, %resnet_model/conv2d_31/Conv2D_bn_offset:0) /* ty=Tensor[(1, 256, 14, 14), float32] */;
  %112 = nn.relu(%111) /* ty=Tensor[(1, 256, 14, 14), float32] */;
  %113 = nn.conv2d(%112, %resnet_model/conv2d_32/kernel/read/_238__cf__238:0, padding=[1, 1, 1, 1], channels=256, kernel_size=[3, 3]) /* ty=Tensor[(1, 256, 14, 14), float32] */;
  %114 = nn.bias_add(%113, %resnet_model/conv2d_32/Conv2D_bn_offset:0) /* ty=Tensor[(1, 256, 14, 14), float32] */;
  %115 = nn.relu(%114) /* ty=Tensor[(1, 256, 14, 14), float32] */;
  %116 = nn.conv2d(%115, %resnet_model/conv2d_33/kernel/read/_239__cf__239:0, padding=[0, 0, 0, 0], channels=1024, kernel_size=[1, 1]) /* ty=Tensor[(1, 1024, 14, 14), float32] */;
  %117 = nn.bias_add(%116, %resnet_model/conv2d_33/Conv2D_bn_offset:0) /* ty=Tensor[(1, 1024, 14, 14), float32] */;
  %118 = add(%117, %109) /* ty=Tensor[(1, 1024, 14, 14), float32] */;
  %119 = nn.relu(%118) /* ty=Tensor[(1, 1024, 14, 14), float32] */;
  %120 = nn.conv2d(%119, %resnet_model/conv2d_34/kernel/read/_240__cf__240:0, padding=[0, 0, 0, 0], channels=256, kernel_size=[1, 1]) /* ty=Tensor[(1, 256, 14, 14), float32] */;
  %121 = nn.bias_add(%120, %resnet_model/conv2d_34/Conv2D_bn_offset:0) /* ty=Tensor[(1, 256, 14, 14), float32] */;
  %122 = nn.relu(%121) /* ty=Tensor[(1, 256, 14, 14), float32] */;
  %123 = nn.conv2d(%122, %resnet_model/conv2d_35/kernel/read/_241__cf__241:0, padding=[1, 1, 1, 1], channels=256, kernel_size=[3, 3]) /* ty=Tensor[(1, 256, 14, 14), float32] */;
  %124 = nn.bias_add(%123, %resnet_model/conv2d_35/Conv2D_bn_offset:0) /* ty=Tensor[(1, 256, 14, 14), float32] */;
  %125 = nn.relu(%124) /* ty=Tensor[(1, 256, 14, 14), float32] */;
  %126 = nn.conv2d(%125, %resnet_model/conv2d_36/kernel/read/_242__cf__242:0, padding=[0, 0, 0, 0], channels=1024, kernel_size=[1, 1]) /* ty=Tensor[(1, 1024, 14, 14), float32] */;
  %127 = nn.bias_add(%126, %resnet_model/conv2d_36/Conv2D_bn_offset:0) /* ty=Tensor[(1, 1024, 14, 14), float32] */;
  %128 = add(%127, %119) /* ty=Tensor[(1, 1024, 14, 14), float32] */;
  %129 = nn.relu(%128) /* ty=Tensor[(1, 1024, 14, 14), float32] */;
  %130 = nn.conv2d(%129, %resnet_model/conv2d_37/kernel/read/_243__cf__243:0, padding=[0, 0, 0, 0], channels=256, kernel_size=[1, 1]) /* ty=Tensor[(1, 256, 14, 14), float32] */;
  %131 = nn.bias_add(%130, %resnet_model/conv2d_37/Conv2D_bn_offset:0) /* ty=Tensor[(1, 256, 14, 14), float32] */;
  %132 = nn.relu(%131) /* ty=Tensor[(1, 256, 14, 14), float32] */;
  %133 = nn.conv2d(%132, %resnet_model/conv2d_38/kernel/read/_244__cf__244:0, padding=[1, 1, 1, 1], channels=256, kernel_size=[3, 3]) /* ty=Tensor[(1, 256, 14, 14), float32] */;
  %134 = nn.bias_add(%133, %resnet_model/conv2d_38/Conv2D_bn_offset:0) /* ty=Tensor[(1, 256, 14, 14), float32] */;
  %135 = nn.relu(%134) /* ty=Tensor[(1, 256, 14, 14), float32] */;
  %136 = nn.conv2d(%135, %resnet_model/conv2d_39/kernel/read/_245__cf__245:0, padding=[0, 0, 0, 0], channels=1024, kernel_size=[1, 1]) /* ty=Tensor[(1, 1024, 14, 14), float32] */;
  %137 = nn.bias_add(%136, %resnet_model/conv2d_39/Conv2D_bn_offset:0) /* ty=Tensor[(1, 1024, 14, 14), float32] */;
  %138 = add(%137, %129) /* ty=Tensor[(1, 1024, 14, 14), float32] */;
  %139 = nn.relu(%138) /* ty=Tensor[(1, 1024, 14, 14), float32] */;
  %140 = nn.conv2d(%139, %resnet_model/conv2d_40/kernel/read/_247__cf__247:0, padding=[0, 0, 0, 0], channels=256, kernel_size=[1, 1]) /* ty=Tensor[(1, 256, 14, 14), float32] */;
  %141 = nn.bias_add(%140, %resnet_model/conv2d_40/Conv2D_bn_offset:0) /* ty=Tensor[(1, 256, 14, 14), float32] */;
  %142 = nn.relu(%141) /* ty=Tensor[(1, 256, 14, 14), float32] */;
  %143 = nn.conv2d(%142, %resnet_model/conv2d_41/kernel/read/_248__cf__248:0, padding=[1, 1, 1, 1], channels=256, kernel_size=[3, 3]) /* ty=Tensor[(1, 256, 14, 14), float32] */;
  %144 = nn.bias_add(%143, %resnet_model/conv2d_41/Conv2D_bn_offset:0) /* ty=Tensor[(1, 256, 14, 14), float32] */;
  %145 = nn.relu(%144) /* ty=Tensor[(1, 256, 14, 14), float32] */;
  %146 = nn.conv2d(%145, %resnet_model/conv2d_42/kernel/read/_249__cf__249:0, padding=[0, 0, 0, 0], channels=1024, kernel_size=[1, 1]) /* ty=Tensor[(1, 1024, 14, 14), float32] */;
  %147 = nn.bias_add(%146, %resnet_model/conv2d_42/Conv2D_bn_offset:0) /* ty=Tensor[(1, 1024, 14, 14), float32] */;
  %148 = add(%147, %139) /* ty=Tensor[(1, 1024, 14, 14), float32] */;
  %149 = nn.relu(%148) /* ty=Tensor[(1, 1024, 14, 14), float32] */;
  %150 = nn.conv2d(%149, %resnet_model/conv2d_44/kernel/read/_251__cf__251:0, padding=[0, 0, 0, 0], channels=512, kernel_size=[1, 1]) /* ty=Tensor[(1, 512, 14, 14), float32] */;
  %151 = nn.bias_add(%150, %resnet_model/conv2d_44/Conv2D_bn_offset:0) /* ty=Tensor[(1, 512, 14, 14), float32] */;
  %152 = nn.relu(%151) /* ty=Tensor[(1, 512, 14, 14), float32] */;
  %153 = nn.conv2d(%152, %resnet_model/conv2d_45/kernel/read/_252__cf__252:0, strides=[2, 2], padding=[1, 1, 1, 1], channels=512, kernel_size=[3, 3]) /* ty=Tensor[(1, 512, 7, 7), float32] */;
  %154 = nn.bias_add(%153, %resnet_model/conv2d_45/Conv2D_bn_offset:0) /* ty=Tensor[(1, 512, 7, 7), float32] */;
  %155 = nn.relu(%154) /* ty=Tensor[(1, 512, 7, 7), float32] */;
  %156 = nn.conv2d(%155, %resnet_model/conv2d_46/kernel/read/_253__cf__253:0, padding=[0, 0, 0, 0], channels=2048, kernel_size=[1, 1]) /* ty=Tensor[(1, 2048, 7, 7), float32] */;
  %157 = nn.conv2d(%149, %resnet_model/conv2d_43/kernel/read/_250__cf__250:0, strides=[2, 2], padding=[0, 0, 0, 0], channels=2048, kernel_size=[1, 1]) /* ty=Tensor[(1, 2048, 7, 7), float32] */;
  %158 = nn.bias_add(%156, %resnet_model/conv2d_46/Conv2D_bn_offset:0) /* ty=Tensor[(1, 2048, 7, 7), float32] */;
  %159 = nn.bias_add(%157, %resnet_model/conv2d_43/Conv2D_bn_offset:0) /* ty=Tensor[(1, 2048, 7, 7), float32] */;
  %160 = add(%158, %159) /* ty=Tensor[(1, 2048, 7, 7), float32] */;
  %161 = nn.relu(%160) /* ty=Tensor[(1, 2048, 7, 7), float32] */;
  %162 = nn.conv2d(%161, %resnet_model/conv2d_47/kernel/read/_254__cf__254:0, padding=[0, 0, 0, 0], channels=512, kernel_size=[1, 1]) /* ty=Tensor[(1, 512, 7, 7), float32] */;
  %163 = nn.bias_add(%162, %resnet_model/conv2d_47/Conv2D_bn_offset:0) /* ty=Tensor[(1, 512, 7, 7), float32] */;
  %164 = nn.relu(%163) /* ty=Tensor[(1, 512, 7, 7), float32] */;
  %165 = nn.conv2d(%164, %resnet_model/conv2d_48/kernel/read/_255__cf__255:0, padding=[1, 1, 1, 1], channels=512, kernel_size=[3, 3]) /* ty=Tensor[(1, 512, 7, 7), float32] */;
  %166 = nn.bias_add(%165, %resnet_model/conv2d_48/Conv2D_bn_offset:0) /* ty=Tensor[(1, 512, 7, 7), float32] */;
  %167 = nn.relu(%166) /* ty=Tensor[(1, 512, 7, 7), float32] */;
  %168 = nn.conv2d(%167, %resnet_model/conv2d_49/kernel/read/_256__cf__256:0, padding=[0, 0, 0, 0], channels=2048, kernel_size=[1, 1]) /* ty=Tensor[(1, 2048, 7, 7), float32] */;
  %169 = nn.bias_add(%168, %resnet_model/conv2d_49/Conv2D_bn_offset:0) /* ty=Tensor[(1, 2048, 7, 7), float32] */;
  %170 = add(%169, %161) /* ty=Tensor[(1, 2048, 7, 7), float32] */;
  %171 = nn.relu(%170) /* ty=Tensor[(1, 2048, 7, 7), float32] */;
  %172 = nn.conv2d(%171, %resnet_model/conv2d_50/kernel/read/_258__cf__258:0, padding=[0, 0, 0, 0], channels=512, kernel_size=[1, 1]) /* ty=Tensor[(1, 512, 7, 7), float32] */;
  %173 = nn.bias_add(%172, %resnet_model/conv2d_50/Conv2D_bn_offset:0) /* ty=Tensor[(1, 512, 7, 7), float32] */;
  %174 = nn.relu(%173) /* ty=Tensor[(1, 512, 7, 7), float32] */;
  %175 = nn.conv2d(%174, %resnet_model/conv2d_51/kernel/read/_259__cf__259:0, padding=[1, 1, 1, 1], channels=512, kernel_size=[3, 3]) /* ty=Tensor[(1, 512, 7, 7), float32] */;
  %176 = nn.bias_add(%175, %resnet_model/conv2d_51/Conv2D_bn_offset:0) /* ty=Tensor[(1, 512, 7, 7), float32] */;
  %177 = nn.relu(%176) /* ty=Tensor[(1, 512, 7, 7), float32] */;
  %178 = nn.conv2d(%177, %resnet_model/conv2d_52/kernel/read/_260__cf__260:0, padding=[0, 0, 0, 0], channels=2048, kernel_size=[1, 1]) /* ty=Tensor[(1, 2048, 7, 7), float32] */;
  %179 = nn.bias_add(%178, %resnet_model/conv2d_52/Conv2D_bn_offset:0) /* ty=Tensor[(1, 2048, 7, 7), float32] */;
  %180 = add(%179, %171) /* ty=Tensor[(1, 2048, 7, 7), float32] */;
  %181 = nn.relu(%180) /* ty=Tensor[(1, 2048, 7, 7), float32] */;
  %182 = mean(%181, axis=[2, 3], keepdims=True) /* ty=Tensor[(1, 2048, 1, 1), float32] */;
  %183 = reshape(%182, newshape=[-1, 1, 1, 2048]) /* ty=Tensor[(1, 1, 1, 2048), float32] */;
  %184 = squeeze(%183, axis=[1, 2]) /* ty=Tensor[(1, 2048), float32] */;
  %185 = transpose(%resnet_model/dense/kernel/read/_266__cf__266:0, axes=[1, 0]) /* ty=Tensor[(1001, 2048), float32] */;
  %186 = nn.dense(%184, %185, units=None, out_dtype="float32") /* ty=Tensor[(1, 1001), float32] */;
  %187 = add(%186, %resnet_model/dense/bias/read/_265__cf__265:0) /* ty=Tensor[(1, 1001), float32] */;
  %188 = copy(%187) /* ty=Tensor[(1, 1001), float32] */;
  %189 = argmax(%188, axis=[1]) /* ty=Tensor[(1), int32] */;
  %190 = cast(%189, dtype="int64") /* ty=Tensor[(1), int64] */;
  %191 = nn.softmax(%188, axis=1) /* ty=Tensor[(1, 1001), float32] */;
  %192 = copy(%190) /* ty=Tensor[(1), int64] */;
  %193 = copy(%191) /* ty=Tensor[(1, 1001), float32] */;
  (%192, %193)
}